pretrained/model-circuits_5_qubits-15.pt (torch, 290690 bytes, 50 tensors)

encoder.gcs.0.weight f4 [32, 9]
0	0x3eb49879	0.35272577
1	0x3e809267	0.25111696
2	0x3ea0299c	0.31281745
3	0x3ebc8b61	0.36825088
4	0xc04afe5d	-3.171775
5	0x3f681d97	0.9067015
6	0x3f5984b8	0.8496814
7	0x3f62592e	0.8841733
8	0x3f583ef3	0.8447105
9	0x3f423c8c	0.7587364
10	0x3f3eb30d	0.7449196
11	0x3f3ff41b	0.7498185
12	0x3f419580	0.75618744
13	0xbe8c8369	-0.27444008
14	0xbe89aca6	-0.26889533
15	0xbe5f709f	-0.21820305
16	0xbe4a1080	-0.19732857
17	0xbe730d77	-0.23735605
18	0x3eeaa2e3	0.45827398
19	0x3ef2c178	0.4741323
20	0x3ede9911	0.43476155
21	0x3f038f59	0.51390606
22	0x3d7b8667	0.061407473
23	0x3dccb43f	0.09995317
24	0xbf9d7de3	-1.2304043
25	0x3c47a69c	0.012185719
26	0x3d4a70ad	0.049423862
27	0x3f3d698c	0.73989177
28	0x3edda7dc	0.4329213
29	0x3f35cdee	0.7101735
30	0x3f2ef788	0.6834645
31	0x3f046310	0.5171366
32	0x3f0e7d67	0.556601
33	0x3f189bc0	0.59612656
34	0x3e825253	0.25453433
35	0xc08c16c1	-4.3777776
36	0x3f8843a6	1.0645645
37	0x3f81130f	1.0083941
38	0x3f8f2fb3	1.1186432
39	0xc0cf88a9	-6.485432
40	0x3f61b446	0.881657
41	0x3f1706e9	0.5899492
42	0x3f24232d	0.64116174
43	0x3f652d96	0.89522684
44	0x3f51d494	0.81964993
45	0x3edff19d	0.43739024
46	0xc09c50c8	-4.884861
47	0x3f390a8d	0.72281724
48	0xc07e1956	-3.9702964
49	0x3e1ded2d	0.15422507
50	0x3ef7635c	0.48317993
51	0xbed7c9b8	-0.42146087
52	0x3f369a2c	0.71329
53	0x3ed5f5f3	0.41789207
54	0x3f4137f5	0.7547601
55	0x3f6f3322	0.934374
56	0x3ee4fc40	0.447237
57	0xbecf5aff	-0.40499112
58	0x3eccfc9c	0.40036476
59	0x3e5637fe	0.20919797
60	0x3e033ad9	0.12815417
61	0x3eacb57b	0.3373221
62	0x3d9c7a39	0.076404996
63	0x3f440bdd	0.765806
64	0xbe9fd590	-0.31217623
65	0x3eb2286f	0.34796473
66	0x3f574661	0.84091765
67	0x3ea46968	0.3211167
68	0xbf01bba4	-0.5067694
69	0x3e94d865	0.29071346
70	0x3f1637bd	0.586788
71	0x3ed52120	0.41626835
72	0x3f4894a5	0.78351814
73	0x3f5ece05	0.8703311
74	0x3f3b2fea	0.73119986
75	0x3f4c3949	0.7977491
76	0x3f3b688d	0.73206407
77	0x3f485e40	0.78268814
78	0x3f477a9f	0.7792148
79	0x3f70fa6d	0.9413212
80	0xc0c0da60	-6.026657
81	0xc0377ec9	-2.8671134
82	0xc02fa347	-2.7443407
83	0x3e5b7d7b	0.21434586
84	0x3e34fa33	0.17673568
85	0x3ea8a112	0.32935387
86	0xbf0dcd7d	-0.55391675
87	0x3e4a1831	0.19735791
88	0x3f1e2920	0.617815
89	0x3f01726e	0.5056523
90	0x3e9e9792	0.30975014
91	0x3e478ad2	0.1948655
92	0x3f03ffb9	0.51562077
93	0x3e935381	0.28774646
94	0xbfd06223	-1.6279949
95	0x3dbd5804	0.09245303
96	0x3e21c2a0	0.157969
97	0xb9fc9330	-0.0004817485
98	0xbb84fbae	-0.004058323
99	0xbe884f98	-0.26623225
100	0x3f499719	0.7874618
101	0xbec75534	-0.38932192
102	0x3ea439c1	0.32075313
103	0x3ec8617c	0.39136875
104	0x3e87abd9	0.26498297
105	0x3e91281c	0.28350914
106	0x3f11fbcd	0.5702484
107	0x3ee04024	0.43798935
108	0x3ee1f6ae	0.44133514
109	0x3ebd8268	0.37013555
110	0x3eba9dce	0.3644852
111	0x3f186ebc	0.5954397
112	0x3f04d2ad	0.51883966
113	0xbf8614e8	-1.047513
114	0x3e5a68ff	0.21329115
115	0x3e8be1ec	0.27320802
116	0x3dce9632	0.10087241
117	0xbe403d60	-0.18773413
118	0xbec0fe77	-0.3769414
119	0xbebe4f84	-0.3717004
120	0xbee0fd8c	-0.4394344
121	0x3f570701	0.8399506
122	0x3f7119da	0.9418007
123	0xbf2613d6	-0.6487402
124	0x3f0700d7	0.52735656
125	0x3e7fcad3	0.24979715
126	0xc0fa12d5	-7.814799
127	0x3f24f0fc	0.6443021
128	0x3fb2867c	1.3947291
129	0x3f679c4e	0.9047288
130	0x3f2c381a	0.67273104
131	0x3f19ee0d	0.6012886
132	0x3f35d8da	0.71034014
133	0x3f9ab3ed	1.2086159
134	0x3f2b0d4c	0.66817164
135	0x3f1060f3	0.5639793
136	0x3f37a709	0.7173925
137	0x3f43181a	0.7620865
138	0x3edd68b1	0.43243936
139	0xbcaa04d7	-0.020754261
140	0xbccf61eb	-0.025315246
141	0xbf72e088	-0.9487386
142	0x3e4ee59a	0.20204774
143	0xbc872eae	-0.01650175
144	0x3dec98da	0.115525916
145	0xbf2c734c	-0.6736343
146	0xbd92973b	-0.07157751
147	0x3e3ccf4f	0.18438457
148	0x3ebf5bc3	0.37374696
149	0x3f1e1e01	0.6176453
150	0x3f10da1e	0.5658282
151	0x3f402641	0.7505837
152	0x3e4868e9	0.1957127
153	0x3e1f1881	0.15536691
154	0xbef2e49e	-0.47440046
155	0xbf26e8d5	-0.65199023
156	0x3e2c2d8b	0.16814248
157	0x3efc1bef	0.49240062
158	0x3f350168	0.7070527
159	0x3f45137c	0.76982856
160	0xbebb3140	-0.36561012
161	0x3e933933	0.28754577
162	0x3f2d7ec9	0.67771584
163	0x3f1bab5e	0.6080836
164	0x3f1e87dd	0.6192606
165	0x3f2dc42f	0.6787748
166	0xbe793db0	-0.24339938
167	0xbe63eb6f	-0.2225778
168	0xbe4c12ee	-0.19929096
169	0xbdf31a8b	-0.11870297
170	0xbf066f75	-0.5251382
171	0x3ef5efab	0.48034415
172	0x3dbbb5c3	0.09165528
173	0x3e26c690	0.16286683
174	0x3f519557	0.818685
175	0x3f00b4f1	0.50276095
176	0x3f379548	0.7171216
177	0x3c8ca120	0.017166674
178	0xbcf112bb	-0.029427877
179	0x3e5606a0	0.20900965
180	0xbf8ff680	-1.1247101
181	0x3dd6081c	0.104507655
182	0xbfa2f1e9	-1.2730075
183	0xbf8b4b88	-1.0882425
184	0xbf0c589e	-0.5482272
185	0x3e85e8ee	0.26154274
186	0x3ef6f787	0.48235723
187	0xbf0f5697	-0.559915
188	0x3ed03842	0.4066792
189	0xc0147bb4	-2.3200502
190	0xbd9b6d41	-0.07589198
191	0x3de6c84c	0.11268672
192	0xbe471620	-0.19442034
193	0x3e89802b	0.26855597
194	0x3ef0aa25	0.4700481
195	0x3df78905	0.12086681
196	0x3f210c85	0.6290973
197	0x3ea26482	0.31717306
198	0x3f056e0f	0.5212106
199	0xc09f07c5	-4.9696984
200	0x3f10cc2b	0.56561536
201	0x3e32a7d2	0.17446831
202	0x3f0f8dc8	0.56075716
203	0x3f0b2f75	0.5436929
204	0x3f6e5885	0.9310382
205	0x3f4a8a39	0.7911716
206	0x3f1a031a	0.6016098
207	0x3e1cc048	0.15307724
208	0x3dabf946	0.083971545
209	0xbedd5ef5	-0.4323651
210	0xbeae1812	-0.3400274
211	0x3f45357e	0.7703475
212	0xbf66f42c	-0.90216327
213	0x3ef1b090	0.4720502
214	0x3f1efd6c	0.6210544
215	0x3f1c2377	0.60991615
216	0x3f600f29	0.8752313
217	0xbf59d664	-0.8509276
218	0xbeacbd17	-0.33738014
219	0x3f81a690	1.0128956
220	0x3dbc59b7	0.09196799
221	0x3eeb23db	0.45925793
222	0x3d9edf11	0.0775739
223	0x3d880d40	0.06643152
224	0x3e91c1ae	0.28468078
225	0xc091f9f7	-4.5617633
226	0x3ee30ff0	0.44348097
227	0x3f492cf4	0.7858422
228	0x3ef104ef	0.47074077
229	0x3ecbe4ab	0.39822897
230	0x3ee7d5c7	0.45280287
231	0x3babfe97	0.0052488553
232	0x3f12a382	0.57280743
233	0x3efb8571	0.49125245
234	0xc0755c07	-3.833742
235	0x3f56df58	0.83934546
236	0xbfd3bd80	-1.6542206
237	0x3f102e9b	0.56321114
238	0x3db89b8c	0.09014043
239	0x3d9ea505	0.07746319
240	0x3c1c2cc5	0.009532158
241	0xbc02d70a	-0.00798584
242	0xbe1b1485	-0.15144546
243	0x3eb3abe9	0.35092095
244	0x3f0678e5	0.5252822
245	0x3ecda3cb	0.40164027
246	0x3ea7d5a2	0.32780176
247	0xc06781a9	-3.6172888
248	0x3efddf02	0.49584204
249	0x3f183277	0.59452003
250	0x3f2525cf	0.64510816
251	0x3f032636	0.5123018
252	0xbe77f502	-0.24214557
253	0x3eb9f86f	0.36322352
254	0x3e4d6986	0.20059785
255	0xc03a2e80	-2.9090881

encoder.gcs.0.bias f4 [32]
0	0xbd25f9aa	-0.0405213
1	0xbe175358	-0.14777887
2	0xbe39e4b3	-0.18153648
3	0xbe355ad1	-0.17710425
4	0xbd90bc7b	-0.070672
5	0x3c3e4bc8	0.011614747
6	0xbd8de01c	-0.06927511
7	0xbe518503	-0.20460896
8	0xbe046bf1	-0.12931801
9	0xbde752f6	-0.112951204
10	0xbe053b2e	-0.13010857
11	0xbe586b7b	-0.2113475
12	0xbe16f9ac	-0.1474368
13	0xbe2c1b24	-0.16807228
14	0xbceb1b5e	-0.028699573
15	0xbe419d28	-0.18907607
16	0xbdec9033	-0.11550941
17	0xbe13f172	-0.14447573
18	0xbe4c9808	-0.1997987
19	0x3dceb732	0.100935355
20	0x3dcfc240	0.10144472
21	0x3d9db4ed	0.077005245
22	0xbddf1d72	-0.10894288
23	0xbe60ba25	-0.21946009
24	0xbe9cdb5d	-0.3063611
25	0xbe85354e	-0.2601723
26	0xbcabccf1	-0.020971747
27	0xbe4721e5	-0.19446523
28	0xbdbf98cd	-0.09355316
29	0xbcd264cc	-0.02568283
30	0xbe141b75	-0.14463599
31	0xbdecb3f1	-0.115577586

encoder.gcs.1.weight f4 [64, 32]
0	0xbe4dba97	-0.2009071
1	0xbe3cad36	-0.1842545
2	0xbe00c63d	-0.12575622
3	0x3a43e4e8	0.00074727694
4	0x3d5ba7ca	0.053626813
5	0xbe8c3368	-0.2738297
6	0xbea80df4	-0.32823145
7	0x3e284294	0.16431648
8	0xbe9a0860	-0.30084515
9	0xbe322d72	-0.17400149
10	0x3eb1267c	0.34599674
11	0x3e8440be	0.25830644
12	0x3e5cd0fa	0.21564093
13	0xbe14a893	-0.14517431
14	0xbdaacfed	-0.0834044
15	0xbd141002	-0.03614808
16	0xbe45f51f	-0.19331788
17	0xbe0b14b2	-0.13582113
18	0x3dba82ef	0.09107005
19	0xbda2780d	-0.07933054
20	0xbeb18588	-0.3467219
21	0xbecfb84d	-0.40570298
22	0xbe8ce828	-0.2752087
23	0x3ea2434c	0.31691968
24	0x3d0b8844	0.0340655
25	0xbdeda4ce	-0.116036996
26	0xbe889d99	-0.26682737
27	0xbddb3e09	-0.10705192
28	0xbe771b9d	-0.24131627
29	0xbeabca18	-0.33552623
30	0x3e34235c	0.17591614
31	0xbc7a90b9	-0.015293294
32	0x3e272092	0.16321018
33	0xbe9e4b53	-0.30916843
34	0x3e96a07f	0.29419324
35	0x3d3ae475	0.04562803
36	0x3e4a8c40	0.19780064
37	0x3dc29dd3	0.09502759
38	0x3d88fba9	0.06688625
39	0x3ef175d1	0.471602
40	0xbe1d15f7	-0.1534041
41	0xbf0e31d0	-0.5554476
42	0x3e4d30a5	0.20038088
43	0xbe732231	-0.23743512
44	0x3e5dbfc9	0.21655191
45	0xbd91347c	-0.07090089
46	0xc01aed9f	-2.4207532
47	0xbe215ec1	-0.15758802
48	0x3ea9f7ef	0.3319697
49	0xbd350f7f	-0.04420423
50	0xbec43dea	-0.38328487
51	0x3e0ade4e	0.13561365
52	0xbd9bd123	-0.07608249
53	0xbeb76052	-0.35815674
54	0x3e77c364	0.2419563
55	0xbe482098	-0.19543684
56	0xbe1a9349	-0.15095247
57	0xbf0e05fd	-0.5547789
58	0xbf7608b7	-0.9610705
59	0xbe5afe04	-0.21385962
60	0xbeb119af	-0.34589908
61	0xbe9d679b	-0.30743107
62	0x3e191ac3	0.14951615
63	0xbdd78ef2	-0.105253115
64	0xbe895c18	-0.26828074
65	0x3e8c7e68	0.2744019
66	0xbe913425	-0.28360096
67	0xbefa7647	-0.48918363
68	0xc05887d0	-3.3832893
69	0xbf61107c	-0.8791578
70	0x3e646909	0.22305693
71	0x3f3f46bc	0.7471731
72	0x3e563928	0.20920241
73	0x3e95229f	0.29127976
74	0x3e54d51f	0.20784424
75	0xbe173978	-0.14768016
76	0x3f655123	0.8957693
77	0x3ed17cd8	0.4091556
78	0x3ef3e14d	0.47632828
79	0xbd7403a0	-0.05957377
80	0xbe8b44c2	-0.27200896
81	0x3e47699f	0.19473885
82	0xbe6ed9ba	-0.23325244
83	0xbedfba8a	-0.43697006
84	0xbcf0184e	-0.029308464
85	0xbeb84f70	-0.35998106
86	0x3e4ad1b1	0.19806553
87	0x3ca20ef7	0.019782526
88	0xbdcf0aa7	-0.10109454
89	0xbf387c6e	-0.72064865
90	0xbe935c17	-0.28781196
91	0x3eb156b6	0.34636468
92	0xbf1a27e8	-0.6021714
93	0xbe74b63f	-0.23897646
94	0x3e90a6e2	0.2825232
95	0x3c306c74	0.010768045
96	0xbe96788f	-0.29388854
97	0x3edec222	0.43507487
98	0xbf1bf38c	-0.609185
99	0x3e45ec5f	0.1932845
100	0xbe585113	-0.21124677
101	0x3e9ac30e	0.3022694
102	0x3d184146	0.037171625
103	0xbe94664b	-0.28984293
104	0xbdcf76d6	-0.10130088
105	0xbe7d2550	-0.24721265
106	0x3e9fdedd	0.3122472
107	0xbf113b0c	-0.56730723
108	0xbe005e8d	-0.12536068
109	0xbe949098	-0.29016566
110	0xbd2f96ed	-0.042868543
111	0x3defe325	0.11713246
112	0xbedb3af1	-0.42818406
113	0x3e816cbb	0.25278267
114	0xbc927528	-0.01787813
115	0xbe94599b	-0.28974614
116	0x3e43e9b4	0.1913212
117	0x3e39bcf8	0.18138492
118	0x3e1a9b92	0.15098408
119	0xbd95302a	-0.07284577
120	0xbea0562c	-0.31315744
121	0x3f268b1c	0.65056014
122	0xbfd9c7b3	-1.7014068
123	0xbdcb5b10	-0.09929478
124	0x3eb47ef3	0.35253105
125	0x3df1b158	0.11801404
126	0xbef20395	-0.47268358
127	0x3e4d44ad	0.20045729
128	0xbe6971e3	-0.2279735
129	0xbef6a257	-0.4817073
130	0x3d1ca258	0.03824076
131	0x3e254a35	0.16141589
132	0x3eefd82f	0.46844622
133	0x3cc5f941	0.024166705
134	0x3e5fa183	0.21838956
135	0x3f12990e	0.5726479
136	0xbdb8a9d4	-0.09016767
137	0xbe6dd6b6	-0.23226437
138	0x3eb270eb	0.34851775
139	0xbf281ef0	-0.65672207
140	0x3e045b65	0.12925489
141	0xbed996d2	-0.4249788
142	0x3e73c7ed	0.23806734
143	0xbe83f241	-0.25770763
144	0xbed5842c	-0.41702402
145	0xbebb8d61	-0.366313
146	0x3ce908c2	0.028446559
147	0xbe0499bb	-0.12949269
148	0xbe74485b	-0.23855726
149	0xbf66f160	-0.9021206
150	0xbeaaaf7c	-0.3333701
151	0xbef3dee0	-0.47630978
152	0x3f8bfa4e	1.0935762
153	0x3e5fdf28	0.21862471
154	0x3ebed1a4	0.37269318
155	0xbc084cd0	-0.008319095
156	0xbfa0039a	-1.2501099
157	0xbda36942	-0.07979061
158	0x3d7ddcc4	0.061978117
159	0xbea55825	-0.3229381
160	0x3eb242a4	0.34816468
161	0xbe79e092	-0.24402073
162	0x3f334530	0.70027447
163	0x3d6a5414	0.05720909
164	0xbfd1afee	-1.6381814
165	0xbfb58b76	-1.4183185
166	0xbf70a74e	-0.94005287
167	0x3f268499	0.6504608
168	0x3e30fa57	0.17282997
169	0x3f256776	0.64610994
170	0x3c436fe6	0.011928534
171	0xbe9a2a99	-0.30110624
172	0x3ec6f0cb	0.38855585
173	0xbf0fc095	-0.5615323
174	0xbd463c65	-0.04839744
175	0xbcdf099e	-0.027226266
176	0x3e9ec830	0.31012106
177	0xbf8ec8e5	-1.1155058
178	0xbeaf51ae	-0.34242004
179	0x3db5b0a6	0.08871584
180	0xbec01e7c	-0.37523258
181	0xbed9b516	-0.4252097
182	0xbf329b05	-0.6976779
183	0xbe454091	-0.19262911
184	0x3eb249c4	0.34821904
185	0xbe8e7cec	-0.27829683
186	0x3e2dc745	0.16970547
187	0xbe9e4bc7	-0.3091719
188	0xbf073bcc	-0.5282562
189	0xbd5e3c6e	-0.05425685
190	0xbeef5712	-0.46746117
191	0xba999825	-0.0011718316
192	0x3ed03eb0	0.40672827
193	0x3e500d39	0.20317544
194	0x3e75d0f2	0.24005488
195	0xbe2ebc50	-0.17064023
196	0xbd904a69	-0.070454426
197	0x3dada5a3	0.08478858
198	0xbe4602ae	-0.1933696
199	0x3d052179	0.032502625
200	0x3e2993b0	0.16560245
201	0xbd33da41	-0.043909315
202	0x3f2cd0ae	0.6750592
203	0xbe718a82	-0.23587993
204	0xbd57ebac	-0.05271499
205	0x3ead07c1	0.33794978
206	0x3e5c3bf3	0.21507244
207	0xbe446402	-0.19178775
208	0xbe935141	-0.2877293
209	0x3e67e9d2	0.22647789
210	0xbc8a855a	-0.01690929
211	0x3c087ac1	0.008330048
212	0x3ece3df1	0.40281633
213	0x3e2a8348	0.16651642
214	0x3dc9fd83	0.09862807
215	0x3e64381c	0.22287029
216	0x3e105ebd	0.1409864
217	0xbea0f6f9	-0.31438425
218	0x3ca5cc9d	0.020239169
219	0x3f7bf705	0.98423797
220	0x3e98856c	0.29789293
221	0xbd00d64f	-0.03145438
222	0x3e2df710	0.16988778
223	0xbe7f66d8	-0.24941576
224	0xbeebd5aa	-0.4606145
225	0xbea83f54	-0.32860816
226	0xbf4a2e3e	-0.7897681
227	0x3d934372	0.071905985
228	0xbef9e246	-0.48805445
229	0x3ef4cc0b	0.47811922
230	0xbec88ec3	-0.3917142
231	0xbed9afd0	-0.42516947
232	0xbda7f2a5	-0.08200578
233	0xbf345ba7	-0.7045235
234	0xbf002509	-0.5005651
235	0xbe3bfd6e	-0.18358395
236	0xbdd37f37	-0.10326999
237	0xbf0242a0	-0.5088291
238	0xbee2557d	-0.44205847
239	0xbf266008	-0.6499028
240	0xbf0a49bd	-0.54018766
241	0xbed59908	-0.41718316
242	0xbebf6843	-0.37384233
243	0xbd212edf	-0.03935134
244	0x3ec6d888	0.38837075
245	0x3e4f9eb1	0.2027538
246	0xbf17d52b	-0.59309644
247	0xbf137a7c	-0.5760877
248	0xbe98466b	-0.29741225
249	0xbec1589f	-0.37762925
250	0x3ca6497f	0.020298718
251	0xbeaa18d4	-0.33222067
252	0xbf27e7c6	-0.65588033
253	0xbe98f45b	-0.29873928
254	0xbedd66d4	-0.43242514
255	0xbe934c60	-0.28769207

encoder.gcs.1.bias f4 [64]
0	0xba6d29d0	-0.0009047063
1	0xbe00c467	-0.12574922
2	0xbd026319	-0.03183279
3	0xbd40357d	-0.04692601
4	0xbd96bfb6	-0.07360785
5	0xbd83c6f4	-0.06434432
6	0xbe25ba81	-0.16184427
7	0xbc0bb80f	-0.00852777
8	0xbe1417b6	-0.1446217
9	0x3bfe9540	0.007769257
10	0xbd1dae1e	-0.03849613
11	0xbda5f3ed	-0.08103166
12	0xbe1b999a	-0.15195313
13	0xbe3f4adc	-0.186809
14	0xbdda6c5c	-0.10665199
15	0x3c7315c0	0.014836729
16	0xbd1f2b95	-0.038859922
17	0xbe16c478	-0.14723384
18	0xbd1dc9e7	-0.038522627
19	0xbe9a8d42	-0.30185896
20	0xbdd9d01b	-0.10635396
21	0xbcf2df23	-0.029647416
22	0xbd8ac34c	-0.06775531
23	0xbdea67d8	-0.11445588
24	0xbe09fc79	-0.13475217
25	0xbd87b571	-0.06626404
26	0xbd8e0384	-0.06934264
27	0xbea5fc36	-0.32418984
28	0xbd363000	-0.04447937
29	0xbd9315a2	-0.071818605
30	0xbe12bee0	-0.14330626
31	0xbd0d1045	-0.034439344
32	0xbe9ef3c2	-0.31045347
33	0xbaa86f72	-0.0012850596
34	0xbcfcd323	-0.030862397
35	0xbd411998	-0.04714355
36	0xbb939e9f	-0.004504993
37	0xbd13e2c7	-0.036104944
38	0xbdda1bf0	-0.1064986
39	0xbd461cda	-0.04836736
40	0xbe5032f6	-0.2033194
41	0xbe5ad6fb	-0.21371071
42	0x3a29b9b6	0.00064745115
43	0xbda669f0	-0.08125675
44	0xbd88f0bf	-0.06686544
45	0xbc2b42fd	-0.010452983
46	0x3d6ae8cd	0.057350922
47	0xbe2b43c9	-0.16725077
48	0xbd2d6307	-0.042330768
49	0xbdc1cd90	-0.09463036
50	0xbe57a448	-0.21058762
51	0xbd549bf5	-0.051906545
52	0xbc91fcef	-0.017820803
53	0xbd3ba66f	-0.04581302
54	0xbccfc2c1	-0.02536142
55	0x3ca77c2b	0.02044495
56	0xbeb47534	-0.3524567
57	0xbdf5da8f	-0.12004577
58	0xbcb96d0b	-0.022635004
59	0xbe8fc368	-0.2807877
60	0xbd01f600	-0.031728745
61	0xbe04fd75	-0.12987311
62	0xbd486834	-0.0489275
63	0xbdc3cd0d	-0.09560595

encoder.gcs.2.weight f4 [128, 64]
0	0x3e3b5383	0.18293576
1	0x3d673b2c	0.056452915
2	0x3e31da44	0.17368418
3	0x3f0d2cbf	0.551464
4	0xbecbf699	-0.39836577
5	0x3f736e05	0.9508975
6	0x3d4f8ff4	0.050674394
7	0xbdb53dd1	-0.08849681
8	0xbefb994f	-0.49140403
9	0x3d257710	0.04039675
10	0xbee58734	-0.44829714
11	0xbd1572f9	-0.0364866
12	0x3dfecaf0	0.12441051
13	0x3dbadbb0	0.09123933
14	0xbd6f562e	-0.058431797
15	0xbdd16a7d	-0.10225389
16	0x3f0dae5a	0.55344164
17	0xbe8ad917	-0.2711875
18	0xbe5b1b57	-0.21397148
19	0xbe82890b	-0.2549518
20	0xbdd7006f	-0.104981296
21	0x3ed9409f	0.42432114
22	0x3d91d056	0.07119815
23	0x3d800647	0.06251197
24	0x3dd595c2	0.10428955
25	0x3cf164fa	0.029467095
26	0xbf30d9c1	-0.69082266
27	0xbf0b30b4	-0.5437119
28	0xbea648c4	-0.3247739
29	0x3e3d0918	0.184605
30	0xbcc12dbd	-0.02358138
31	0xbd25ce2e	-0.04047983
32	0x3e8144ce	0.25247806
33	0x3dbc05e1	0.09180809
34	0x3c9bcc49	0.01901831
35	0xbf30126d	-0.68778116
36	0xbcbc293f	-0.022968886
37	0x3e5afeff	0.21386336
38	0xbedd6345	-0.432398
39	0xbe69b50e	-0.22822973
40	0x3f29ca38	0.66324186
41	0xbf1e1f07	-0.61766094
42	0x3db547b5	0.08851568
43	0xbe728690	-0.23684144
44	0x3df10538	0.117685735
45	0xbf06678c	-0.5250175
46	0xbe33deab	-0.1756541
47	0xbe4a795b	-0.19772856
48	0xbd467280	-0.04844904
49	0x3e1937b2	0.14962652
50	0xbe1c6b35	-0.15275271
51	0xbe1cfd16	-0.1533092
52	0x3e163a67	0.14670716
53	0x3e1dd90e	0.15414831
54	0xbf292582	-0.6607286
55	0xbd77a3f8	-0.060459107
56	0xbf0b2ffb	-0.5437009
57	0xbe92d55d	-0.28678408
58	0xbeca000f	-0.3945317
59	0x3eeef184	0.46668637
60	0xbdab068e	-0.083508596
61	0x3db8607f	0.0900278
62	0x3eb29dbe	0.34885973
63	0x3ed9b11d	0.4251794
64	0x3d105674	0.035238698
65	0x3e57e316	0.2108272
66	0xbec04e0a	-0.3755954
67	0xbeac23ab	-0.33620963
68	0x3eeedee7	0.46654436
69	0x3d9ec368	0.077521145
70	0x3e0d9b26	0.13828716
71	0x3d9f5b0a	0.07781036
72	0xbf217c97	-0.63080734
73	0xbd88e526	-0.066843316
74	0xbe0c7f03	-0.13720326
75	0xbf2c6a55	-0.6734975
76	0xbe028753	-0.12746935
77	0xbbc7c137	-0.006096031
78	0x3e986c71	0.29770234
79	0x3d054fbb	0.03254674
80	0x3e5109d4	0.20413905
81	0x3e9084ef	0.2822642
82	0xbfc8d400	-1.5689697
83	0xbee758d7	-0.45184967
84	0x3d6f25ae	0.058385544
85	0xbfb582cf	-1.4180545
86	0xbec1685b	-0.3777493
87	0x3d992284	0.074772865
88	0x3fc21f4d	1.5165802
89	0xbd5542b2	-0.05206556
90	0xc018bd98	-2.386572
91	0xbe725a90	-0.2366736
92	0xbf7afcd4	-0.98042035
93	0xbfeedd29	-1.8661243
94	0xbeba5dbb	-0.36399636
95	0x3d058f54	0.03260739
96	0xbf224b97	-0.6339659
97	0xbd40a64b	-0.04703359
98	0xbf7f5d64	-0.9975188
99	0x3e25081b	0.16116373
100	0xbe3eabdb	-0.18620245
101	0x3e348843	0.17630105
102	0x3ef85b18	0.48507
103	0x3dfaad5f	0.12240099
104	0x3c883a49	0.016629355
105	0xbafcdd4d	-0.0019292027
106	0xbdf48497	-0.11939352
107	0xbec7ce1a	-0.3902443
108	0xbe2ab7c5	-0.16671665
109	0xbebbd4e7	-0.3668587
110	0xbdc81440	-0.097694874
111	0xbed235dd	-0.4105672
112	0x3eeb2991	0.4593015
113	0xbe08c23d	-0.13355346
114	0xbca07754	-0.01958815
115	0x3e4fe655	0.20302708
116	0xbc85e9d0	-0.016346842
117	0x3d8d70cd	0.06906281
118	0xbe83116a	-0.25599223
119	0x3e244a26	0.1604391
120	0xbf2b9c3a	-0.6703526
121	0x3e3288cf	0.17435001
122	0x3ef7d669	0.4840577
123	0xbe9cab48	-0.30599427
124	0x3d4e0396	0.05029639
125	0xbfbe10dc	-1.4848895
126	0xbd249609	-0.040182147
127	0x3df46791	0.11933816
128	0xbd323b1c	-0.043513402
129	0xbee28052	-0.44238526
130	0xbe047ee7	-0.12939034
131	0x3cdab841	0.026699187
132	0xbd8c0280	-0.06836414
133	0xbe165adc	-0.14683098
134	0xbe5ae37c	-0.21375841
135	0xbe2a3b30	-0.1662414
136	0x3e82a6f7	0.2551801
137	0xbe207a0a	-0.15671554
138	0xbe822b4c	-0.25423658
139	0x3e9c60d0	0.30542612
140	0xbea74cc7	-0.32675764
141	0x3e345d2a	0.17613664
142	0xbe222f8d	-0.15838452
143	0xbf24d9c2	-0.6439477
144	0xbe65b0f8	-0.2243079
145	0xbdaab9ee	-0.083362445
146	0xbf8ec640	-1.1154251
147	0xbd49a0e8	-0.049225718
148	0x3da78cc0	0.08181143
149	0xbf401f48	-0.7504773
150	0x3e23c67f	0.15993689
151	0xbee98c8a	-0.45615035
152	0x3e8de1e1	0.27711394
153	0xbf37ce3d	-0.7179907
154	0xbeb9789f	-0.3622484
155	0xbe682230	-0.22669291
156	0xbee493c4	-0.44643986
157	0xbee5fcd2	-0.4491945
158	0xbeea43a6	-0.45754737
159	0xbdcbe3f3	-0.09955587
160	0xbdf7fa04	-0.121082336
161	0xbe09483a	-0.13406458
162	0xbf716c8f	-0.9430627
163	0x3f140e01	0.5783387
164	0x3c0693d7	0.008213959
165	0xbd875512	-0.06608023
166	0x3ded3544	0.11582425
167	0xbeaccdd0	-0.33750772
168	0xbda359d8	-0.07976121
169	0x3e439ccc	0.19102782
170	0x3d7d539c	0.061847314
171	0xbd2f8617	-0.042852487
172	0xbb2689bd	-0.0025411688
173	0xbd90f6bc	-0.07078311
174	0xbdfba863	-0.122879766
175	0x3e3f4518	0.18678701
176	0x3d1a37a4	0.03765072
177	0xbef9d833	-0.4879776
178	0xbe186022	-0.14880422
179	0x3e4da6ad	0.20083113
180	0xbea0a143	-0.31373033
181	0x3f2d133f	0.6760749
182	0xbeff1078	-0.49817252
183	0xbc92d4d5	-0.017923752
184	0xbdd195f6	-0.10233681
185	0x3d07220e	0.03299146
186	0x3e5fe519	0.21864738
187	0x3d77189a	0.060326196
188	0xbec376d7	-0.38176605
189	0x3daa2b59	0.08309049
190	0x3dd5ecdb	0.10445567
191	0x3d8d3ae9	0.06896002
192	0x3db0f5b3	0.086406134
193	0x3d84ab07	0.064779334
194	0xbea818c0	-0.32831383
195	0x3ec9290b	0.39289126
196	0x3e05c5d9	0.13063754
197	0xbf80f3ee	-1.0074441
198	0xbce25f29	-0.027633267
199	0xbd13e089	-0.036102805
200	0xbe3b771e	-0.18307158
201	0x3e806ee0	0.2508459
202	0xbc64babf	-0.013960539
203	0xbee0589e	-0.4381761
204	0xbe9db549	-0.30802372
205	0x3da13b96	0.07872693
206	0xbdc5a8b4	-0.09651318
207	0x3e062097	0.1309837
208	0xbe4d2cf5	-0.20036681
209	0xbd8d4983	-0.06898787
210	0xbee26fbf	-0.4422588
211	0xbdb8e532	-0.090280905
212	0x3e8ed2f5	0.27895322
213	0xbfac2c09	-1.3450938
214	0x3e6c58bc	0.23080724
215	0x3e933ca8	0.28757215
216	0xbe5e9b9c	-0.21739048
217	0xbc3bfbb8	-0.011473589
218	0xbe8350b8	-0.2564752
219	0xbec7ca32	-0.3902145
220	0xbe790ae9	-0.24320568
221	0x3be8134a	0.0070823776
222	0x3e7bc997	0.24588619
223	0xbe1f27ad	-0.15542479
224	0xbe738219	-0.23780097
225	0xbe1d88f8	-0.1538428
226	0x3ec74450	0.38919306
227	0x3e7f4ce4	0.24931675
228	0x3e0809ac	0.1328494
229	0x3de1bc2b	0.11022218
230	0xbe440d3c	-0.19145674
231	0x3e4b7ab0	0.1987102
232	0x3e1e0f83	0.15435605
233	0x3d91ccbb	0.07119127
234	0xbd0d9d7a	-0.03457401
235	0x3e705608	0.23470318
236	0x3eb4bef0	0.35301924
237	0xbe03ae5e	-0.12859485
238	0x3ea06259	0.31325033
239	0x3e29bf2f	0.16576837
240	0xbc674ba0	-0.0141171515
241	0xbe139a0e	-0.14414236
242	0xbe4c1f74	-0.19933873
243	0xbe3dbcc7	-0.18529044
244	0x3e2a13e6	0.16609153
245	0x3ef190ee	0.47180885
246	0xbeb16cf2	-0.3465343
247	0x3e401686	0.18758592
248	0x3e070317	0.13184772
249	0xbe7d06ca	-0.24709621
250	0x3f19378d	0.5985039
251	0xbe9e00a6	-0.3085987
252	0x3da1349d	0.07871363
253	0xbd81ba91	-0.06334413
254	0xbf0dae1b	-0.5534379
255	0xbf047de0	-0.5175457

encoder.gcs.2.bias f4 [128]
0	0xbd57e1ce	-0.05270558
1	0xbd9a9b3a	-0.07549138
2	0xbd86602f	-0.06561314
3	0xbe42f37a	-0.19038191
4	0xbd093b33	-0.033503722
5	0xbe1a022c	-0.15039891
6	0xbc4d3d64	-0.012526844
7	0xbd93db0f	-0.072195165
8	0x3cb5acb6	0.022177082
9	0xbe4355d5	-0.19075711
10	0xbd54a379	-0.051913712
11	0xbe01929d	-0.12653585
12	0xbd457306	-0.048205398
13	0xbdc49254	-0.095982224
14	0x398b32c1	0.0002654996
15	0xbc5d9cdc	-0.013526168
16	0xbda99129	-0.0827964
17	0xbdc51e04	-0.09624866
18	0xbe00ced9	-0.12578906
19	0xbe4009c6	-0.18753728
20	0xbd418246	-0.04724338
21	0xbce1b64f	-0.027552752
22	0xbe3d616f	-0.18494199
23	0xbda02e38	-0.078213155
24	0xbae687d5	-0.0017588089
25	0xbd52d549	-0.051472936
26	0xbe4bccac	-0.19902295
27	0xbe213cf6	-0.15745911
28	0xbd8c581c	-0.06852743
29	0xbd12fbab	-0.03588454
30	0xbdd2e006	-0.10296635
31	0xbd44093c	-0.04786037
32	0x3a66383e	0.00087821844
33	0xbe3fa71e	-0.18716094
34	0xbda77004	-0.08175662
35	0xbdb0e1bf	-0.08636808
36	0xbdceb538	-0.100931585
37	0xbe32d4ac	-0.1746394
38	0xbd9b9ff1	-0.07598866
39	0xbd8f8721	-0.07008196
40	0xbdc4f71b	-0.09617444
41	0xbe26db23	-0.16294532
42	0xbd94d021	-0.0726626
43	0xbe08850f	-0.13332008
44	0x3c10a1f0	0.008827671
45	0xbd5b612c	-0.053559467
46	0xbdcd7cec	-0.100335926
47	0xbd1c840b	-0.038211863
48	0xbd120498	-0.035648912
49	0xbe3e5588	-0.18587315
50	0xbe929059	-0.28625754
51	0xbdbfc8c6	-0.09364466
52	0xbc2fc8cd	-0.010729027
53	0xbcf5e7d0	-0.030017763
54	0xbd665224	-0.05623068
55	0xbe002620	-0.12514544
56	0xbd3d0b57	-0.046153393
57	0xbe3e1217	-0.18561588
58	0xbd77c569	-0.060491
59	0xbdb0504f	-0.08609068
60	0xbdcebad6	-0.1009423
61	0xbe7b9681	-0.24569131
62	0xbd52f0bd	-0.051499117
63	0xbe7498b7	-0.23886381
64	0xbbb8dbc0	-0.0056414306
65	0xbe341967	-0.17587815
66	0xbb93380e	-0.004492766
67	0xbc971f07	-0.018447412
68	0xbdca9bdf	-0.09893011
69	0xbc81d5e0	-0.015849054
70	0xbd84c941	-0.06483699
71	0xbd57e912	-0.052712508
72	0xbe08b1e8	-0.13349116
73	0xbd2d9932	-0.042382427
74	0xbd493743	-0.049124967
75	0xbe2b2c17	-0.16716038
76	0xbe2c1bfe	-0.16807553
77	0xbe2cf88e	-0.16891691
78	0xbdf644ce	-0.12024842
79	0xbb812b10	-0.003941901
80	0x3d520886	0.05127766
81	0xbd8d7bb3	-0.069083594
82	0xbe2cf8e1	-0.16891815
83	0x3b03f204	0.0020133266
84	0xbe035ed0	-0.12829137
85	0xbdee48a5	-0.116349496
86	0xbd8211d6	-0.06351058
87	0xbe888680	-0.26665115
88	0xbd093e59	-0.033506725
89	0xb9230193	-0.00015545478
90	0xbd10719f	-0.035264608
91	0x3c5d8493	0.013520378
92	0xbd264a4b	-0.040598195
93	0xba6626f7	-0.000877961
94	0xbd9407e0	-0.072280645
95	0x3c9a8144	0.018860467
96	0xbd7ca4e9	-0.061680708
97	0xbe809fd4	-0.2512194
98	0xbe3d0a10	-0.1846087
99	0xbe0b1e67	-0.13585816
100	0xbc144553	-0.009049731
101	0xbd126263	-0.03573836
102	0xbd9621f3	-0.07330694
103	0xbd6f4dcb	-0.0584238
104	0xbd9260ff	-0.07147407
105	0xbe4725b7	-0.19447981
106	0xbdff4238	-0.12463802
107	0xbe47521a	-0.19464913
108	0xbd6b1e81	-0.057402138
109	0xbe759e66	-0.23986205
110	0xbd8f52af	-0.069981925
111	0xbe3c6882	-0.18399242
112	0xbd00d661	-0.031454448
113	0xbe7d4cca	-0.24736324
114	0xbe0de37c	-0.1385631
115	0xb975b0c6	-0.00023430874
116	0xbd11e2c6	-0.03561666
117	0xbdb7a290	-0.08966553
118	0xbe7f3f0e	-0.24926397
119	0xbe36478f	-0.17800735
120	0xbe524b27	-0.20536481
121	0xbdf72f2f	-0.120695464
122	0xbcbe837e	-0.02325606
123	0xbd3a58a4	-0.04549469
124	0xbd2a3021	-0.041549806
125	0xbd12bee0	-0.035826564
126	0xbcd27ad3	-0.025693333
127	0xbdb2a12f	-0.087221496

encoder.gcs.3.weight f4 [64, 128]
0	0xbd11765d	-0.03551327
1	0xbdd8e042	-0.10589649
2	0x3d9243f6	0.07141869
3	0x3c94bd0e	0.018156555
4	0x3e4ab65b	0.19796126
5	0xbe13d5d9	-0.14437045
6	0xbe38cbb9	-0.18046464
7	0x3e1f1d4c	0.1553852
8	0xbe358919	-0.1772808
9	0x3cf43953	0.02981249
10	0x3e616c09	0.22013868
11	0x3e09f85c	0.13473648
12	0x3dad03e3	0.08448007
13	0xbe551279	-0.20807828
14	0xbe76852c	-0.24074239
15	0xbe6ca090	-0.23108125
16	0xbdc65bd6	-0.09685485
17	0xbddc5d0e	-0.10759936
18	0x3e3f50f0	0.18683219
19	0xbe3d5478	-0.18489254
20	0xbd07e739	-0.033179495
21	0x3d1f5bae	0.038905792
22	0xbd8ff51f	-0.07029175
23	0x3e25ab1a	0.16178551
24	0x3caecbb7	0.021337373
25	0x3e73e325	0.23817118
26	0x3dc90ffa	0.098175004
27	0x3e037423	0.12837271
28	0xbe934b2e	-0.28768295
29	0xbe2f4ae0	-0.17118406
30	0x3cc4f145	0.024040828
31	0xbdd095a6	-0.10184793
32	0xbd4e47f1	-0.050361577
33	0xbe872cb8	-0.26401305
34	0xbca49e94	-0.020095147
35	0x3e213bcb	0.15745465
36	0xbe2eb295	-0.17060311
37	0x3d908c5a	0.0705802
38	0x3e5ac765	0.21365125
39	0xbe1308c9	-0.1435882
40	0xbd04db34	-0.03243561
41	0x3e36b987	0.1784421
42	0x3e8730ae	0.26404327
43	0xbe6293aa	-0.22126642
44	0xbd608773	-0.054816674
45	0x3e48f831	0.19625928
46	0x3e85a9dc	0.26106155
47	0xbe07a6a6	-0.13247165
48	0xbbaf52a1	-0.0053504263
49	0xbd6179f9	-0.055047963
50	0xbd760f74	-0.06007333
51	0xbcef9c4e	-0.029249337
52	0xbd619a75	-0.055078942
53	0x3d10ca97	0.035349455
54	0xbe2f7659	-0.1713499
55	0xbdcd16da	-0.10014124
56	0x3c1dcf84	0.009631995
57	0xbe30882f	-0.1723945
58	0x3dc614fb	0.096719705
59	0x3dc8497a	0.097796395
60	0xbcccae59	-0.02498548
61	0x3e499c5d	0.19688554
62	0xbe07ae24	-0.13250023
63	0x3cfb59d4	0.030682482
64	0xbe828889	-0.25494793
65	0xbdabdff9	-0.08392329
66	0x3d62ba97	0.055353727
67	0xbe0e073c	-0.13869947
68	0x3de1a381	0.11017514
69	0xbd3be3a2	-0.045871384
70	0x3dda3020	0.1065371
71	0x3e22e07a	0.15905944
72	0xbde76cd3	-0.113000534
73	0xbe85eb37	-0.26156017
74	0x3de956a5	0.11393479
75	0xbbd6f241	-0.0065596406
76	0xbdd4c9fb	-0.10390087
77	0xbd9df7a0	-0.07713246
78	0xbdfff0cb	-0.124970995
79	0x3e6587e0	0.22415113
80	0xbc5a50c3	-0.013324919
81	0x3dc159ab	0.09440931
82	0x3d1a2651	0.037634198
83	0xbe646dbb	-0.22307484
84	0xbe4eeab9	-0.20206727
85	0xbe0d745c	-0.13813919
86	0x3d992f94	0.07479778
87	0x3e9fb549	0.31192997
88	0xbe26bdcf	-0.16283344
89	0x3de515f7	0.1118583
90	0xbd15f2eb	-0.036608618
91	0xbdede418	-0.11615771
92	0x3d851215	0.064975895
93	0xbd3bc6ee	-0.04584401
94	0xbc177a11	-0.0092454115
95	0x3cca882f	0.02472314
96	0xbe2094cb	-0.1568176
97	0x3df9f68c	0.12205228
98	0xbe315bbb	-0.17320149
99	0xbe067847	-0.1313182
100	0xbdde5716	-0.10856454
101	0xbe48b419	-0.19599952
102	0xbe84f198	-0.2596557
103	0xbdef98f4	-0.11699095
104	0x3d2816e1	0.041037444
105	0x3ac7327e	0.0015197543
106	0x3e5926e1	0.21206237
107	0xbe213fb2	-0.15746954
108	0xbda04879	-0.07826323
109	0xbd3baa03	-0.045816433
110	0x3d4322bc	0.047640547
111	0xbe36dbf4	-0.17857343
112	0xbe2fb683	-0.17159466
113	0xbdb7df8c	-0.08978185
114	0xbe3b12c8	-0.18268883
115	0xbe637aeb	-0.22214858
116	0x3d641645	0.0556853
117	0xbe43e647	-0.19130813
118	0x3db2180e	0.08695994
119	0xbe47b6f4	-0.19503385
120	0x3e039004	0.12847906
121	0xba52283a	-0.00080168585
122	0xbde346c7	-0.11097484
123	0x3d671dea	0.056425013
124	0xbe0d07e5	-0.13772543
125	0xbde64965	-0.11244468
126	0x3d83f490	0.06443131
127	0xbcf043fc	-0.029329292
128	0xbc58e78d	-0.0132388
129	0xbfd6bbb7	-1.6776036
130	0xbeae6cf9	-0.34067515
131	0x3c116258	0.008873545
132	0x3dbd2ba9	0.09236843
133	0xbe166fbe	-0.14691064
134	0xbbde281c	-0.0067796838
135	0xbd78ec94	-0.060772493
136	0xbe899ddf	-0.2687826
137	0xbf081273	-0.5315315
138	0xbe3330d2	-0.17499092
139	0x3db6eea0	0.08932233
140	0xbe6dc69e	-0.23220298
141	0x3eadbaad	0.33931485
142	0x3be1ce94	0.006891081
143	0xbef36c81	-0.4754372
144	0xbdfdb48a	-0.12387951
145	0x3f0f06d0	0.5586977
146	0xbe4cdb17	-0.20005451
147	0xbeb65f1a	-0.35619432
148	0xbdc0eefe	-0.09420584
149	0x3cdd34af	0.02700266
150	0x3e00db15	0.12583573
151	0x3d970739	0.073744245
152	0x3c49b5c5	0.012311404
153	0xbf8e3106	-1.1108711
154	0x3e2b6e71	0.16741349
155	0x3d56f0bd	0.05247568
156	0xbe37b9fc	-0.17942041
157	0x3e8dbc43	0.27682695
158	0x3ebbe1e4	0.36695778
159	0xbe195812	-0.14975002
160	0x3d82adf9	0.06380839
161	0xbead6250	-0.3386407
162	0xbe81cb54	-0.2535044
163	0xbd5534bb	-0.05205224
164	0x3e41958f	0.18904708
165	0xbe12abc8	-0.14323342
166	0x3e29594b	0.16537969
167	0x3db1cdb8	0.08681816
168	0x3e3d36fc	0.18478006
169	0xbe0b284d	-0.13589592
170	0x3f0b4bd1	0.5441256
171	0x3d6adfcf	0.057342347
172	0xbe0677b8	-0.13131607
173	0xbe2988b5	-0.16556056
174	0x3c4314a3	0.011906776
175	0xbda32b9b	-0.079673015
176	0x3eb301c4	0.34962285
177	0x3e6ccf93	0.23126058
178	0xbed5df0d	-0.41771737
179	0x3eaf76d3	0.34270343
180	0x3d07be42	0.03314043
181	0x3bef5f05	0.0073050284
182	0x3d09eb45	0.033671636
183	0xbe59cc37	-0.21269308
184	0x3f07a82f	0.52991
185	0x3e183ad4	0.14866191
186	0xbf0f30db	-0.5593392
187	0xbe1f5d6e	-0.15562984
188	0xbd7058bc	-0.058678374
189	0xbcc091fc	-0.02350711
190	0x3e8ff0ed	0.281135
191	0x3e2ed5a9	0.17073692
192	0xbe7e23e4	-0.24818379
193	0x3e524385	0.20533569
194	0x3ebb1655	0.36540475
195	0x3e0ef8af	0.13962053
196	0x3e660775	0.22463782
197	0x3d55d4b1	0.05220479
198	0xbf182f9f	-0.59447664
199	0xbde52355	-0.1118838
200	0xbd6c663d	-0.05771469
201	0x3e98e0ab	0.29858908
202	0x3ded401d	0.11584494
203	0xbef6b443	-0.48184404
204	0x3ecb4b89	0.39706066
205	0x3ec606be	0.3867702
206	0xbd440157	-0.04785284
207	0xbc0ac83a	-0.008470589
208	0xbe53a207	-0.20667277
209	0xbeb5bc3e	-0.3549518
210	0xbdd55a0c	-0.10417566
211	0x3c863c63	0.016386217
212	0xbfb07271	-1.3784925
213	0xbdbe89ec	-0.0930365
214	0xbd21d480	-0.039509296
215	0x3db6d889	0.089280196
216	0x3e4be47e	0.19911382
217	0xbc7823b5	-0.015145232
218	0xbe59d032	-0.21270826
219	0xbdc32efd	-0.09530447
220	0x3ded1ed7	0.11578148
221	0x3bb84b4e	0.0056242114
222	0x3d36b3c5	0.044605035
223	0x3dd8f795	0.105940975
224	0x3ed8f3f0	0.4237361
225	0x3d41f610	0.047353804
226	0xbe667591	-0.22505786
227	0x3cb8c3c5	0.022554288
228	0xbe20be5c	-0.15697616
229	0xbdc895c0	-0.097941875
230	0xbd90fd1e	-0.07079528
231	0xbbc35e89	-0.005962197
232	0xbd592af2	-0.05301947
233	0x3ec513db	0.3849171
234	0x3e2b2db0	0.16716647
235	0xbf0cbb6d	-0.5497349
236	0xbed3063c	-0.41215694
237	0x3e1cf048	0.15326035
238	0x3da550c4	0.080720454
239	0x3d9f0015	0.077636875
240	0x3da9066c	0.08253178
241	0x3e205d73	0.15660648
242	0xbe03f155	-0.1288503
243	0x3a4e058d	0.00078591035
244	0x3e700cbe	0.23442361
245	0xbcf9f038	-0.030510053
246	0xbee3950f	-0.4444966
247	0xbd5909b2	-0.05298776
248	0xbe89638c	-0.2683376
249	0x3eda6099	0.42651823
250	0xbe655596	-0.2239593
251	0xbdae1e86	-0.08501916
252	0xbe7fb213	-0.24970274
253	0xbe66032e	-0.2246215
254	0x3dc0f209	0.094211645
255	0xbeebe0c8	-0.46069932

encoder.gcs.3.bias f4 [64]
0	0x3e992799	0.29913023
1	0xbe895fbf	-0.2683086
2	0xbdb33092	-0.087494984
3	0x3e6aa561	0.2291465
4	0xbe97d6e8	-0.29656148
5	0x3dbaf9bc	0.09129664
6	0x3dde46bc	0.10853335
7	0x3d48bad6	0.049006306
8	0xbe328c39	-0.17436303
9	0xbd41c571	-0.047307435
10	0xbe397b78	-0.18113506
11	0xbe1baedb	-0.15203421
12	0xbe23baba	-0.159892
13	0xbd8f379b	-0.06993028
14	0x3d0aa738	0.03385088
15	0xbe0fdfa0	-0.1405015
16	0xbe96f562	-0.29484087
17	0xbdc3c79e	-0.09559558
18	0xbe634abf	-0.22196482
19	0xbc760447	-0.015015668
20	0x3d9f7823	0.07786586
21	0x3d5dc35b	0.054141384
22	0x3e8bc150	0.27295923
23	0xbe92b662	-0.28654772
24	0x3cb8d64e	0.022563126
25	0x3ddcefb1	0.10787905
26	0x3e013f7b	0.12621872
27	0x3d288497	0.041142073
28	0xbdd0c749	-0.101942606
29	0xbe09ab85	-0.13444336
30	0xbe1d683d	-0.15371795
31	0xbe3c6c29	-0.18400635
32	0x3de278ef	0.110582225
33	0xbd713c61	-0.058895472
34	0xbe2e3ee0	-0.17016172
35	0x3de88d0e	0.11355029
36	0xbe5550de	-0.2083163
37	0xbe41a6cc	-0.18911284
38	0x3e2806c9	0.16408838
39	0xbdb1322d	-0.086521484
40	0x3e3f1e43	0.18663888
41	0x3e404dd2	0.18779686
42	0xbcee48c8	-0.02908744
43	0x3b0e0312	0.002166931
44	0xbde0e1f4	-0.10980597
45	0xbe3ddf82	-0.18542293
46	0x3e361450	0.17781186
47	0xbe3d9c91	-0.18516757
48	0xbe9d21ef	-0.30689952
49	0x3e46b16c	0.19403619
50	0xba02a53f	-0.000498373
51	0xbd3e0fa3	-0.04640163
52	0xbe3e57b3	-0.18588142
53	0xbd2d2311	-0.04226977
54	0xbd7d1acd	-0.061793137
55	0xbe082073	-0.13293628
56	0xbe4d4cee	-0.20048878
57	0xbe97903d	-0.29602233
58	0x3e20734b	0.15668981
59	0xbe412080	-0.18860054
60	0x38830bb5	6.2487474e-05
61	0xbe36665d	-0.17812486
62	0xbe324028	-0.17407286
63	0xbeaa8198	-0.33301997

encoder.gcs.4.weight f4 [32, 64]
0	0xbe305543	-0.17220025
1	0x3de5ce99	0.11221046
2	0xbd0f5358	-0.034991592
3	0xbeb13b03	-0.34615335
4	0xbe995766	-0.29949492
5	0xbe3c5ef7	-0.18395601
6	0xbe801bef	-0.25021312
7	0x3e03bb99	0.12864532
8	0x3e56f22f	0.20990823
9	0xbd2f1e1f	-0.042753335
10	0x3d44c661	0.04804075
11	0xbe46e48b	-0.1942312
12	0x3de7bd74	0.11315432
13	0xbea3c21a	-0.31984025
14	0x3e42f645	0.19039257
15	0xbe941667	-0.28923342
16	0xbe52eb59	-0.2059759
17	0xbdfead3d	-0.12435386
18	0xbce4d5b9	-0.027933942
19	0x3eaced2b	0.33774695
20	0xbf02d958	-0.5111289
21	0xbcf9916d	-0.030464852
22	0xbec23dfa	-0.3793791
23	0x3e092536	0.13393101
24	0xbec3b641	-0.38224986
25	0x3e298e41	0.16558172
26	0xbd6da527	-0.05801883
27	0xbe982736	-0.29717416
28	0xbed4a1a9	-0.41529587
29	0xbed3eb7c	-0.41390598
30	0xbddfbc71	-0.10924614
31	0x3e8e59df	0.2780294
32	0xbea29774	-0.31756175
33	0xbe5588b4	-0.2085293
34	0x3e1a0e08	0.15044415
35	0xbe2b017d	-0.16699786
36	0x3e72d973	0.23715763
37	0x3de6fb80	0.112784386
38	0xbebafdbe	-0.36521715
39	0xbe8abaa4	-0.2709552
40	0x3cf857e5	0.030315349
41	0x3de3415c	0.11096451
42	0x3df07992	0.11741938
43	0x3e0d0934	0.13773042
44	0xbbb99aa6	-0.0056641875
45	0xbc0c0500	-0.008546114
46	0x3e46c95c	0.1941275
47	0x3e1274f6	0.1430243
48	0xbd9fe2e7	-0.0780695
49	0x3ea41c51	0.32052854
50	0x3e30d609	0.17269148
51	0xbd54983a	-0.051902987
52	0xbe4c1603	-0.19930272
53	0x3e19f492	0.15034702
54	0x3d02f27b	0.03196953
55	0xbcdda7df	-0.027057586
56	0xbd5a580b	-0.05330662
57	0x3ceceb1b	0.0289207
58	0x3db0c835	0.086319365
59	0xbddcf5c3	-0.10789063
60	0xbccf5e05	-0.025313387
61	0x3e44f312	0.19233349
62	0x3d419311	0.047259394
63	0xbe0d25ec	-0.13783997
64	0x3de983db	0.114021026
65	0x3e75c384	0.24000365
66	0xbe2fa324	-0.17152077
67	0xbe251542	-0.1612139
68	0x3e7eb703	0.24874501
69	0xbea85596	-0.32877797
70	0xbe9f96da	-0.31169778
71	0xbeb9a5e6	-0.36259383
72	0x3cf959cd	0.030438328
73	0xbe56161f	-0.20906876
74	0xbcdcd85f	-0.026958643
75	0x3c30ff03	0.010802987
76	0x3caae3c6	0.020860564
77	0xbd06377d	-0.03276776
78	0x3e5f0aba	0.21781436
79	0x3fdaeaeb	1.7102941
80	0xbe364f1b	-0.17803614
81	0x3e80c40f	0.2514958
82	0x3e83cc24	0.25741684
83	0xbb84afe1	-0.0040492867
84	0x3d23363e	0.03984665
85	0xbf520466	-0.8203796
86	0xbdbfbbed	-0.09362016
87	0x3d9c1513	0.07621207
88	0xbe946a08	-0.28987145
89	0x3e205c4b	0.15660207
90	0x3e3e0e28	0.18560088
91	0x3d6d2091	0.057892386
92	0xbeb25e34	-0.34837496
93	0x3cfb310b	0.030663034
94	0x3df456e1	0.11930633
95	0xbe9c5c94	-0.30539382
96	0x3e0c71b6	0.13715252
97	0x3ed39ecb	0.41332087
98	0x3d6ba553	0.057530712
99	0xbe204ff1	-0.15655495
100	0x3e171115	0.1475261
101	0x3dfcce23	0.12344005
102	0xbf4a04ac	-0.7891338
103	0x3e7f8521	0.24953128
104	0xbd93912a	-0.07205422
105	0x3d57084c	0.052498147
106	0x3d3f7524	0.046742573
107	0xbd8fa0b5	-0.07013074
108	0xbe8c2156	-0.27369183
109	0x3e81b80c	0.2533573
110	0x3c9a6414	0.01884655
111	0x3e188254	0.14893466
112	0xbe6b8dcc	-0.2300331
113	0xbe9a0965	-0.30085292
114	0xba5573b5	-0.0008142547
115	0xbe1af349	-0.15131868
116	0xbe39334b	-0.18085973
117	0xbf2a2a18	-0.6647048
118	0xbe7b1f3c	-0.24523634
119	0x3aee23d3	0.0018168635
120	0xbc4d3577	-0.012524954
121	0x3cb90a71	0.022587987
122	0xbea6bb1e	-0.32564634
123	0x3d17be17	0.03704652
124	0xbb628891	-0.0034566263
125	0x3e2e03c5	0.16993625
126	0xbe665e36	-0.22496876
127	0xb9da49e0	-0.0004163524
128	0x3cc22246	0.023697983
129	0xbcab3c2d	-0.020902717
130	0xbd763b63	-0.06011523
131	0xbe3b7dcd	-0.18309708
132	0xbd52a15c	-0.051423416
133	0xbe69f670	-0.22847915
134	0xbe4b39c6	-0.19846258
135	0xbe3b6869	-0.18301548
136	0x3dde6e41	0.10860873
137	0xbd5ec93b	-0.054391127
138	0x3e27010c	0.16308993
139	0xbd524a15	-0.05134018
140	0x3d2b6737	0.04184648
141	0xbede3212	-0.43397576
142	0x3e15ecff	0.14641188
143	0xbd5cacc6	-0.053875707
144	0x3de9a663	0.11408689
145	0x3cc9766a	0.024592597
146	0x3e521c84	0.2051869
147	0x3d67f9b7	0.05663463
148	0x3ce03f71	0.027374001
149	0xbe0ea33f	-0.13929461
150	0xbe7f3193	-0.24921255
151	0xbd44b50d	-0.048024226
152	0xbe70bd79	-0.23509778
153	0xbede9b94	-0.43478072
154	0xbddc8727	-0.10767966
155	0xbd40685c	-0.046974525
156	0xbd937afc	-0.07201192
157	0xbdccde7a	-0.100033715
158	0xbda69548	-0.08133942
159	0xbd970e2e	-0.073757514
160	0x3e5dc213	0.21656065
161	0xbbefd2e2	-0.0073188404
162	0xbe31923d	-0.17340942
163	0xbedfe6cd	-0.43730775
164	0x3d58fff7	0.052978482
165	0x3e26e48f	0.16298126
166	0xbf020b89	-0.5079885
167	0xbe8d065e	-0.2754392
168	0xbe80cc86	-0.2515604
169	0xbde5d5c0	-0.1122241
170	0x3cc22def	0.023703543
171	0x3e134d02	0.14384845
172	0xbd9c1aec	-0.076223224
173	0x3eb23b74	0.34810984
174	0xbe0d78a1	-0.13815548
175	0xbda04451	-0.0782553
176	0xbe4b1989	-0.1983396
177	0xbe0529eb	-0.13004272
178	0x3e7e3a88	0.24827015
179	0xbeaf52cb	-0.34242854
180	0x3eb2dc3f	0.3493366
181	0xbdd2aada	-0.102864936
182	0xbc09ccb7	-0.008410624
183	0xbe330c2a	-0.17485109
184	0xbe11961a	-0.14217415
185	0x3c5671ce	0.013088657
186	0xbdd85eeb	-0.10564979
187	0x3e58569c	0.21126789
188	0xbd449a7b	-0.047998887
189	0x3c9aa580	0.018877745
190	0xbe73af0f	-0.23797248
191	0xbd3f2ccc	-0.04667358
192	0x3b80d9e0	0.0039322227
193	0xbe1daecf	-0.15398715
194	0xbe984efa	-0.29747754
195	0xbdf9f5f9	-0.12205119
196	0xbe2de691	-0.16982485
197	0xbeb94324	-0.36184037
198	0xbcf48a02	-0.029850964
199	0xbcd67bf4	-0.026182152
200	0x3e5368d3	0.20645456
201	0xbe101b96	-0.14073023
202	0x3ea195ff	0.3155975
203	0xbea5c59f	-0.32377335
204	0x3d9020e2	0.07037522
205	0xbd05638d	-0.032565642
206	0x3e4ff917	0.20309864
207	0xbe9d8f65	-0.30773464
208	0xbe83d0d7	-0.2574527
209	0x3e636487	0.22206317
210	0x3cd92cae	0.026510563
211	0xbd663062	-0.056198485
212	0xbe26d0b8	-0.16290557
213	0xbe2d0c2d	-0.16899176
214	0xbea84748	-0.32866883
215	0x3def2cab	0.116784416
216	0x3e400fd4	0.18756038
217	0xbeb9eb22	-0.36312205
218	0xbe3255d2	-0.1741555
219	0xbee774d6	-0.45206326
220	0xbd2b0236	-0.041750155
221	0xbde0aed5	-0.109708466
222	0xbe04cfd6	-0.12969908
223	0x3e1c3b64	0.1525703
224	0xbe2318b9	-0.159274
225	0xbe879cbc	-0.26486766
226	0x3d733205	0.059373874
227	0xbe101872	-0.14071825
228	0x3edadc8a	0.42746383
229	0xbe2f55c3	-0.17122559
230	0xbd500d63	-0.050794017
231	0xbda5e5c8	-0.08100468
232	0xbd3493cd	-0.044086266
233	0xbea1e18d	-0.31617394
234	0xbe04990d	-0.12949009
235	0x3bd794ec	0.006579032
236	0xbe2348db	-0.15945761
237	0x3e26b522	0.16280034
238	0xbf009553	-0.5022785
239	0xbe1a256b	-0.15053336
240	0x3e3e5c86	0.18589982
241	0xbdfc8576	-0.12330143
242	0x3e39c0c5	0.18139942
243	0xbd831a2e	-0.06401478
244	0x3eee799e	0.46577162
245	0x3ec632e0	0.3871069
246	0x3deb341f	0.11484551
247	0xbd10835a	-0.035281517
248	0x3d7faf37	0.062422957
249	0x3e2b453f	0.16725634
250	0xbeb5e1ea	-0.3552392
251	0x3e2a5758	0.16634881
252	0x3e347717	0.17623554
253	0xbdf6dad8	-0.1205346
254	0xbe859d9a	-0.26096803
255	0xbbcc5846	-0.006236109

encoder.gcs.4.bias f4 [32]
0	0xbdaac222	-0.08337809
1	0x3ddfc7ee	0.109268054
2	0xbe2d5d49	-0.16930117
3	0xbe17a25a	-0.14808026
4	0xbe8ac55a	-0.27103692
5	0x3d9b1868	0.075730145
6	0xbe456db7	-0.19280134
7	0xbe079be4	-0.13243061
8	0x3e8953ff	0.26821896
9	0x3e1d3fb0	0.15356326
10	0xbe1ae503	-0.15126424
11	0x3e6d29e2	0.23160508
12	0xbeccd417	-0.40005562
13	0x3dd4d8aa	0.10392888
14	0xbe5c094f	-0.21487926
15	0xbd66771d	-0.05626594
16	0xbd697d94	-0.057004526
17	0xbe8622ce	-0.2619843
18	0x3e1fb9e6	0.15598258
19	0xbc3a120d	-0.011356843
20	0x3cc4b160	0.02401036
21	0xbe82207d	-0.25415412
22	0xbd783c4c	-0.06060438
23	0xbdb47238	-0.08810848
24	0xbe57922d	-0.21051855
25	0xbe59efca	-0.21282879
26	0xbe289efc	-0.16466898
27	0xbe7670d0	-0.24066472
28	0xbc6dbead	-0.014510793
29	0xbdfc32b2	-0.12314357
30	0xbe0d6af5	-0.13810332
31	0xbdc10020	-0.09423852

encoder.gcs.5.weight f4 [16, 32]
0	0x3e84410f	0.25830886
1	0xbd8a5b46	-0.0675569
2	0x3e8574a2	0.26065546
3	0xbde83255	-0.11337725
4	0xbdc4cf0f	-0.09609806
5	0x3d8a2a1a	0.067463115
6	0xbe4b07d7	-0.1982721
7	0x3eb36208	0.3503573
8	0x3e77e9dc	0.24210304
9	0xbe538425	-0.20655878
10	0xbd644dff	-0.055738445
11	0xbe1505bb	-0.14552967
12	0xbe1d8cbd	-0.15385719
13	0xbd251f22	-0.040312894
14	0xbeb10eee	-0.34581703
15	0x3eae832c	0.3408445
16	0xbe0911bd	-0.13385673
17	0x3ea8377a	0.32854825
18	0x3e9d9a7c	0.30781925
19	0x3e0a436b	0.1350228
20	0x3e407385	0.18794067
21	0x3e8c54d5	0.27408472
22	0x3e80754c	0.2508949
23	0x3e551caa	0.20811716
24	0x3e9d44bc	0.30716503
25	0xbd823c6f	-0.06359183
26	0x3d916549	0.07099397
27	0x3eb49b0f	0.3527455
28	0x3eaf8611	0.34281972
29	0xbec53059	-0.3851345
30	0x3eb68d2e	0.35654587
31	0x3d9191e9	0.07107908
32	0x3e60ce95	0.21953805
33	0xbe50458f	-0.20339034
34	0x3df510fd	0.11966131
35	0x3ec5a2a1	0.38600639
36	0xbe0c9eb3	-0.13732414
37	0x3ca15eed	0.019698584
38	0xbe92c430	-0.28665304
39	0xbed48e1b	-0.41514668
40	0xbe2892b5	-0.16462214
41	0xbeaad721	-0.33367255
42	0xbdf76d65	-0.12081412
43	0xbdc4d49b	-0.09610864
44	0x3d80ca9d	0.062886454
45	0xbeca4d21	-0.3951197
46	0x3d71b854	0.05901368
47	0xbe5612bc	-0.20905584
48	0x3dac094a	0.08400209
49	0xbe5e60f0	-0.21716666
50	0xbed4e829	-0.41583374
51	0x3c0f7406	0.0087556895
52	0x3e03d7dd	0.12875314
53	0xbe6cbf87	-0.23119937
54	0x3ec8d69c	0.39226234
55	0xbebce272	-0.36891514
56	0xbe56acb6	-0.20964321
57	0xbd9b853e	-0.07593773
58	0x3e8427d4	0.25811636
59	0xbedb5e5b	-0.42845425
60	0x3e38a658	0.18032205
61	0x3e9fb1d8	0.31190372
62	0x3e1169ab	0.14200465
63	0x3e1d28ce	0.15347597
64	0x3e76dc75	0.24107535
65	0x3e53df78	0.20690715
66	0x3ec4f6fa	0.38469678
67	0x3edbbf90	0.42919588
68	0xbed6fa64	-0.41987908
69	0xbe786441	-0.24256994
70	0xbe703ad5	-0.23459943
71	0xbeb027f9	-0.34405497
72	0xbeb14f6c	-0.34630907
73	0xbd69b943	-0.057061445
74	0x3eb50f5b	0.35363278
75	0xbdd3ae75	-0.103360094
76	0x3dd35278	0.10318464
77	0xbedc566b	-0.43034682
78	0xbd17d98d	-0.037072707
79	0xbed9c703	-0.42534646
80	0x3ea57969	0.3231919
81	0x3e66796b	0.22507255
82	0xbeca11b3	-0.39466628
83	0x3d1b5e2a	0.0379316
84	0xbe089afc	-0.13340372
85	0xbe153f2c	-0.1457488
86	0x3d758da5	0.059949536
87	0x3dc219fe	0.09477614
88	0xbebee455	-0.3728358
89	0xbdf91449	-0.12162072
90	0xbd950017	-0.07275408
91	0x3dbbbaac	0.09166464
92	0x3df2c024	0.11853054
93	0xbea97fc3	-0.33105287
94	0x3c8e0e23	0.017340725
95	0x3e658da1	0.22417308
96	0x3ea3e413	0.32009944
97	0xbe2ceceb	-0.16887252
98	0xbe967089	-0.29382733
99	0xbeba008a	-0.36328536
100	0xbe4bdf0c	-0.19909304
101	0xbed21be5	-0.41036907
102	0x3e115381	0.1419201
103	0xbe18c616	-0.14919314
104	0xbeab22b2	-0.33424908
105	0xbdcf1233	-0.10110893
106	0x3ed44e7a	0.41466123
107	0x3d769629	0.060201798
108	0xbea8e9f6	-0.32990998
109	0xbea93bd0	-0.33053446
110	0x3e0b0315	0.13575394
111	0xbd8f4163	-0.069948934
112	0xbe6eb704	-0.23312002
113	0x3e8dfa94	0.27730238
114	0x3ea42fc0	0.3206768
115	0xbe36bb1e	-0.17844817
116	0x3db2bad4	0.08727041
117	0xbe511d7f	-0.20421408
118	0xbc972b52	-0.018453274
119	0xbcaab0b8	-0.02083622
120	0x3db1fc4d	0.08690701
121	0x3e7fd8f9	0.24985112
122	0xbeb2a97b	-0.34894928
123	0xbe8fe168	-0.2810166
124	0x3ed65055	0.41858163
125	0x3e07d7ed	0.13265963
126	0x3e8091cc	0.25111234
127	0xbeda332c	-0.42617166
128	0x3e4eda12	0.20200375
129	0xbe545b79	-0.20738019
130	0x3e213e66	0.1574646
131	0x3dfd6f3d	0.12374733
132	0xbec59cf8	-0.3859632
133	0x3e7f7604	0.24947363
134	0x3e4bf950	0.19919324
135	0xbe83d58d	-0.25748864
136	0x3e0d67d2	0.13809136
137	0xbe8e7f3e	-0.27831453
138	0x3d5ba0b2	0.053620048
139	0x3e5f2216	0.21790347
140	0xbebdd950	-0.3707986
141	0x3eae930b	0.3409656
142	0xbe4e5638	-0.20150077
143	0xbe9e8631	-0.30961755
144	0x3e7ca425	0.24671991
145	0x3e50cdba	0.20390978
146	0xbeae0ee5	-0.3399574
147	0x3d9899f9	0.07451243
148	0xbe223124	-0.15839058
149	0x3e8f242c	0.27957284
150	0xbea89599	-0.32926634
151	0x3db19d3b	0.086725675
152	0xbce913a2	-0.028451744
153	0x3cb0bb1d	0.021573598
154	0x3e19ec85	0.15031631
155	0xbdd586b6	-0.10426085
156	0xbe8a2f1f	-0.26989076
157	0xbeda8797	-0.42681572
158	0xbe4406ca	-0.19143215
159	0xbe6581b8	-0.22412765
160	0xbed2a991	-0.41144994
161	0xbeb1e760	-0.34746838
162	0xbe349fa4	-0.17639023
163	0x3e5d4be0	0.21610975
164	0xbd8d1689	-0.06889064
165	0x3d87a34a	0.06622942
166	0x3e49e2f6	0.19715485
167	0xbece00cb	-0.4023498
168	0xbea2beef	-0.31786296
169	0x3ebc3f27	0.3676693
170	0xbeba6ca6	-0.36411017
171	0xbe9f2784	-0.31084836
172	0x3e0dd107	0.13849269
173	0x3e9c2b00	0.30501556
174	0xbd7e9e44	-0.062162653
175	0xbdf73eb6	-0.12072508
176	0x3e25c796	0.16189417
177	0x3ed7ae86	0.42125338
178	0x3e70afde	0.23504588
179	0x3de246de	0.11048673
180	0x3e94c2b4	0.29054797
181	0x3ec6f0f7	0.38855717
182	0xbe9f4372	-0.31106144
183	0x3ed69250	0.41908503
184	0xbe0c9f94	-0.13732749
185	0xbe9915e3	-0.2989951
186	0xbeb72ac5	-0.35774818
187	0x3e7aeaeb	0.24503677
188	0xbe5787a1	-0.21047832
189	0x3eb75e7b	0.3581427
190	0x3eb61784	0.35564816
191	0x3e8d27f9	0.2756956
192	0x3ebf88fe	0.37409204
193	0x3e6a2bb6	0.22868237
194	0xbdb0d0d9	-0.086335845
195	0x3d58fe71	0.05297703
196	0x3e162d1a	0.14665642
197	0xbdda5bc6	-0.10662036
198	0xbda647fd	-0.081191994
199	0xbeb26fc8	-0.34850907
200	0x3cb401a5	0.02197344
201	0x3d5469bc	0.05185865
202	0x3df57442	0.11985065
203	0x3e890459	0.2676113
204	0xbddcc509	-0.10779769
205	0xbdb8f319	-0.09030742
206	0xbd670a04	-0.056406036
207	0xbeb3e5bc	-0.3513621
208	0x3ed18a6d	0.40925923
209	0x3d637338	0.055529803
210	0x3eadf96a	0.3397935
211	0xbec0ccef	-0.37656352
212	0xbd539a97	-0.0516611
213	0x3e40398d	0.18771954
214	0xbe132897	-0.14370953
215	0x3e9d31cc	0.30702055
216	0x3e909331	0.28237298
217	0xbd6bb590	-0.0575462
218	0x3edad54b	0.42740855
219	0xbe8bdb9f	-0.27315995
220	0xbed13697	-0.4086196
221	0xbe9173c5	-0.28408638
222	0xbe84b73d	-0.2592105
223	0x3ea5e376	0.324001
224	0x3cf2db34	0.02964554
225	0xbecf9879	-0.40546015
226	0xbece6f79	-0.40319422
227	0x3ecb4f08	0.39708734
228	0xbd914da1	-0.07094885
229	0xbed7a799	-0.42120054
230	0x3e8145f0	0.2524867
231	0xbe595d1c	-0.21226925
232	0xbc9b81e3	-0.018982833
233	0x3ec202de	0.37892812
234	0x3e5d1d49	0.21593203
235	0xbeb489cb	-0.35261378
236	0xbe801b1a	-0.25020677
237	0x3d5fe1c7	0.054658677
238	0xbeda0409	-0.42581204
239	0xbec5267a	-0.38505918
240	0x3ec6dc19	0.38839796
241	0x3e257902	0.16159442
242	0x3ec3bec4	0.3823148
243	0x3d6349a6	0.05549016
244	0x3c4470cc	0.0119897835
245	0xbd512621	-0.051061753
246	0xbe2cb45e	-0.1686568
247	0xbdebd4e0	-0.11515212
248	0xbe9abe64	-0.30223382
249	0xbe80ac11	-0.25131276
250	0xbd8f66a0	-0.07001996
251	0xbe993817	-0.29925606
252	0xbe927d85	-0.2861139
253	0xbe0ed53b	-0.13948528
254	0x3d1ed307	0.03877547
255	0xbdef2a0c	-0.11677942

encoder.gcs.5.bias f4 [16]
0	0x3e308ac9	0.17240442
1	0xbe09da46	-0.13462171
2	0xbdcce1b0	-0.10003984
3	0xbd119ede	-0.0355519
4	0xbd80410e	-0.06262408
5	0xbdf6d575	-0.120524324
6	0xbd6f7d95	-0.058469374
7	0xbe30ef39	-0.17278756
8	0x3e1e36cb	0.1545059
9	0x3e1fd5ef	0.15608953
10	0xbe0744b3	-0.132098
11	0x3d08a23b	0.03335784
12	0xbe1070af	-0.14105485
13	0x3d9f0732	0.07765044
14	0xbd7cd028	-0.06172195
15	0x3e2c27ac	0.16812009
