pretrained/model-circuits_4_qubits-19.pt (torch, 290114 bytes, 50 tensors)

encoder.gcs.0.weight f4 [32, 8]
000000 1b e3 ad 3e 10 53 5e 3e 11 81 65 3e e7 01 65 3e
       0.3396233 0.21711373 0.22412516 0.22364007
000010 b2 92 b5 bf c8 db 4b 3f 51 18 9a 3e d2 df 2b 3f
       -1.4185393 0.79632235 0.30096677 0.671384
000020 89 eb 9d be d5 5b 83 be 06 c2 3d 3f 8c e3 97 be
       -0.30843762 -0.25656 0.7412418 -0.29665792
000030 5b 8a 14 be 73 4e 1e c0 25 2b 71 3f 07 66 91 3d
       -0.14505903 -2.4735382 0.9420646 0.07099538
000040 ba bb 6f be b0 08 69 bf c9 89 0a 3f f3 22 06 3f
       -0.23411456 -0.9102888 0.54116493 0.5239708
000050 65 7f 83 3d c7 39 d3 bc 86 e9 a9 3c 34 26 b2 bf
       0.06420783 -0.025784386 0.020741235 -1.3917909
000060 8b a8 f5 3e 0e 0e ef 3e e1 45 eb 3e fa a7 f1 3e
       0.4798015 0.4669041 0.4595175 0.47198468
000070 c1 99 13 3f c0 45 4c 3f 86 1a 0e c0 2b af 39 3f
       0.57656485 0.7979393 -2.2203689 0.7253291
000080 08 55 65 3f 93 35 cf 3e fc de 8d c0 09 4a 9e c0
       0.8958287 0.4047056 -4.43347 -4.9465375
000090 c7 e9 96 3e cb b5 e6 3e ef 7c 4c 3f 16 b8 92 3e
       0.29475233 0.45060572 0.79878134 0.2865607
0000a0 28 5a 35 3f d2 43 2f 3f 21 c4 50 3f 76 7b 8b be
       0.7084069 0.6846286 0.8154927 -0.2724263
0000b0 48 18 04 c0 a3 8e bd 3e 2d 34 e6 3e 7c 55 e1 3e
       -2.063982 0.37022886 0.44961682 0.44010532
0000c0 bd 5c a5 be a6 85 b0 3d 84 dd 85 bf 25 49 88 bf
       -0.32297316 0.086192414 -1.0458226 -1.0647322
0000d0 71 74 48 3f d7 1d 40 3f a0 c0 81 3f e7 2f 0c 3f
       0.78302675 0.7504553 1.013691 0.54760593
0000e0 d4 a0 2f 3e 32 26 a1 be 7f 06 84 3e 4c 15 33 3e
       0.17151195 -0.31474453 0.25786206 0.17488593
0000f0 31 08 91 bf 85 d4 7c 3e 69 fc 3a 3f 03 b6 12 3f
       -1.1330625 0.24690445 0.730414 0.5730898
000100 0c 5b 08 c1 f8 43 bc 3f dc 15 b9 3f 7c 62 b9 3f
       -8.522228 1.4708242 1.4459796 1.448318
000110 09 19 9f 3f 9e 5d 97 3f 83 1c 92 3f 19 c5 9a 3f
       1.2429515 1.1825445 1.1414951 1.20914
000120 1f 9e 85 3f 3e 84 98 3f 92 d1 68 3f ab b8 87 3f
       1.043888 1.1915357 0.9094478 1.0603231
000130 96 e4 8b 3f be cc e6 c0 b8 e4 0a 3f ce ee 8c 3f
       1.0929134 -7.212493 0.5425525 1.1010377
000140 da 6a 00 bf b4 3f 05 bf b0 f8 06 bf 57 67 02 bf
       -0.5016304 -0.5205033 -0.52723217 -0.50938934
000150 df f6 6e 3f 98 c5 30 3f 5f 2e e7 bd 43 55 ff 3e
       0.93345445 0.69051504 -0.112881415 0.49869737
000160 dd cd d9 3f 97 c2 d1 3f 5e f4 09 40 94 b0 3b c1
       1.701595 1.6387509 2.15554 -11.73061
000170 5c f7 de 3f e3 2f bb 3f 1a 6b 90 3f 70 3c ce 3f
       1.7419238 1.4623989 1.1282685 1.6112194
000180 74 d4 7a bc 1f fc 49 3d c7 50 df be 19 16 26 bd
       -0.015309442 0.049312707 -0.43616316 -0.040548418
000190 b9 4b 69 3e 24 a7 d8 bf 4a ad 87 3f c5 2d 9f 3d
       0.22782792 -1.6926007 1.0599759 0.07772402
0001a0 d2 be 7e bf a2 d0 30 bf 83 0f 25 3f 6b 13 28 bf
       -0.9950992 -0.6906835 0.64476794 -0.6565463
0001b0 d1 94 4b 3f f5 e7 44 3f 27 28 66 3f 74 d8 79 3f
       0.7952395 0.7691644 0.8990502 0.97595906
0001c0 8e 11 09 3f d0 e3 00 3f 77 1b da 3e b6 89 12 3f
       0.5354241 0.50347614 0.4259908 0.5724138
0001d0 7a 4c 1e 3f 3b d2 25 3f e4 35 14 3f 8c 45 be bf
       0.61835444 0.6477391 0.5789473 -1.4864974
0001e0 7b b0 96 3e 92 47 4e 3f fb d4 70 3f 61 f3 ff 3c
       0.2943152 0.8057796 0.9407498 0.031243982
0001f0 6a 40 6e 3e 5a 2f b7 bd d3 40 57 3d cd 33 61 be
       0.2326676 -0.089445785 0.052552056 -0.21992417
000200 df e5 19 3f b7 81 ce 3e 97 d2 07 c0 89 2b a4 3e
       0.6011638 0.4033334 -2.1222284 0.32064465
000210 24 ba 40 3f 11 c0 8b 3e cd 15 fc bd 8d 6a 0d 3f
       0.7528403 0.27294973 -0.12308846 0.5524071
000220 8f 03 60 3f a9 ad 74 bf 6e f4 2a c0 6f 6d 14 c0
       0.8750543 -0.95577484 -2.6711688 -2.3191793
000230 36 f6 da bd d6 0f 50 be c4 c4 fa bf 25 3e 3a bf
       -0.10691492 -0.20318541 -1.9591298 -0.72751075
000240 e0 77 32 3f e4 2d d9 c0 2b 67 8d 3f e6 7b 37 3f
       0.69714165 -6.786852 1.1047109 0.7167343
000250 d2 0f 46 3f 23 96 24 3f c5 77 41 3f ec dc 8e 3f
       0.7736789 0.6429159 0.7557338 1.116117
000260 ab 19 7a bf 2c 7c 74 bf 3f 64 71 3e 78 c3 6d bf
       -0.97695416 -0.9550197 0.23573397 -0.92876387
000270 93 51 6f bf bf 3d 4b 3f d2 fe 4d 3f 98 14 d8 3e
       -0.9348385 0.7939109 0.8046695 0.42203212
000280 28 79 82 3e fe 97 03 3f e1 7e ff 3e 7d 42 58 3f
       0.2548306 0.51403797 0.49901488 0.84476453
000290 44 36 03 c0 04 02 8a 3e 0c cd 65 3e bd d3 93 3e
       -2.050187 0.26954663 0.224415 0.2887248
0002a0 3d 65 35 c0 4a 29 ed bd 9e 70 93 bf e1 5f 45 3d
       -2.834304 -0.11580141 -1.1518743 0.04818714
0002b0 b0 f4 d5 3e cb c6 1c 3f 80 b6 1b 3f 15 5c ae 3d
       0.41788244 0.61240834 0.6082535 0.08513657
0002c0 e3 f7 78 3f 76 a1 a8 c0 a6 c7 a4 c0 0d 2c 52 3f
       0.97253245 -5.2697096 -5.149371 0.82098466
0002d0 0c 7c 1d bf 6b 51 d9 bf fb ac 7a 3d eb f2 92 3e
       -0.61517406 -1.6977972 0.061200123 0.28700957
0002e0 f4 53 3e 3d 9a fe d7 3f 47 2a 0e c1 ce 62 6e 3f
       0.046466783 1.6874573 -8.885322 0.93119514
0002f0 22 57 81 3f 6a 5d 8a 3f f4 bb 8a 3f 63 d2 3d 3f
       1.0104716 1.0809758 1.0838609 0.7414915
000300 c5 7c 07 3f 2a 8d 1f 3f f7 e4 26 3f cd e6 9d c0
       0.5292476 0.62324774 0.6519312 -4.934424
000310 e5 93 bc 3e 5c 17 43 3f b8 cb 85 3f 53 89 66 be
       0.36831585 0.7620752 1.0452795 -0.22513323
000320 95 62 88 3f da 2b 0b c1 70 02 c8 3f 5c 39 88 3f
       1.0655085 -8.698206 1.5625744 1.0642505
000330 fa ba 82 3f 9e 14 a0 3f b6 7c 95 3f ae 8a 6f 3f
       1.0213311 1.2506292 1.1678684 0.93570983
000340 61 8f 8f be 2b ab e5 3e ca 02 32 be ca 51 b6 3e
       -0.28039077 0.44857153 -0.17383876 0.35609275
000350 aa 2c a6 bf b4 36 f2 3e 97 c5 32 3f cd 4d 6b 3f
       -1.298238 0.4730736 0.6983275 0.9191559
000360 ea 84 89 3f 4a 0f c9 c0 7b 7a cf c0 e5 64 56 3f
       1.0743687 -6.2831163 -6.483701 0.837477
000370 a6 61 5a 3f 76 8a fb 3e 30 73 08 3f 0a 83 64 3f
       0.8530525 0.49129075 0.5330076 0.8926245
000380 c7 9f 04 3f 84 e6 f4 3e cb 70 3b c0 8c 02 ad 3e
       0.518063 0.4783212 -2.9287593 0.33791006
000390 54 1e 24 3f c3 5c 02 3f 2a 59 16 3f e3 9a 03 c0
       0.6410878 0.50922793 0.58729804 -2.0563285
0003a0 23 b1 38 3f fb b4 41 3f b2 01 9b c0 a5 04 a2 3e
       0.7214529 0.7566678 -4.843957 0.31644168
0003b0 9c 28 b9 be 48 23 56 3f c2 28 1d 3f 53 6d 42 3e
       -0.36163795 0.83647585 0.61390316 0.18987016
0003c0 7c 7f 47 c0 dc 4b 63 c0 95 ef 59 3f 9b a6 59 c0
       -3.117156 -3.551505 0.851312 -3.4007938
0003d0 04 00 8f bf 1d fe 02 bf 32 d8 24 bf fb bc 35 3e
       -1.117188 -0.51168996 -0.6439239 0.17747872
0003e0 69 1b dd 3e 76 a0 12 3f c3 ab 39 3f 5b a0 cc bf
       0.43184975 0.57276094 0.7252771 -1.5986437
0003f0 93 25 a2 be c2 ed 94 3d fa 1f 0e 3c 28 13 a9 3e
       -0.31669292 0.07271911 0.008674616 0.33022428

encoder.gcs.0.bias f4 [32]
000000 59 bc 6b be 24 24 35 bd d1 3a 0f be 6a 90 9a be
       -0.23021068 -0.04422392 -0.1398728 -0.30188304
000010 18 e5 2d 3c 24 d9 2d be 40 18 4e be 3c 8e 95 bd
       0.010613702 -0.16977364 -0.20126438 -0.0730252
000020 db 3a 42 be 99 0c 44 be c6 14 03 be 37 0f 32 be
       -0.18967764 -0.1914543 -0.12800893 -0.17388617
000030 45 48 91 bc 12 98 96 be dc 0a 2a be 4c 5f 1d be
       -0.017734656 -0.29412895 -0.16605705 -0.15368384
000040 1d fc d8 3d 2a 1f c9 3d 24 2a 1f be 71 04 46 be
       0.10594962 0.09820397 -0.15543419 -0.19337632
000050 93 6a 87 be a7 27 01 be ad 11 9d bb 0e 01 20 bd
       -0.26448497 -0.12612782 -0.004793367 -0.039063506
000060 07 94 62 be e2 98 a1 bd f0 01 3c bd 23 12 1a bd
       -0.2212678 -0.07890488 -0.045900285 -0.037614953
000070 f1 30 1c be b2 03 26 be af bb 28 bd 92 95 bc bb
       -0.15253045 -0.16212347 -0.041194614 -0.005755135

encoder.gcs.1.weight f4 [64, 32]
000000 02 07 4c 3f ca 16 db 3d 31 ad 3c be 34 9c 43 bf
       0.79698193 0.10697706 -0.18425442 -0.7641022
000010 ec 56 19 3e 4d 9e 83 3f 83 00 1b bf 76 4b ab 3d
       0.14974564 1.0282685 -0.60547656 0.083640024
000020 aa 26 ba 3c 7d 72 7f bd 1d 4e 94 3f 2c 5e d6 bd
       0.022723515 -0.062365044 1.1586338 -0.104671806
000030 9f 55 05 bd 04 d0 19 bf ec 4e 0c 3c af dd 4d 3e
       -0.032552358 -0.6008303 0.008563738 0.20104097
000040 c4 e0 81 be 0e 70 7a bd 47 1f a3 bd 27 c2 4f be
       -0.25366795 -0.06114202 -0.0796495 -0.20288907
000050 08 14 9a 3f a3 a6 01 3e e7 3a 36 3e 7b 86 6a be
       1.2037363 0.12661223 0.17795907 -0.22902863
000060 83 a3 46 bd f0 55 28 3e 75 c4 26 3f ca 57 a9 bd
       -0.04849578 0.16439033 0.6514352 -0.082686976
000070 17 d6 80 be de 04 13 3f 6c 11 cb bb d1 07 08 3f
       -0.25163338 0.574293 -0.006197145 0.53136927
000080 d2 77 0b bc cc b3 36 3e a6 e7 e2 bd ed e5 0f 3f
       -0.008512454 0.17842025 -0.1107934 0.56210214
000090 0f 5e 24 3e b7 d8 87 bc b1 b1 22 bf ce 9a 79 be
       0.16051506 -0.01658283 -0.63552386 -0.2437546
0000a0 3c b5 0c bd c7 d6 4e 3d ab bb c0 be 85 1f e2 3d
       -0.034352526 0.050497796 -0.3764318 0.11041168
0000b0 0c 74 c5 be 6e 5c 7e 3d cc 2f 94 be bb 08 b4 be
       -0.385651 0.062099867 -0.28942716 -0.3516291
0000c0 c5 d2 0c be 0f cf 12 bf 6b 2b 07 c0 d7 d3 fe 3e
       -0.13752277 -0.57347196 -2.112025 0.49770996
0000d0 56 72 71 3e 0c 1b 4c be af 2d db bf 43 ce 67 3e
       0.23578772 -0.19932193 -1.7123317 0.22637276
0000e0 f0 35 e7 be e8 9a aa c0 5a 73 42 3e 1e f0 da bf
       -0.4515834 -5.3314095 0.18989316 -1.7104528
0000f0 ca 98 e3 be 6e 60 88 3c 3e a9 7d 3e 8b 8d e4 3e
       -0.44452506 0.016647544 0.24771592 0.4463924
000100 4f f1 d3 be 54 60 9b 3e 1f 7b 22 be ce 72 57 be
       -0.4139504 0.3034693 -0.1586728 -0.21039888
000110 1f 80 69 3e dc f8 d4 3e 13 a6 60 3f 1b a0 a6 be
       0.2280278 0.41596115 0.8775341 -0.32544026
000120 fe 45 c6 bd 46 b0 8d be 71 91 72 3e 90 aa dd ba
       -0.09681319 -0.27673548 0.23688294 -0.0016911794
000130 eb c1 c6 3e aa c5 a8 3f 57 85 e2 be ea 72 33 bf
       0.38819823 1.3185322 -0.44242355 -0.7009722
000140 21 76 42 3e 4a ae f1 bd 3f b2 9a be d4 41 e6 bd
       0.18990375 -0.11800821 -0.30214116 -0.112430245
000150 b5 65 cb 3e a6 63 55 3e ca 1c 4f be 51 ee 5f 3e
       0.39726034 0.20838794 -0.20225826 0.21868254
000160 cb 79 ee bd 3e 4d 3a 3e b9 6c a2 be b8 6e 4d 3e
       -0.11644324 0.18193528 -0.31723574 0.20061767
000170 71 d6 a4 3c d3 99 28 bf 39 c2 a0 3e b1 3d 07 bf
       0.020121785 -0.6585972 0.3139818 -0.5282851
000180 7d e7 49 bf 2e d3 5b 3e 35 c5 bb be e8 e7 4f bf
       -0.7886885 0.21467277 -0.36673895 -0.81213236
000190 0d bd 02 c0 74 e7 da be 5f 70 18 be 6d ad a8 3c
       -2.0427887 -0.4275471 -0.14886616 0.020590508
0001a0 ec e4 8e 3c 4e 4d 50 bd b4 6c ae 3e 55 80 84 bc
       0.017443143 -0.050854973 0.3406731 -0.016174475
0001b0 f1 dd e6 be 98 8a 9d be 2d 52 87 3e 55 b2 9d 3d
       -0.45091203 -0.307698 0.26429883 0.0770003
0001c0 12 b7 4c bf af 65 f5 3d d2 ff a3 3c 65 96 09 be
       -0.79966843 0.11982285 0.020019446 -0.13436277
0001d0 75 de 60 be 18 46 99 be 95 64 8e bf 1d aa 82 c0
       -0.2195986 -0.2993629 -1.1124445 -4.083266
0001e0 36 55 08 3e 04 4c 9e bd 78 86 86 bd ac ec 4b c0
       0.13313755 -0.077293426 -0.06568617 -3.1863203
0001f0 e7 26 a1 bf 87 1b f0 bf ca 3d 55 3d 7f df c8 bd
       -1.2589997 -1.8758401 0.05206088 -0.098082535
000200 69 27 5c bd ee 64 b1 be 3b 69 e7 be 81 30 8c 3e
       -0.053748522 -0.34647316 -0.45197472 0.27380756
000210 73 ac 5d be 29 d9 ad 3e 7b 34 ea bd 67 0c 6d 3e
       -0.21647815 0.33954743 -0.11435791 0.23149262
000220 cf eb 03 bd 49 25 e9 3d 6d 4f b6 3e da 4f bf 3d
       -0.032207306 0.11384065 0.35607472 0.09341402
000230 55 f6 51 be 3b 77 f1 3e 3b 2d 85 be 78 81 3c be
       -0.20504124 0.47161278 -0.2601107 -0.18408763
000240 72 ea 00 bd 58 bc 82 be f6 b7 07 be e8 ac 2d bf
       -0.031473584 -0.2553432 -0.1325377 -0.6784196
000250 f4 ba 30 3e ce bd 8e be f3 f4 3f 3e 85 ab 1b 3e
       0.17258817 -0.27879184 0.18745784 0.15202148
000260 9f 5a 50 bf 1b 92 27 3d 08 20 92 be 9b 88 d6 bd
       -0.81388277 0.04091082 -0.28540063 -0.10475274
000270 fa ae 0b bf 82 ac ed 3c 24 66 95 3c a2 ff 23 3f
       -0.5456387 0.029012922 0.018237181 0.6406194
000280 83 53 80 be 68 3d 8d be 61 bd 82 3e a3 44 d9 be
       -0.25063714 -0.27585912 0.2553511 -0.42435178
000290 f9 d0 4e 3d f2 4f e9 3d 43 bd f7 3e b8 ff 38 3e
       0.05049226 0.113922015 0.48386583 0.18066299
0002a0 14 a2 f2 3d 94 b3 78 be ec ea ee 3d dd a6 1e be
       0.1184732 -0.24287254 0.116659015 -0.15493341
0002b0 88 8d 1a 3e ea bd 7d be d5 13 41 3f d9 e5 28 3e
       0.15093052 -0.24779478 0.75420886 0.1649393
0002c0 97 49 8d 3e 2e 12 1a be 97 13 79 be 09 57 cc bd
       0.27595207 -0.15045998 -0.24323879 -0.09977538
0002d0 fd ab b5 3d 53 db c5 be 4e 65 34 be f8 0e 01 be
       0.08870695 -0.38643894 -0.1761677 -0.12603366
0002e0 c2 1e 22 3f 0f 15 b8 3e 6b 02 a5 3e 33 29 b7 3d
       0.6332818 0.35953566 0.32228407 0.08943405
0002f0 88 66 22 3e e2 46 85 be 7b 5e 93 bc 58 f9 27 bd
       0.15859425 -0.26030642 -0.017989388 -0.041009277
000300 63 49 ba 3d ff 72 3e bd 94 a5 0d bf f1 76 67 3c
       0.09096029 -0.046496388 -0.5533078 0.014127479
000310 18 59 4c 3e 4f 0f 6f be 3f d0 4e be 5f 0b 8b 3f
       0.19955862 -0.23345684 -0.20196627 1.0862845
000320 aa fe 2b 3e 62 cf 0a be e4 01 ba 3d 1f 2a 3e 3d
       0.16796365 -0.13555673 0.09082392 0.04642689
000330 f4 d9 c5 3e fd e8 d1 be 27 d4 e2 bd ae 2d 50 3e
       0.38642848 -0.40998068 -0.11075621 0.20329925
000340 6a a7 af 3e 29 55 4c bd 37 5e 43 be a2 ab dc bd
       0.34307414 -0.049885903 -0.19078909 -0.10774924
000350 eb 67 0a be bb 2b 1a 3e 01 e3 30 bf f1 dd c8 bd
       -0.13516204 0.15055744 -0.6909638 -0.09807957
000360 3e 30 3b bd 81 72 16 bf e0 55 ed be b2 e1 1e bf
       -0.045700304 -0.5876847 -0.4635458 -0.62063134
000370 0c f8 2e 3c ea a5 c5 3d 12 ec 68 be 3a d7 de 3c
       0.010679256 0.09650786 -0.22746304 0.027202237
000380 dc 1e 84 bd df ba 28 3e 23 83 cd be 6b 9b 94 bf
       -0.064511985 0.16477536 -0.40139112 -1.160993
000390 10 44 62 c0 e7 73 01 be 4d 95 09 bf fc 0c 0a 3e
       -3.5354042 -0.1264187 -0.5374344 0.13481516
0003a0 a1 93 e2 bd 11 c6 ac be d8 24 06 3b 2b 9d 10 c0
       -0.11063314 -0.33744863 0.0020468738 -2.2595928
0003b0 60 ac 1a 3f e2 ec 8f be 20 6e aa bd f6 b5 c7 be
       0.60419273 -0.28110415 -0.08321786 -0.39006013
0003c0 fd f6 93 be 85 c1 0d be a6 83 f3 bd ed 96 d9 be
       -0.28899375 -0.13843353 -0.11890344 -0.4249796
0003d0 50 2c 01 3e fd f6 e8 3e a6 95 16 bd a2 1c 0d be
       0.1261456 0.45500937 -0.03676381 -0.13780454
0003e0 95 80 92 bf fd 64 81 bc 86 00 4e 3c 74 f9 02 3e
       -1.144549 -0.015795225 0.012573367 0.12790471
0003f0 ed b6 9f bd dd f2 40 3e 3f cf a7 be 6e bb 4e bf
       -0.07798562 0.18842645 -0.32775304 -0.80754745

encoder.gcs.1.bias f4 [64]
000000 c5 dd 06 be c2 8b 34 bd 12 3b 2f be 70 8c 66 bd
       -0.13170536 -0.044078596 -0.17112377 -0.056286275
000010 42 4b 12 be 76 f7 6d be 6f 6d f9 bd 07 83 d7 bd
       -0.14286521 -0.2323893 -0.12179076 -0.10523038
000020 e1 c6 90 bd 13 ae d8 be 6e f1 20 be 09 4d b0 bb
       -0.07069183 -0.42320308 -0.15717098 -0.005380277
000030 58 88 44 bd 21 95 a3 be f9 a2 61 bd dd a6 27 bb
       -0.04798159 -0.31949714 -0.055087063 -0.0025581636
000040 bf d7 d1 bd 48 03 ab ba b6 e5 ab bd cd b0 ad bc
       -0.102462284 -0.0013047243 -0.08393423 -0.02120247
000050 e4 99 f8 bd 2b f6 e1 be ef ab 10 be 3c a7 cf bb
       -0.12138727 -0.44133124 -0.14128087 -0.0063370746
000060 c4 99 5a be 5a bc 4f bd 0f 1e 84 be af 62 f0 bd
       -0.2134772 -0.050716735 -0.25804183 -0.117375724
000070 3c ab 7c be 48 67 31 be 66 57 b7 bd 6c 8b f8 bd
       -0.24674696 -0.17324555 -0.08952217 -0.121359676
000080 b3 70 2d 3a 56 da 87 be 41 4b 9c bd 85 f9 cf bd
       0.000661622 -0.26533765 -0.07631541 -0.10155014
000090 8f 04 bf bd de f1 ff bd f5 3f 07 bc 34 fd 64 bc
       -0.09327041 -0.124973044 -0.008254995 -0.013976384
0000a0 1e d1 92 be fa 4f 2e be b0 54 b2 39 5e 43 7f bd
       -0.2867517 -0.17022696 0.00034013903 -0.062320106
0000b0 83 47 94 be ea 6a b3 bd 86 dc d0 bd 56 e2 c4 be
       -0.2896081 -0.087606266 -0.101983115 -0.3845393
0000c0 61 e8 a0 bd ad 0a 63 bd 0a 4f bf bd 06 83 53 be
       -0.07856823 -0.055430103 -0.093412474 -0.2065545
0000d0 df c9 48 be 65 e2 8b be 86 40 92 bd 70 b9 35 be
       -0.19608258 -0.27321163 -0.07141213 -0.1774652
0000e0 46 86 3a be e0 c2 d7 bd 55 d7 3f bd d8 60 5a bb
       -0.18215284 -0.10535216 -0.046836216 -0.0033321884
0000f0 e6 5a 15 be 3e 7c 25 be fe 7f 1c b9 c4 8b 75 bd
       -0.14585456 -0.16160676 -0.00014925 -0.059947744

encoder.gcs.2.weight f4 [128, 64]
000000 58 ce 31 3d d0 c2 0d bf e9 06 89 3e 89 dc 37 3f
       0.043409675 -0.55375385 0.26763085 0.71820885
000010 0d 53 98 3e 71 5c 53 bc 80 7d 05 bf 02 68 e4 be
       0.29750863 -0.012900458 -0.5214462 -0.44610602
000020 00 cc 06 be 36 f5 c1 be 6a e8 c4 3e d2 ef 70 be
       -0.13163757 -0.37882394 0.38458568 -0.23528984
000030 08 aa 5b 3c 58 13 d0 3c 78 ef 69 3e b9 3c 9a 3d
       0.013407238 0.025399849 0.22845256 0.07531113
000040 64 df 2e 3e ea 7e 1c be b9 c8 57 be 59 8c 8b 3e
       0.17077404 -0.15282789 -0.21072663 0.27255514
000050 62 66 c1 be 2d b8 ec be 21 56 0f be bc 75 33 3e
       -0.37773424 -0.46234265 -0.139977 0.17525381
000060 2f a2 72 be 3b 1b 37 3e 33 ef b7 3d fc 33 04 be
       -0.2369468 0.17881481 0.089811705 -0.12910455
000070 49 b9 cd be cc 25 40 3e 42 8e 81 be 78 15 54 3e
       -0.40180424 0.18764418 -0.25303847 0.20711315
000080 53 d3 32 3d 84 87 8a bd a5 b3 8b be d2 c2 67 be
       0.043658566 -0.06764129 -0.27285495 -0.22632912
000090 c6 09 0d 3d 32 7e 61 3e 96 9a 45 be 0c d2 1e bf
       0.03443315 0.22020796 -0.19297251 -0.62039256
0000a0 ee 88 17 be 83 1a 12 3d df 2c 87 bd ea 9f 96 be
       -0.14798328 0.035669815 -0.06600355 -0.2941888
0000b0 e4 bd da bd d7 af 66 3c 2c be 1f bd ed 9a f0 bd
       -0.1068075 0.014080009 -0.03899972 -0.117483
0000c0 f3 25 12 3e ae 86 68 bd a0 07 a8 bd da 13 ff be
       0.14272289 -0.056769066 -0.08204579 -0.49819833
0000d0 1f 93 9f bd b4 46 42 3d 04 78 18 be 58 e8 c4 3e
       -0.07791733 0.04743071 -0.14889532 0.38458514
0000e0 49 40 69 3e 3d 92 87 bf 67 ff 72 be 8f 8c 05 3f
       0.22778429 -1.0591503 -0.23730241 0.521676
0000f0 42 04 fb bf b4 49 ef be 11 a3 2a 3d fc 10 d3 be
       -1.9610674 -0.4673592 0.04165942 -0.41223896
000100 04 5e ff 3e 0a 5c a5 3e be b7 f6 3e b2 1f 8c bd
       0.49876416 0.32296783 0.4818706 -0.06841983
000110 d5 a3 ea bd 56 87 53 3c be 57 c4 3d 28 70 af 3c
       -0.1145703 0.012910685 0.09587048 0.021415785
000120 ad 6f 3b bc 44 43 ff be 61 45 f4 bd f9 a9 53 3e
       -0.0114402 -0.49856007 -0.119272955 0.20670308
000130 ea 42 ba 3a e2 a2 0c bc 5e 6e 91 3d 92 0f a4 3d
       0.0014210616 -0.008583756 0.07101129 0.08010782
000140 ef db c5 3d a5 5f 05 3e eb 59 7f be b6 ce 05 3f
       0.0966109 0.13024767 -0.24936645 0.5226854
000150 ca 30 b3 3e 14 60 01 bf 4b 79 dc 3e 2a 52 c6 bc
       0.3499816 -0.5053723 0.4306129 -0.0242091
000160 da 78 09 bf 58 2d 21 3f d1 82 82 be a5 37 12 3f
       -0.5370003 0.62959814 -0.2549043 0.57116157
000170 b6 1f 0e be be fa 17 be cf e7 0d 3f 64 e9 f6 bb
       -0.13879284 -0.14841744 0.55431837 -0.0075351465
000180 a2 b6 dd 3d 7b 8b 4d 3e 95 6f 1e be 43 c6 5a 3c
       0.1082585 0.20072739 -0.15472253 0.013352933
000190 e9 81 0d be d3 af bb 3e 32 00 f4 3e 3e a4 35 be
       -0.13819088 0.3665758 0.476564 -0.17738435
0001a0 99 65 30 3e 2f 81 0d 3d 6c 6f 12 be b2 d9 38 3e
       0.17226256 0.034547027 -0.14300317 0.18051794
0001b0 ca f1 ca bd 91 5d 99 be 23 9c 45 3e 9d 0c b0 be
       -0.09909399 -0.29954198 0.19297843 -0.34384623
0001c0 c2 6c 99 be 6b 77 84 bd 7b ab 0a bf 5b 46 a7 be
       -0.29965788 -0.0646809 -0.5416791 -0.32670864
0001d0 65 2c a9 be cc 38 3f bf 26 93 34 3e cf bf e3 3e
       -0.33041683 -0.7469604 0.17634258 0.44482276
0001e0 97 dd af 3e ab 5f 9b 3d 76 10 26 3d d6 30 06 be
       0.34348747 0.075866066 0.040543042 -0.13104567
0001f0 b0 3c 02 be ca 68 3d 3d 6b a6 35 3e b7 59 e9 be
       -0.12718463 0.046242513 0.17739265 -0.4557626
000200 32 9c cd bd 6d 95 53 3e ec e7 ee bd 20 57 0d 3e
       -0.100395575 0.2066247 -0.11665329 0.13802767
000210 3a 6c 13 3e 4d b9 c9 3e cb 7c fc 3d 72 1d ee 3c
       0.14396754 0.39399186 0.1232849 0.029066775
000220 c2 f2 15 3e 94 4d 97 be c6 1c 6f be 53 c2 18 be
       0.14643386 -0.29551375 -0.2335082 -0.14917879
000230 51 ca d9 3d 0d 98 b5 3e 4a 5c a6 3e cc 55 f4 3b
       0.10634292 0.35467568 0.32492286 0.007456517
000240 ce 1e 0a 3f 3b 04 d3 bc 40 19 1a 3d 73 92 dd bd
       0.53953254 -0.025758853 0.037621737 -0.108189486
000250 25 9f d3 3e 80 cb 6f be ff 7d 8f 3e 67 aa 57 bc
       0.41332355 -0.23417473 0.28025815 -0.013163186
000260 ec 5d 86 be 58 54 bd 3e 98 7d 06 be 07 ae 7d 3e
       -0.26243532 0.36978412 -0.13133848 0.24773417
000270 30 4e a9 3e ea 4c 41 3e 75 e1 49 bd c8 1f b0 3d
       0.33067465 0.18876997 -0.04928728 0.08599812
000280 16 77 ef bb ad 8d b3 3c 66 b5 13 3e d9 09 1c be
       -0.0073078973 0.021918142 0.14424667 -0.15238132
000290 48 42 c8 3c 72 cf 19 3c b1 56 0d be 60 32 e6 be
       0.024445668 0.009387838 -0.13802601 -0.44960308
0002a0 8c ea 36 3e 35 08 19 3e 22 17 1e bd aa 4b 47 3e
       0.1786291 0.14944537 -0.03859628 0.19462457
0002b0 81 45 15 3f c0 4b 0a bd f3 9d 35 3e 10 c5 ce be
       0.5830918 -0.033763647 0.17736034 -0.40384722
0002c0 39 5b bf be 3f 56 62 3d a8 ec 9f be fd 16 3b 3e
       -0.37374285 0.055258032 -0.31235242 0.18270488
0002d0 c4 e1 e3 bf d4 e5 9e 3e 12 67 84 be 25 65 65 be
       -1.7803273 0.3103472 -0.25859886 -0.22401865
0002e0 38 ab a0 3e 80 11 cc be 5e 72 6d bd 3f 2b 78 be
       0.3138063 -0.398571 -0.057970397 -0.24235247
0002f0 89 a2 33 3d 60 7a d8 bd 20 e9 3c bd 14 3e 17 3e
       0.043856177 -0.10570216 -0.046120763 0.14769775
000300 1f 71 b8 3d 05 56 25 bd c7 43 e7 be 09 61 81 be
       0.09005951 -0.040365238 -0.45168898 -0.25269344
000310 9c 8f 6e be 0a 21 4d 3e 7a 40 82 bd b5 f4 b5 3e
       -0.2329697 0.20032135 -0.06359954 0.3553826
000320 89 d9 3b 3e 9f 0a e7 bd 78 9a 27 3e 7a 75 78 3f
       0.18344702 -0.11281323 0.16367519 0.97054255
000330 15 fd cf be 99 19 fa bd 55 c4 c4 bd 3b 82 df 3d
       -0.40622774 -0.122119136 -0.0960776 0.10913511
000340 c7 09 00 3e 5a 46 06 bd cf 3a 03 be f7 90 12 3f
       0.1250373 -0.032781936 -0.12815402 0.5725245
000350 54 45 b5 be 7f 9d 30 be fa bb 81 bd a8 c2 aa bd
       -0.35404456 -0.1724758 -0.06334682 -0.08337909
000360 52 72 ae be 46 57 c1 3d fb 79 43 3d 8b fe d5 be
       -0.34071594 0.09440474 0.04772375 -0.41795763
000370 e9 30 b5 bc 6f a0 d1 3c 81 2e f4 3d 1c 55 3f be
       -0.022118049 0.025589196 0.119229324 -0.1868481
000380 e1 4f fc bc b7 59 64 3e 7b 2b d2 3c 64 29 04 bf
       -0.030799808 0.22299848 0.025655499 -0.5162566
000390 05 1c 0e be 8e 74 9a be a0 b3 92 bb 2c cf 21 bf
       -0.13877876 -0.3016705 -0.0044769794 -0.63206744
0003a0 0a f8 de 3c fa c1 3d bd c5 31 33 3b f8 c7 0d bf
       0.027217884 -0.04632757 0.0027342897 -0.55383253
0003b0 f0 34 36 be 9d 53 31 be c2 b8 e3 3d 0a 0b 01 be
       -0.17793632 -0.17317052 0.11119224 -0.12601867
0003c0 dc a4 da 3d cf f8 d0 bd 50 f1 9a bd ad a6 3a be
       0.10675976 -0.102037065 -0.07565558 -0.18227644
0003d0 1b 9b a4 3e 13 2c 18 be 4b b5 90 be a0 50 b3 3c
       0.32149586 -0.14860563 -0.28263316 0.021889031
0003e0 3d a3 19 bf 82 d6 c6 be a2 68 41 3c 77 97 21 be
       -0.60014707 -0.3883553 0.011804732 -0.15780436
0003f0 db b1 ba bd 39 8d 6a be 07 51 d0 bd 36 84 e4 bd
       -0.091159545 -0.22905435 -0.10171705 -0.1115803

encoder.gcs.2.bias f4 [128]
000000 70 a9 d5 bd c0 12 39 bd e8 64 fe bd 22 0a 44 be
       -0.10432708 -0.045183897 -0.1242159 -0.1914449
000010 3d d1 34 be 29 b7 6d bc ff 89 f7 bd 17 42 3b bd
       -0.17657943 -0.014509001 -0.120868675 -0.045717325
000020 a2 a5 27 bc 77 8d f4 bd 33 f5 18 be 7b 55 31 bd
       -0.010232361 -0.11941045 -0.14937286 -0.04329441
000030 14 0c 2e bd e7 45 b8 bd 18 71 c1 bd ec 42 4e be
       -0.042491987 -0.08997708 -0.09445399 -0.20142716
000040 16 85 8b be bb 8f 04 be df d2 8c be 75 d2 c2 bd
       -0.27249974 -0.12945454 -0.27504632 -0.09512798
000050 f9 1a 1f be 52 d0 2c be d7 36 ca bd 7d 6c d0 bc
       -0.15537633 -0.16876343 -0.09873741 -0.025442356
000060 64 2b 08 be 3b ed 08 be ee bb c9 bd 96 28 03 bd
       -0.13297802 -0.13371746 -0.09850298 -0.032021128
000070 d9 a3 3e be 25 43 a8 be 33 1a 54 bd d6 94 a6 bd
       -0.1861719 -0.32863727 -0.051782798 -0.08133857
000080 b0 71 c3 bd 84 08 ae bd 28 85 d1 bd 5f 95 96 bd
       -0.095431685 -0.08497718 -0.10230476 -0.07352709
000090 ed 33 17 be f7 28 14 be 44 e0 c6 bd e7 22 53 bd
       -0.14765902 -0.14468752 -0.09710744 -0.051546957
0000a0 b7 80 de bd 03 08 83 be 7c 35 b2 bd b8 b7 2e be
       -0.10864394 -0.2559205 -0.087016076 -0.1706227
0000b0 b5 26 e1 bd 2a cc 01 be 24 61 f9 bd e4 a6 83 be
       -0.10993711 -0.12675539 -0.12176731 -0.25713265
0000c0 0a c8 7b bc 88 e5 ae bd 35 7b 6c bc 2f 22 2c be
       -0.015367517 -0.08539873 -0.014433672 -0.16809915
0000d0 6a 91 80 be 9c 06 2a be 0c 94 da bd 3e c0 ac bd
       -0.25110942 -0.16604084 -0.10672769 -0.08435105
0000e0 22 3b 62 bd 7d 96 d7 bd 5c 77 88 bd e8 79 41 3c
       -0.055232175 -0.1052675 -0.06663391 0.01180885
0000f0 0e 27 df bd 28 8b a8 bd b2 c1 12 be 97 c2 40 bd
       -0.10896121 -0.08229667 -0.14331701 -0.047060575
000100 7f 8d 86 bd a7 47 b2 bd 52 44 c5 bd 35 7c bd bd
       -0.06569957 -0.08705073 -0.09632172 -0.09252206
000110 d2 67 9f bd c7 df 09 be cf b6 00 be cb 44 35 be
       -0.07783474 -0.1346427 -0.12569736 -0.17702024
000120 01 f1 0c be 52 d5 ac bc b4 2a 03 be 5e f0 27 bd
       -0.1376381 -0.021097813 -0.12809259 -0.041000716
000130 7f 7e e1 bd 2e a4 4f bd 42 19 85 bd 73 01 5d bd
       -0.11010455 -0.050693683 -0.06498958 -0.05395646
000140 17 98 3d bd ac 13 36 bd 95 16 12 be 07 1a 23 bc
       -0.046287622 -0.044452354 -0.14266427 -0.009954936
000150 cc 42 d7 bc ec 4d 17 be 01 a7 b3 bd cb 91 7d be
       -0.026276968 -0.14775819 -0.08772088 -0.24762647
000160 21 26 02 be ea f1 ce bd 69 5a 37 be fd 9f 18 be
       -0.12709858 -0.10104735 -0.17905582 -0.1490478
000170 18 dd 27 be a2 e9 a8 be 1a e3 72 be 06 e2 10 be
       -0.16392934 -0.32990748 -0.23719445 -0.14148721
000180 0b 5e 48 bd aa fd 45 bd 92 21 34 be 40 e2 e5 bd
       -0.04891781 -0.048337616 -0.17590931 -0.112247944
000190 79 cf 81 be 93 7b 99 bd 35 00 8d bd c7 98 4c be
       -0.25353602 -0.07494273 -0.06884805 -0.19980155
0001a0 8f 3a 86 bd 52 a4 4d be 44 cc ed bd a3 d7 55 bd
       -0.06554138 -0.20082214 -0.11611226 -0.0522076
0001b0 7c 16 c9 bc b2 94 1f bd 21 c1 05 be 8e 7e 01 bd
       -0.024546854 -0.038960166 -0.13061954 -0.031614833
0001c0 39 7e 8c bc 4b 00 ef bc 18 47 22 be 6c c5 01 be
       -0.017150031 -0.029174944 -0.15847433 -0.12672967
0001d0 3f f1 16 be 18 2a c7 bd c1 32 b8 bd 3b 78 6b bd
       -0.14740466 -0.097248256 -0.089940555 -0.057487708
0001e0 28 cb 1f be 0f 64 cc bd de 98 5c be 1c 78 8d be
       -0.15604842 -0.09980022 -0.21542689 -0.276307
0001f0 1c e3 29 be 99 69 7c be 52 53 48 bd 8b 12 df bc
       -0.16590542 -0.24649657 -0.048907585 -0.027230522

encoder.gcs.3.weight f4 [64, 128]
000000 85 98 51 3e 56 23 64 3d 6d c5 64 bd 14 9b 0b be
       0.20468338 0.05569776 -0.055852342 -0.13633376
000010 92 fb 53 3e bd 8d 0c be ad 94 96 3d c3 25 82 3e
       0.20701435 -0.13725944 0.073525764 0.25419435
000020 66 b7 1e 3f 39 77 bb 3e bb 97 9f be 87 80 33 3e
       0.61998594 0.36614397 -0.3117045 0.17529498
000030 8e b3 23 bd bc dc ae bb 0c 51 9f bd 43 32 84 be
       -0.03996616 -0.005336372 -0.0777913 -0.25819597
000040 0b 0a a4 bd d9 e6 ce bd 27 13 44 bd 02 24 50 3e
       -0.08009728 -0.101026244 -0.047869828 0.20326236
000050 8b f3 85 3b 8e 71 52 bd 7f 7c 09 3e 7f 7f d5 be
       0.0040878705 -0.051377825 0.13426398 -0.41698834
000060 d2 32 12 bd c0 5a 8b be fd f7 89 bd bf 99 2e be
       -0.035692997 -0.27217674 -0.06736753 -0.17050837
000070 64 73 06 be ac ab 95 3d f7 b7 85 be fa c7 24 3e
       -0.13129956 0.073081344 -0.26116917 0.1609191
000080 76 5a a3 be 67 b2 88 c0 d0 fc 5c 3e c5 79 aa be
       -0.31904954 -4.2717776 0.21580815 -0.33296028
000090 b6 dc 24 3f 60 e8 97 3e df 2f 36 bc 45 cb 17 3f
       0.6439928 0.29669476 -0.011119812 0.5929454
0000a0 78 fe 04 c0 ad f0 22 be 59 d4 bd bd 71 c9 fd 3c
       -2.0780315 -0.15912123 -0.09269018 0.030979844
0000b0 40 eb de be f8 77 53 bf 6d 5d 34 bf 32 ec 49 3d
       -0.43538857 -0.8260493 -0.70455056 0.04929752
0000c0 94 c7 d9 3e 5c a3 71 be fd 34 dd be 17 e4 cb be
       0.4253508 -0.23597473 -0.4320449 -0.39822456
0000d0 ba 35 04 3e e6 e2 71 3c c7 66 05 3e 9b 7d 06 be
       0.1291112 0.014763569 0.13027488 -0.13133852
0000e0 81 92 88 3b 5c f7 15 bd e4 a0 af bd 9f 32 0d be
       0.0041678553 -0.036612853 -0.08575609 -0.13788842
0000f0 29 a7 d4 be dc 16 36 bd 1f e1 b2 3d 85 14 b0 3e
       -0.41533783 -0.044455394 0.08734345 0.34390655
000100 18 82 bf 3e 1f 8f 92 be d6 39 25 3e 62 44 93 bd
       0.3740394 -0.28624818 0.16135344 -0.07190777
000110 3d ee fe bd 82 80 4f 3d ac 90 f9 3d 59 06 31 3e
       -0.12447784 0.050659664 0.12185797 0.17287578
000120 fa fb e9 bc 1b 4e 85 3d d0 46 c8 3d f4 ea 8e 3e
       -0.028562535 0.06509038 0.097791314 0.2791363
000130 94 bf 12 3e d7 c3 5c be 43 11 90 3e 4e 53 8e 3d
       0.14330894 -0.21559082 0.2813817 0.06949483
000140 61 83 97 be 35 e7 00 bf 09 bc 09 bd 30 7d 89 be
       -0.29592422 -0.50352794 -0.03362659 -0.26853323
000150 a9 13 0b 3e 7d e9 0e 3e 27 71 11 bd a6 71 a1 3a
       0.13581719 0.13956256 -0.0355083 0.0012317195
000160 35 f4 c0 bd 62 5c 38 c0 64 cd 70 3d db 6e ac bd
       -0.09421579 -2.8806386 0.058789626 -0.084195815
000170 51 25 fd 3c a2 fe ec 3e 97 83 21 be 81 8b 03 3e
       0.030901583 0.4628802 -0.15772854 0.12846185
000180 82 16 d9 bc 9a 7e 03 3d d5 4a 6b bd a3 7a 20 be
       -0.02649999 0.03210316 -0.057444412 -0.15671782
000190 6d f7 0d 3c 06 5c 43 3e 50 af 0a bf de 55 02 bd
       0.008664948 0.19078073 -0.54173756 -0.03182017
0001a0 f4 3d c3 3d 21 1f 82 3d 1b ed 87 be 67 91 d1 3d
       0.09533301 0.063535936 -0.26548085 0.102328114
0001b0 18 d6 0f bf 86 d6 15 3e 18 ad e9 3c e6 08 9f 3e
       -0.56186056 0.14632615 0.02852492 0.31061476
0001c0 0d 29 93 3c f9 34 84 bc b7 b1 13 bd 1e a6 d4 bd
       0.01796391 -0.01613854 -0.036058154 -0.10383247
0001d0 ac 81 67 be 76 12 40 bc 78 01 1c be fa 80 20 bf
       -0.2260806 -0.011723151 -0.15234935 -0.626968
0001e0 e2 66 d8 bd f1 36 49 3e 72 09 41 bd 79 2b b0 3d
       -0.10566498 0.19649865 -0.04712815 0.08602042
0001f0 ee e9 3e 3c db e4 58 bd ef 1d 9f be 90 57 92 3d
       0.011652453 -0.05295263 -0.31077525 0.071456075
000200 41 40 9c be bf 6d 2a be c1 f8 a4 be 39 c0 e7 be
       -0.30517772 -0.16643427 -0.32221034 -0.45263842
000210 e1 c5 3b bf 86 80 b8 be e8 3f ac be 2f 84 1c c0
       -0.73348814 -0.36035556 -0.33642507 -2.4455678
000220 74 c3 6b 3d 59 f1 b8 bd f4 40 49 be f5 7d ba bc
       0.057559446 -0.090304084 -0.19653684 -0.02276514
000230 9d 33 2e be 8a 7a 8a 3e c2 44 81 3e fa e6 0e 3e
       -0.17011876 0.27046615 0.2524777 0.13955298
000240 0a fa b2 3c 15 e0 ff 3e 1e 8e f2 bd ad c2 8c bd
       0.021847744 0.4997565 -0.11843513 -0.06873069
000250 c2 72 88 be cf 8a 66 3f ec f9 96 be a3 a5 00 bf
       -0.26650053 0.90055555 -0.2948755 -0.5025274
000260 24 7e 4c bf 42 2f f6 3e 13 05 5d be b6 7e 30 3e
       -0.79879975 0.4808293 -0.21583967 0.17235836
000270 f0 3a ae be 04 fa c2 be 99 17 27 bd 42 74 0f 3f
       -0.3402934 -0.38081372 -0.04079399 0.5603677
000280 87 88 0a be 3c 64 2f be 04 c7 8e 3d cb 87 1a be
       -0.13528644 -0.1712808 0.06971553 -0.15090863
000290 dc 9d f3 be d1 61 86 3e 70 00 ff 3c 4d 66 10 bf
       -0.47581375 0.26246503 0.031128138 -0.564061
0002a0 35 09 13 3f 5f 31 4c bd 44 16 a4 bd b5 37 a6 bf
       0.57435924 -0.04985177 -0.08012059 -1.298575
0002b0 35 e6 fd be 4a a7 94 3e fc 80 4c bd 60 c8 d7 bd
       -0.49589697 0.2903388 -0.049927697 -0.105362654
0002c0 d8 b3 0d bf 52 50 31 be 60 a3 92 3f 63 a3 0f be
       -0.55352545 -0.17315796 1.1456108 -0.14027171
0002d0 dd e7 f7 3d 5f 9b f3 bd d5 1f e9 be 2e 34 98 bf
       0.12104771 -0.11894869 -0.45532098 -1.1890924
0002e0 87 14 18 be e1 89 86 bf af f0 86 bf 8f 29 46 bf
       -0.1485158 -1.0510827 -1.0542201 -0.77407163
0002f0 ff 1f 39 bf 3c f2 9c be 49 d5 61 3f 96 bd 86 3d
       -0.7231445 -0.3065356 0.8821607 0.065791294
000300 dd 70 60 bc 5d 6a ad be 2f 18 5c be de 60 03 bf
       -0.013698784 -0.3387021 -0.214936 -0.5131968
000310 c4 5b c2 bd 8b e4 af be 72 fd b8 be 46 30 c3 3d
       -0.09490159 -0.34354052 -0.36130863 0.09530692
000320 77 e2 84 3e a2 33 a4 3c 74 69 47 bc 61 0f 7f 3d
       0.2595403 0.020044152 -0.012171138 0.062270526
000330 69 51 e6 3d 6c 13 3e 3e e3 56 5c 3e de 4e dc be
       0.112459965 0.18562096 0.2151752 -0.4302892
000340 51 fd 07 3f aa dc 10 3e 79 b9 38 bf 7a 64 01 be
       0.53120905 0.14146677 -0.7215801 -0.12635985
000350 03 7c 9a 3e 22 89 56 bf 44 e7 5d be 16 a9 aa bd
       0.30172738 -0.83803 -0.21670252 -0.08333032
000360 dd f9 bb 3e 2d 87 7d 3e 71 fd 9b bd e9 32 18 3f
       0.36714068 0.24758597 -0.076166995 0.5945268
000370 a7 b9 8d be 03 71 52 bf 81 40 bb be 11 1a 1d 3d
       -0.27680704 -0.8220369 -0.3657265 0.038354937
000380 8d 9a 12 3e b6 66 71 3e b2 be 38 3e 5a ef 16 3f
       0.14316769 0.23574337 0.18041494 0.5895897
000390 bf 80 81 be b1 65 4b bd 36 4f 1c bd d8 2e 50 bf
       -0.25293538 -0.049657527 -0.03816148 -0.8132148
0003a0 37 66 88 3d 45 76 d6 be 50 ca 0e bf 70 42 3b be
       0.06660121 -0.41887107 -0.55777454 -0.18287063
0003b0 81 34 d6 bc d8 bc 47 3e d0 15 92 be 5f 01 59 be
       -0.026148083 0.19505632 -0.28532267 -0.2119193
0003c0 b1 7e 44 be ab 1b 42 c0 d5 b5 dd be d5 6e 8e 3e
       -0.19188954 -3.0329387 -0.4330279 0.27818933
0003d0 96 6b db be b0 7c 9c bd 91 18 2a be 0e 70 84 3e
       -0.4285552 -0.0764097 -0.16610934 0.2586674
0003e0 51 57 c0 3e 05 75 53 3b 69 1d 6d bf 58 3d 99 bb
       0.37566617 0.0032265794 -0.92623 -0.004676502
0003f0 87 41 c1 3e 2a 98 bb be 5d 61 07 bf 6c 69 f7 be
       0.37745306 -0.3663953 -0.5288294 -0.48322618

encoder.gcs.3.bias f4 [64]
000000 fe 9f ad bb eb b9 22 bd 88 29 80 be 30 69 2d be
       -0.0052986136 -0.039728086 -0.25031686 -0.16934657
000010 b1 e9 ab bc b1 0d 21 be da 69 dc bd 81 3d da bc
       -0.020985456 -0.15727879 -0.10762377 -0.026640655
000020 37 bf 29 bc cf b0 4b bd 77 05 16 be d2 51 1e 3e
       -0.010360531 -0.049729165 -0.14650522 0.154609
000030 b9 cc 53 3c 8f 2c 5d be ad fd 21 bb 64 f0 22 be
       0.012927228 -0.21599029 -0.0024717853 -0.15912014
000040 3f 59 3a be 94 90 a3 3d a9 ec 84 bd 69 28 fd bb
       -0.18198107 0.079865605 -0.06490452 -0.0077257645
000050 a0 71 bb bd 61 1a 7a bc e9 b6 f1 bd 43 df 63 be
       -0.091525316 -0.015265078 -0.118024655 -0.22253136
000060 79 0d 31 3b ec 03 63 bc f7 7c d6 bc 5c 8a 43 be
       0.0027016087 -0.0138559155 -0.026182635 -0.19095749
000070 33 97 52 bd 5f 77 73 be 6f 6f 7f be f3 38 b3 3b
       -0.051413726 -0.23776005 -0.24944852 0.0054694354
000080 0d c6 e6 3c 3a 35 64 bd 55 9e 2a be e7 48 f2 bd
       0.02817061 -0.055714823 -0.16661961 -0.11830311
000090 ac 0e 65 3c ca 5e 57 bd 95 ff 74 3e 89 8d 8f be
       0.013980549 -0.052580632 0.23925622 -0.2803767
0000a0 b6 9f 0f be cd ea 3b be 86 c2 41 3e 43 26 f8 bd
       -0.14025769 -0.18351288 0.18921861 -0.12116673
0000b0 8b 32 c2 bd 30 e3 a9 bd bf 70 20 be c5 7b 87 bd
       -0.094822966 -0.08295286 -0.15668009 -0.06615404
0000c0 64 22 2c be 3a 6f 12 be 3a 0c 8c be 85 c2 d7 bd
       -0.16809994 -0.14300242 -0.27353078 -0.105351485
0000d0 3e 10 f6 3d 4d 97 63 bd b4 f1 5e bd 31 dc ad be
       0.12014817 -0.055564214 -0.054429725 -0.33957055
0000e0 5c 0d 41 3d 5e e7 69 3e ed 4a 17 bd 63 a2 35 bd
       0.04713188 0.22842166 -0.03693669 -0.044344317
0000f0 3a 7c 6e bd 02 5f 02 bd aa a3 9b bd c3 ec 0d 3b
       -0.05822394 -0.031828888 -0.07599576 0.0021656014

encoder.gcs.4.weight f4 [32, 64]
000000 07 91 c4 bd 16 b5 74 3e df 39 a8 3e 43 e4 ec bd
       -0.09597974 0.23897204 0.32856652 -0.11566975
000010 52 ef f3 3d 93 84 af 3d 48 b6 11 3e 74 fb 0b be
       0.11910881 0.085702084 0.14229691 -0.1367014
000020 65 6e 30 be bb 27 da bd 35 84 72 be ae cc 03 3d
       -0.17229612 -0.10652109 -0.23683245 0.03217762
000030 cc c1 99 be 12 4d 99 b8 e3 e6 20 be 0e 07 bc be
       -0.30030668 -7.309964e-05 -0.15713076 -0.36724132
000040 0f 6e dd be 67 d0 38 be 23 9c 93 be 3e d5 30 be
       -0.4324803 -0.18048249 -0.2883006 -0.17268845
000050 c1 38 36 be d9 30 ff be 90 53 3f be 34 0a 76 be
       -0.17795087 -0.49841955 -0.1868422 -0.2402733
000060 0b bc a5 bd 82 a4 a7 bd a4 6b dd b9 93 a9 09 be
       -0.08092507 -0.08185674 -0.00042232603 -0.13443594
000070 f9 7b 16 3d f8 14 31 be e7 2b 36 bd 8f 0d 23 be
       0.036739323 -0.17293155 -0.044475462 -0.15923141
000080 ae bf b4 be 54 10 80 3c 9e a8 f9 bd a4 36 22 be
       -0.3530249 0.015632786 -0.12190364 -0.15841156
000090 b9 c7 9a bd a4 5a d7 be 2f 29 a7 be d4 ef 01 3c
       -0.07557625 -0.4206134 -0.32648608 0.007930715
0000a0 cb d1 67 3e 61 f1 48 bd ef 2d f4 be 1b b6 8d 3d
       0.22638623 -0.049058322 -0.47691295 0.069194995
0000b0 86 01 70 3d 62 af 1b be 34 40 a6 bc 20 e1 ab bd
       0.058595203 -0.15203622 -0.020294286 -0.083925486
0000c0 17 6b 33 be 26 7c 21 bd 9f a1 ee bd 04 8f f3 3e
       -0.1752132 -0.039425038 -0.116519205 0.4757005
0000d0 90 50 0d bf 0d 68 5e 3b 2a 13 fd be 59 81 5a 3e
       -0.55201054 0.003393653 -0.49428684 0.21338405
0000e0 47 bb f5 be 50 45 8e 3c 86 93 a5 be ac 64 da be
       -0.47994444 0.017367035 -0.32339114 -0.42654932
0000f0 eb f6 46 be 07 e3 d3 be de 82 d7 bc 2c 27 1f bb
       -0.19430129 -0.41384146 -0.02630752 -0.0024284823
000100 b1 ff 6c 3e 35 07 4d bf 67 e6 56 bd 16 b9 10 3e
       0.23144414 -0.8008912 -0.052465823 0.14133105
000110 86 15 20 be bd 95 2d 3c 88 f6 09 bf 87 cd 11 bd
       -0.1563321 0.010594782 -0.538918 -0.035596397
000120 ab 7f 72 bd 46 db a9 3e 4d ae ed 3e 4e d1 4a bd
       -0.059203785 0.33175105 0.46422043 -0.049516015
000130 67 7b 79 3e e9 3b 69 3d 22 9e c5 3e 31 5b 81 bb
       0.2436348 0.0569419 0.38597208 -0.0039476384
000140 62 3e 93 3b a1 77 74 3e dc 78 89 be 56 37 8f 3e
       0.0044935206 0.2387376 -0.2685002 0.27971905
000150 13 67 b7 bf 5e ba 07 3e be c8 8c 3e 8c b6 7b be
       -1.4328331 0.13254687 0.27496904 -0.24581355
000160 ec 5b 36 bf 69 bd 39 3d f4 6a 22 3f 57 9c 80 3d
       -0.7123401 0.04534665 0.6344445 0.062798195
000170 9b 32 88 be ca 4b 5c 3e 99 26 4d 3e 30 51 30 3d
       -0.2660111 0.21513286 0.20034255 0.043046176
000180 24 7b b0 3e de bd c0 bd 0a 2f 12 bd cb 76 fb ba
       0.3446895 -0.09411214 -0.03568939 -0.0019185183
000190 cb 5b 94 3e 8e 2b a9 bd f9 ad 18 3e 9e f5 50 3e
       0.28976282 -0.082602605 0.14910115 0.20406196
0001a0 6f e0 1d be b0 4a 33 bf 6b e7 36 3e 05 f1 59 bf
       -0.15417646 -0.7003584 0.17861716 -0.8513339
0001b0 53 a7 7a 3d 5d 39 37 3e 11 1c 82 3d 2d b6 8a 3c
       0.06119473 0.17892976 0.063530095 0.016932571
0001c0 bc 0e a7 3e 72 2e 0d bf b1 dd 5c be ba 93 0a bf
       0.3262843 -0.55148995 -0.21568944 -0.5413166
0001d0 c8 04 f7 bd d5 b4 1a 3e b8 f3 a2 bd 25 ef 09 be
       -0.12061459 0.15108044 -0.07956642 -0.13470133
0001e0 b5 5e b4 bf 77 b1 4c 3e 5a 8b b4 3e 5d db 10 3d
       -1.4091402 0.19989572 0.35262567 0.03536545
0001f0 0e ec 7d be be 20 71 bf 98 fa c5 3e 45 32 2a be
       -0.24797079 -0.94190586 0.3866775 -0.16620739
000200 c9 6d ce be 57 48 22 be f6 1a 7b be 60 d1 f6 bd
       -0.40318134 -0.15847908 -0.24522004 -0.12051654
000210 b0 ef 75 3e 19 7a 2e bf c4 66 d7 3d 23 43 de 3e
       0.24017215 -0.68155056 0.10517648 0.43410596
000220 8b b7 e1 3d 78 55 80 be 04 91 0a 3e 29 25 92 3c
       0.11021336 -0.25065207 0.13531882 0.017839985
000230 9d 70 e3 3e 46 3c 32 be 67 fe 85 3e f6 ef 8b 3d
       0.44421855 -0.17405805 0.26170656 0.06832878
000240 4e 60 ac bc 35 cf fc be 16 aa 16 3f d9 7f 8c bf
       -0.021042015 -0.49376836 0.5885328 -1.0976516
000250 f2 57 f7 be 8b d2 ba 3e 60 e3 19 3f 07 ca 7c 3d
       -0.48309284 0.36488757 0.6011257 0.061716106
000260 af 7a 66 3e 43 c0 76 3d 50 ce 0a bf 8f 9a 3c be
       0.22507738 0.06024195 -0.5422106 -0.18418334
000270 a9 68 11 3e f1 0b 88 3d 31 9b 8d 3e 37 a7 57 bf
       0.14200081 0.06642903 0.27657464 -0.84239525
000280 39 e4 c0 3e b9 bf 11 be 02 cf fe 3c 9e b5 f5 3e
       0.3767412 -0.14233293 0.031104568 0.47990125
000290 74 20 e8 be e4 41 29 be 36 76 90 3e f8 c5 e8 be
       -0.4533726 -0.16529042 0.28215188 -0.45463538
0002a0 c7 79 a3 bf ad dd 4c be a2 46 55 3e 1c 60 71 be
       -1.2771538 -0.20006438 0.20827726 -0.23571819
0002b0 f9 46 cc 3d b9 9f 23 bf 4b f1 32 3e 0e 94 1a be
       0.099744745 -0.6391559 0.17474858 -0.15095541
0002c0 80 76 19 3e a2 c0 4a 3e c5 48 7e be 8c aa b1 be
       0.1498661 0.19800046 -0.24832447 -0.3470043
0002d0 da 09 27 3e dd dd dd be 37 32 89 bd 31 9d 9f 3d
       0.16312352 -0.4333333 -0.06699031 0.07793654
0002e0 b8 a9 9e be 89 4d ea bd d3 cc 54 be 41 bb 9f bc
       -0.3098886 -0.1144057 -0.20781259 -0.01949847
0002f0 fb 8b 40 bf ad ac 5f bf b1 d1 86 3e 5a 13 ad 3d
       -0.75213593 -0.8737286 0.26331857 0.08450957
000300 90 cb 16 3e 79 3f 54 3e 7c 14 8b bd 8c 70 cc be
       0.1472609 0.20727338 -0.067910165 -0.39929616
000310 d3 ea cc 3c 42 30 c0 3d 81 b7 6e be 8a 64 1a bd
       0.025014317 0.093842044 -0.23312189 -0.037693538
000320 a8 19 b4 be 23 25 51 be a8 8b 88 bd 20 2f 6e 3d
       -0.35175824 -0.20424323 -0.06667262 0.05815041
000330 e3 9d 68 bd e4 ac 75 3d c4 42 d9 bd df e4 9f be
       -0.056791198 0.059979334 -0.10608438 -0.31229302
000340 73 ab 25 be bf 13 c2 bd 6b c3 a8 3d 29 d7 ae be
       -0.16178684 -0.094764225 0.08240398 -0.3414853
000350 02 a8 e9 bd 6e 5a d8 be 15 51 db 3d 35 25 37 be
       -0.11408998 -0.42256492 0.107088245 -0.17885287
000360 98 1d 26 be 63 13 23 be 3d c3 c8 bd 78 a9 78 3d
       -0.16222227 -0.15925364 -0.09802864 0.060708493
000370 f5 c9 bd bc 9d 38 10 3d a2 72 d1 be f8 12 e1 3d
       -0.02316759 0.03521024 -0.4090777 0.10989946
000380 22 58 0b bd 34 1c 3b bd f4 12 2d be b5 dd 80 3e
       -0.034019597 -0.045681193 -0.16901761 0.2516915
000390 4a 1f ab bd 1b a4 fb be b6 08 f6 bc f9 93 91 3d
       -0.08355577 -0.4914864 -0.03003345 0.07108302
0003a0 2f 77 22 3d bf f3 ea bc e8 5d b7 3c 59 20 00 be
       0.039664444 -0.02868068 0.022383645 -0.1251234
0003b0 27 59 59 be ca ab 33 bd 51 7b b3 3c b1 7f 50 be
       -0.21225415 -0.043865003 0.021909388 -0.2036121
0003c0 63 a8 e4 bd f1 69 d9 3d 06 d1 21 be 9d 66 88 3d
       -0.1116493 0.1061591 -0.15802392 0.06660197
0003d0 3e 5d 3c be 82 2e 07 be 13 79 af be 18 c5 29 3e
       -0.18394944 -0.13201335 -0.3427206 0.16579092
0003e0 44 32 87 3e 61 b7 13 bf a0 36 a1 bd ba 3a ae be
       0.26405537 -0.5770169 -0.07871747 -0.3402918
0003f0 94 73 11 3e 25 17 20 3d 96 67 7e bd c9 c2 05 bc
       0.14204246 0.039084572 -0.062110506 -0.008164116

encoder.gcs.4.bias f4 [32]
000000 67 19 10 3e 0e 14 4f be 8c da 9c bd 7c 27 06 3e
       0.1407219 -0.20222494 -0.07658872 0.13101
000010 b2 23 10 3e bc db 0b be 86 74 93 be 3c 90 ce bd
       0.14076117 -0.13658041 -0.28799838 -0.10086104
000020 fd e7 f0 3d 9b 25 50 be a3 29 39 be ae e0 e3 bd
       0.11762998 -0.20326845 -0.1808229 -0.111268386
000030 f2 84 43 be f7 f1 28 be 8f 48 b9 bd e8 11 e5 be
       -0.19093683 -0.16498552 -0.090470426 -0.44740224
000040 29 0f db bd 65 42 8e 3d 00 79 fa 3c 16 28 e8 bd
       -0.10696251 0.069462575 0.030575275 -0.11335771
000050 82 fd 38 be 76 56 38 be 13 98 1b 3e 53 14 4c be
       -0.18065456 -0.18001732 0.1519473 -0.19929628
000060 9b 01 37 3d 3c ff 60 3e e7 7b a4 bd 4c fb 06 3e
       0.044679265 0.21972364 -0.08031445 0.131818
000070 92 c6 7f bd 59 60 0c 3b 39 d3 7b be f9 2b 69 3e
       -0.06244523 0.0021419732 -0.24592294 0.2277068
