pretrained/model-circuits_5_qubits-15_old.pt (torch, 290690 bytes, 50 tensors)

encoder.gcs.0.weight f4 [32, 9]
0.447467 -0.33918175 -0.13602461 0.39814717 -0.74511063 0.5054033 -0.15963233 0.43404365
0.12968872 -0.11107026 0.20992015 0.025692418 0.2842233 -0.3313107 -0.0745659 -0.08784222
0.10290995 -0.016451256 0.692958 0.234037 -0.32268542 -0.508408 -0.15492137 -0.36784366
-0.27736777 0.024408653 0.47209996 0.4035685 -0.8227154 0.47066906 0.19157593 0.740589
0.52211136 -0.7794777 -0.8159274 -0.42758256 0.68641144 -0.15816346 0.33121845 -0.3951172
0.7814454 -0.36531386 0.5900884 -0.009074947 -0.45228812 0.3976835 -0.4578559 0.22075751
-0.2514768 -0.11035758 -0.79812014 -0.40392265 0.42250466 -0.21310836 0.7616622 0.6141907
-0.06741517 -0.55457044 0.4516092 0.22372964 -0.5625078 0.49415317 0.47738722 0.66293406
-0.46715638 -0.16755517 -0.04051275 0.097016305 -0.6328355 -0.6205096 0.41683227 -0.22166555
0.379044 0.026515596 0.25284168 0.19014437 0.27455476 0.39040524 -0.7469433 0.40744865
-0.57481736 -0.60056084 0.06589559 -0.12578814 0.49459502 -0.45631757 -0.71620965 0.6051423
-0.10575326 0.47159845 0.23962446 -0.6038705 0.16752462 0.19692281 -0.54668945 -0.37574947
0.26620707 0.15760984 -0.35991725 -0.27225354 0.7187813 -0.16887063 0.43896833 0.33132544
-0.5497931 -0.71404266 0.75970095 0.023874875 0.5610036 0.18837766 0.27379677 0.5812441
0.7602104 -0.5246915 0.07266301 0.6176018 0.57878983 0.49190068 -0.6089621 -0.6043251
-0.5088656 0.08062001 0.7959489 -0.5263708 0.4149005 -0.4635801 -0.7629204 -0.15920821
0.472156 0.72921085 -0.49035937 0.1778133 0.69351304 0.545329 0.5085164 0.5562282
0.4993902 0.19290288 -0.57839346 -0.69807905 -0.38911793 -0.10749764 -0.5164218 0.28196552
0.23387468 -0.20369874 0.2919771 0.24256976 0.4793106 0.5315637 -0.29125124 0.77625346
-0.11248204 -0.06149684 -0.7680143 -0.53734136 -0.49493945 -0.36493173 0.56436414 -0.26933914
-0.6037593 0.2964883 0.27979344 0.5427722 -0.40537846 0.19191983 -0.28187016 -0.16314138
-0.6322261 -0.3570259 -0.23721723 0.32836062 0.13233265 0.18688789 0.79437006 0.7803905
0.5420121 0.014417393 -0.57521945 0.6188771 -0.20232046 -0.060545176 -0.68570125 -0.1489072
-0.52117777 0.7595496 -0.6920123 -0.6188664 -0.025336156 -0.4653696 0.2631517 -0.3398321
-0.40286955 0.015802728 0.568328 -0.5947409 0.36117303 0.49672395 0.7607282 -0.5920446
0.1693383 -0.6246162 0.67447287 -0.34168464 0.4694826 -0.0018193733 -0.08326729 -0.043544933
0.12448672 0.37100443 0.11779118 0.23671816 -0.7432526 0.57993555 0.6962488 0.6593154
0.60923195 -0.55480504 -0.2877801 0.694727 -0.60947734 0.7506847 -0.63877004 -0.5541662
0.41404575 -0.59964776 -0.20156619 0.564923 0.6397871 0.7512732 -0.18288916 -0.62922007
0.7772346 -0.17444283 -0.38890642 0.14442748 -0.604955 0.47218874 0.46586967 -0.67310643
-0.6913469 -0.09629051 0.29665983 -0.02736572 -0.3886202 0.032224774 -0.7495879 -0.5594582
-0.5212257 0.6868646 0.73746634 -0.2434603 0.072411016 0.3465952 0.09206104 -0.38160038
00000000: 651a e53e 3ba9 adbe 094a 0bbe f2d9 cb3e
00000010: 92bf 3ebf 1c62 013f a876 23be f83a de3e
00000020: 1fcd 043e ce78 e3bd 4ff5 563e e878 d23c
00000030: b785 913e 8ea1 a9be 02b6 98bd 9fe6 b3bd
00000040: 74c2 d23d c9c4 86bc b265 313f 65a7 6f3e
00000050: 0637 a5be 0727 02bf b5a3 1ebe 0156 bcbe
00000060: 2603 8ebe a8f4 c73c 16b7 f13e 88a0 ce3e
00000070: 7a9d 52bf 89fb f03e 7b2c 443e 3e97 3d3f
00000080: 17a9 053f da8b 47bf 9ee0 50bf 1aec dabe
00000090: a9b8 2f3f 9af5 21be 7795 a93e cd4c cabe
000000a0: ce0c 483f 6b0a bbbe 0910 173f 16af 14bc
000000b0: 4f92 e7be 2c9d cb3e 176c eabe 420e 623e
000000c0: 91c1 80be 2803 e2bd 9a51 4cbf f3ce cebe
000000d0: 8852 d83e 1439 5abe 4bfc 423f 9a3b 1d3f
000000e0: f710 8abd 54f8 0dbf 5239 e73e 6219 653e
000000f0: 8300 10bf a501 fd3e 196c f43e 0cb6 293f
00000100: 1f2f efbe 9593 2bbe b3f0 25bd 7cb0 c63d
00000110: 8201 22bf b8d9 1ebf 0a6b d53e 4bfc 62be
00000120: 0e12 c23e 3c37 d93c 7774 813e 35b5 423e
00000130: 7192 8c3e 32e3 c73e ad37 3fbf 1c9d d03e
00000140: 3b27 13bf 5bbe 19bf 44f4 863d 9bce 00be
00000150: 8f3b fd3e 75a2 e9be 8459 37bf 9bea 1a3f
00000160: 2a95 d8bd 5a75 f13e 1d60 753e 4297 1abf
00000170: 938b 2b3e 22a6 493e d7f3 0bbf 3c62 c0be
00000180: 4b4c 883e 7964 213e 1347 b8be d164 8bbe
00000190: 0d02 383f 6cec 2cbe 75c0 e03e 7da3 a93e
000001a0: 3ebf 0cbf 80cb 36bf c37b 423f 3e95 c33c
000001b0: ef9d 0f3f 13e6 403e 172f 8c3e 6acc 143f
000001c0: 269d 423f 2f52 06bf 58d0 943d 271b 1e3f
000001d0: 922b 143f 68da fb3e f1e4 1bbf 0db5 1abf
000001e0: 0445 02bf 1b1c a53d 4fc3 4b3f 3dc0 06bf
000001f0: d76d d43e 5f5a edbe c04e 43bf 7a07 23be
00000200: 6ebe f13e 90ad 3a3f 6210 fbbe b114 363e
00000210: 128a 313f ae9a 0b3f 212e 023f f964 0e3f
00000220: 13b0 ff3e 5588 453e 9811 14bf 4fb5 32bf
00000230: 773a c7be b927 dcbd 3834 04bf c95d 903e
00000240: d87c 6f3e 6796 50be 067e 953e 3564 783e
00000250: 3368 f53e 8f14 083f e21e 95be 8cb8 463f
00000260: fc5c e6bd 1ce4 7bbd 969c 44bf 348f 09bf
00000270: b468 fdbe 55d8 babe 2b7a 103f d2e6 89be
00000280: f88f 1abf 51cd 973e 1641 8f3e 1ef3 0a3f
00000290: c48d cfbe a286 443e 4951 90be 890e 27be
000002a0: 92d9 21bf 19cc b6be 13e9 72be e21e a83e
000002b0: 3682 073e 8a5f 3f3e d65b 4b3f acc7 473f
000002c0: 4ec1 0a3f ee36 6c3c 9541 13bf bb6e 1e3f
000002d0: 182d 4fbe 38fe 77bd 1e8a 2fbf 217b 18be
000002e0: e86b 05bf d871 423f b827 31bf 076e 1ebf
000002f0: c58d cfbc ed44 eebe d2bb 863e 79fe adbe
00000300: eb44 cebe b974 813c f27d 113f f140 18bf
00000310: aceb b83e 9a52 fe3e 15bf 423f 3c90 17bf
00000320: 0567 2d3e d9e6 1fbf 41aa 2c3f 4af1 aebe
00000330: 0660 f03e 0a78 eeba 0a88 aabd 2c5c 32bd
00000340: e5f2 fe3d 4bf4 bd3e 813c f13d 3f66 723e
00000350: cd45 3ebf a876 143f 5d3d 323f e5c8 283f
00000360: a0f6 1b3f b407 0ebf ea57 93be a1d9 313f
00000370: b506 1cbf df2c 403f 6f86 23bf d6dd 0dbf
00000380: cefd d33e 8482 19bf 5e67 4ebe cb9e 103f
00000390: 16c9 233f 7153 403f 4c47 3bbe 9114 21bf
000003a0: d9f8 463f 24a1 32be be1e c7be cce4 133e
000003b0: 55de 1abf b9c2 f13e 7886 ee3e b450 2cbf
000003c0: 1cfc 30bf f533 c5bd cce3 973e 132e e0bc
000003d0: 3af9 c6be 20fe 033d fee4 3fbf a738 0fbf
000003e0: 0c6f 05bf 5cd6 2f3f 98ca 3c3f a84d 79be
000003f0: 3a4c 943d ed74 b13e 808a bc3d 2061 c3be

encoder.gcs.0.bias f4 [32]
-0.03645632 0.055623643 -0.0056040836 -0.2428121 0.14887244 0.16193199 0.01069847 -0.16907312
-0.123780504 0.02355654 -0.16803312 -0.20346886 0.003587491 -0.11812488 0.11637032 -0.0955402
-0.06250395 -0.1320261 -0.2769697 0.2660494 0.07980608 0.24863088 -0.062373716 -0.097073935
-0.25877526 -0.121147126 0.13388652 -0.2678288 -0.09163377 0.22360565 0.17116112 0.14480723
00000000: 3953 15bd 9ed5 633d 76a2 b7bb bca3 78be
00000010: 0472 183e 80d1 253e a348 2f3c 8121 2dbe
00000020: a280 fdbd a5f9 c03c e010 2cbe 245a 50be
00000030: 1d1c 6b3b 75eb f1bd 9053 ee3d 95aa c3bd
00000040: 1202 80bd da31 07be f9ce 8dbe a137 883e
00000050: 5f71 a33d 1899 7e3e 957b 7fbd b3ce c6bd
00000060: 317e 84be fc1b f8bd 8c19 093e db20 89be
00000070: 7caa bbbd e1f8 643e dc44 2f3e 5948 143e

encoder.gcs.1.weight f4 [64, 32]
-0.0891414 -0.056311544 -0.096894056 -0.11407678 0.15378357 -0.17599352 -0.26154307 0.13144593
-0.26969054 -0.116413 0.25165915 0.2167036 0.34968174 -0.25720015 -0.019437654 -0.080329806
-0.25030413 -0.21079044 0.14064957 0.019753406 -0.25442788 -0.32762143 -0.3462582 0.4104324
-0.042730782 -0.09533738 -0.18489814 -0.1852132 -0.33603504 -0.27745444 0.23940109 0.071466684
-0.18052794 -0.18332328 0.2525296 0.29737946 0.39175275 0.09946648 0.18353264 -0.01734598
-0.25876215 -0.43991023 0.28660303 -0.022242934 0.15538101 0.028217757 -0.4251381 -0.20356786
0.09671872 -0.06335951 -0.39361876 0.13058683 -0.008802828 -0.16127552 0.14831017 0.07609209
-0.13900036 0.36572582 0.19622655 0.07594244 -0.106404856 -0.39393178 0.30938205 -0.13145183
-0.28477868 0.29358667 0.155167 0.09303469 -0.083562315 -0.1300663 0.07344276 0.32914588
0.086730994 -0.20440282 0.41064942 0.04523804 0.34284046 0.112244636 0.39303538 0.25851884
-0.2222148 0.30179876 0.022396145 -0.33765185 -0.085525446 -0.38096008 -0.23383509 -0.31700316
0.28604183 -0.10703886 -0.074051596 0.20619306 0.17913328 -0.27603546 0.1746844 0.18500872
-0.34084156 0.38078356 -0.26051432 -0.15936661 -0.343935 0.39704293 0.08529782 0.34515083
0.044492047 0.23939116 -0.14790206 -0.335135 0.07771821 -0.028795397 -0.03884352 -0.21910332
0.014608446 0.11607436 0.14579967 -0.3399006 0.21424916 0.049117826 0.3134789 0.3099144
-0.3422505 0.42307848 -0.41670874 0.23544788 0.04978615 0.20827055 -0.22949427 0.26256427
-0.2593201 -0.41488054 0.10148338 0.23448083 0.3911296 -0.09593423 0.37486023 0.2867658
-0.23959522 -0.36418828 0.27398425 -0.19629201 0.161325 -0.35485923 0.2801622 0.10653613
-0.08545209 0.2465301 -0.2685118 -0.13151623 -0.046487074 -0.2812012 -0.15095133 -0.20672731
0.42344603 0.34655157 0.3386228 0.3955504 -0.4329753 0.09359806 0.113469884 -0.3537442
0.15229297 -0.21799894 0.081436194 0.14140315 0.38930327 -0.2031543 -0.31111667 0.38390395
0.17436616 0.21706517 0.14431086 -0.15118401 0.2751086 -0.38768592 0.06853846 0.1884017
0.30305746 -0.23660159 -0.30009815 0.17745173 -0.3296496 -0.33472422 -0.36482665 -0.19072506
-0.1083483 -0.24813204 -0.16383494 -0.39618546 0.26491368 -0.079867736 -0.24410753 0.13022347
-0.29609883 0.2626868 0.26106936 -0.38186592 -0.36173332 -0.30832288 -0.24441564 0.092108324
-0.3908158 -0.3621466 0.22335994 -0.09602334 -0.16053775 -0.3197078 0.13288178 0.070268236
-0.1187867 -0.22760525 0.12441924 0.08456701 0.17094316 0.09209521 -0.035257295 -0.28270906
0.29299912 0.029573154 -0.30289188 0.4175022 0.2583292 -0.37312058 -0.25142232 -0.1832173
-0.2195821 0.17937963 -0.31986085 0.42373565 -0.20208752 0.22324441 -0.0028346656 -0.1569783
0.32723367 -0.35228837 -0.19820653 0.09787895 0.33224067 -0.1539502 -0.29074886 -0.24369095
-0.18234034 -0.117054544 -0.071178526 -0.27074295 0.101522386 -0.025919653 -0.22665562 -0.19915745
0.12389465 0.012943514 0.28215185 -0.035644453 -0.3160706 -0.34288085 -0.15275405 -0.12257897
00000000: c48f b6bd efa6 66bd 6470 c6bd 16a1 e9bd
00000010: 7179 1d3e a537 34be f9e8 85be c399 063e
00000020: e114 8abe f069 eebd 78d9 803e 8ce7 5d3e
00000030: 7c09 b33e bdaf 83be b73b 9fbc f483 a4bd
00000040: dd27 80be 73d9 57be 7106 103e e5d1 a13c
00000050: 5f44 82be ffbd a7be c148 b1be 3224 d23e
00000060: 7906 2fbd 3f40 c3bd f055 3dbe 87a8 3dbe
00000070: c90c acbe 820e 8ebe 8f25 753e 205d 923d
00000080: 51dc 38be 19b9 3bbe 8f4b 813e 1f42 983e
00000090: d193 c83e 15b5 cb3d fbef 3b3e 2819 8ebc
000000a0: 797c 84be ea3b e1be a2bd 923e d036 b6bc
000000b0: 331c 1f3e ed28 e73c b3ab d9be 1874 50be
000000c0: 7714 c63d a1c2 81bd 6688 c9be 8eb8 053e
000000d0: bd39 10bc 6925 25be 9fde 173e 2bd6 9b3d
000000e0: 1c56 0ebe 6a40 bb3e 9def 483e b687 9b3d
000000f0: caea d9bd 6db1 c9be 5367 9e3e 4f9b 06be
00000100: 83ce 91be fe50 963e 19e4 1e3e f988 be3d
00000110: b822 abbd 1a30 05be 2869 963d cf85 a83e
00000120: 05a0 b13d f94e 51be a440 d23e 864b 393d
00000130: c988 af3e 84e0 e53d ef3b c93e 955c 843e
00000140: 478c 63be 5e85 9a3e 1f78 b73c b4e0 acbe
00000150: f727 afbd 330d c3be 7772 6fbe 3d4e a2be
00000160: 1374 923e 3137 dbbd 5da8 97bd 4624 533e
00000170: b76e 373e 8554 8dbe 78e0 323e ed72 3d3e
00000180: c982 aebe 10f6 c23e 2262 85be 0031 23be
00000190: 4018 b0be 3649 cb3e a0b0 ae3d 9cb7 b03e
000001a0: 4b3d 363d f522 753e a373 17be d196 abbe
000001b0: ba2a 9f3d 53e4 ebbc 621a 1fbd 9f5c 60be
000001c0: 4358 6f3c 65b8 ed3d 824c 153e 7407 aebe
000001d0: 2264 5b3e c62f 493d 4e80 a03e 1aad 9e3e
000001e0: 753b afbe be9d d83e d95a d5be 4019 713e
000001f0: 90ec 4b3d e044 553e 8c00 6bbe d36e 863e
00000200: 9bc5 84be 396b d4be 85d6 cf3d be1b 703e
00000210: 2442 c83e 2a79 c4bd aeed bf3e f8d2 923e
00000220: 7358 75be e376 babe aa47 8c3e c600 49be
00000230: 6132 253e 1cb0 b5be 6b71 8f3e 9d2f da3d
00000240: 8101 afbd 6372 7c3e 617a 89be 31ac 06be
00000250: 3b69 3ebd 9bf9 8fbe fc92 1abe 53b0 53be
00000260: ebcd d83e 356f b13e f85f ad3e 9585 ca3e
00000270: f0ae ddbe 57b0 bf3d e662 e83d f61d b5be
00000280: b0f2 1b3e 1d3b 5fbe 05c8 a63d fdcb 103e
00000290: c252 c73e ae07 50be af4a 9fbe 0f8f c43e
000002a0: 0b8d 323e 5546 5e3e 3ac6 133e fbcf 1abe
000002b0: 09db 8c3e c57e c6be e45d 8c3d 60ec 403e
000002c0: 592a 9b3e b047 72be 77a6 99be e8b5 353e
000002d0: d5c7 a8be f960 abbe 8fca babe 6e4d 43be
000002e0: b7e5 ddbd 5316 7ebe 59c4 27be d2d8 cabe
000002f0: c4a2 873e b291 a3bd 53f7 79be 4d59 053e
00000300: 449a 97be e27e 863e e2aa 853e ee83 c3be
00000310: 1c35 b9be 7fdc 9dbe 1848 7abe 4aa3 bc3d
00000320: 0219 c8be 476b b9be 78b8 643e e3a7 c4bd
00000330: 0264 24be beb0 a3be 2912 083e cbe8 8f3d
00000340: 7146 f3bd 5a11 69be 84cf fe3d 7831 ad3d
00000350: b90b 2f3e 6a9c bc3d f469 10bd 3ebf 90be
00000360: fb03 963e 6643 f23c a514 9bbe d9c2 d53e
00000370: ba43 843e a909 bfbe 6dba 80be 519d 3bbe
00000380: 21da 60be 4baf 373e cdc4 a3be e1f3 d83e
00000390: 08f0 4ebe 2f9a 643e ccc5 39bb ebbe 20be
000003a0: 2c8b a73e 245f b4be a7f6 4abe c274 c83d
000003b0: 731b aa3e 1fa5 1dbe 09dd 94be 1f8a 79be
000003c0: 6db7 3abe 4bba efbd 0cc6 91bd d29e 8abe
000003d0: f8ea cf3d 7455 d4bc 6918 68be eeef 4bbe
000003e0: 7abc fd3d 0811 543c 3576 903e ebff 11bd
000003f0: 01d4 a1be 148e afbe 8f6b 1cbe af0a fbbd

encoder.gcs.1.bias f4 [64]
0.1380393 -0.18366173 -0.108010225 0.030967003 0.12771213 0.046543393 0.019163793 0.0035065461
-0.024181837 0.11240532 0.10826225 -0.119787365 -0.09465865 -0.13579528 -0.056520965 0.0041008675
0.10077661 -0.16800366 0.112717204 -0.114598125 -0.0064266045 -0.009151765 0.059874587 -0.13757978
-0.09644726 0.043803457 0.08920884 -0.1108166 0.039770428 -0.008207038 -0.09223259 -0.004825584
-0.045970637 0.088328265 0.08438393 0.07714166 0.11614225 -0.12641315 -0.18198688 0.035367478
0.02455079 -0.1260681 0.124978475 0.0014512803 -0.109820195 0.11574118 0.09031734 0.028969577
-0.03467206 0.009796913 -0.14010578 0.09320243 0.06396929 -0.04803956 -0.11349829 0.08826941
-0.16728804 -0.10986645 0.09669545 -0.13343112 0.022454346 0.12175523 -0.054039452 -0.03200304
00000000: 2d5a 0d3e d211 3cbe 7734 ddbd 83ae fd3c
00000010: f8c6 023e 49a4 3e3d 63fd 9c3c 15ce 653b
00000020: fd18 c6bc c334 e63d 99b8 dd3d 1453 f5bd
00000030: 65dc c1bd eb0d 0bbe 8782 67bd 9260 863b
00000040: f863 ce3d 2709 2cbe 47d8 e63d 6cb2 eabd
00000050: 4496 d2bb 49f1 15bc 0e3f 753d b7e1 0cbe
00000060: 2486 c5bd 416b 333d 20b3 b63d d0f3 e2bd
00000070: 51e6 223d d076 06bc 71e4 bcbd ef1f 9ebb
00000080: b54b 3cbd 73e5 b43d 7bd1 ac3d 72fc 9d3d
00000090: fddb ed3d 7372 01be c55a 3abe 7ddd 103d
000000a0: bd1e c93c ff17 01be b7f4 ff3d e338 be3a
000000b0: 69e9 e0bd b609 ed3d 4cf8 b83d 9b51 ed3c
000000c0: 4a04 0ebd 3b83 203c e477 0fbe eae0 be3d
000000d0: 5502 833d 21c5 44bd cb71 e8bd 98c6 b43d
000000e0: 8e4d 2bbe a901 e1bd 4408 c63d 2ba2 08be
000000f0: 2df2 b73c ce5a f93d 7958 5dbd 9f15 03bd

encoder.gcs.2.weight f4 [128, 64]
0.29560256 0.047674675 0.0997954 -0.08662316 -0.26250973 0.06212796 -0.18391111 -0.15107605
-0.23234297 0.2611295 -0.18912825 0.08979978 0.055419993 0.23122694 0.14772509 -0.18431403
0.14801347 -0.18444973 0.028100673 -0.110760026 -0.25341415 0.09327862 -0.19717777 0.2972835
0.13331471 -0.09632925 -0.1720274 -0.25015697 -0.12008298 -0.20823072 0.029952988 0.0708351
0.27054906 0.058426313 -0.0477399 -0.12909397 -0.03684767 0.18304223 -0.3068734 -0.26972425
0.1289194 -0.1337235 -0.08790199 -0.18156224 -0.20493881 -0.2155429 -0.17309527 -0.25961018
-0.16896307 0.25810027 -0.17554031 0.2375799 -0.24023126 0.027746025 -0.03423779 -0.22753055
0.008079926 0.27235448 -0.12223997 0.2689799 -0.029315531 -0.068466865 0.14906509 0.26106423
0.25529352 0.17332686 -0.26070547 -0.08724821 0.021166261 -0.15642773 0.13404946 -0.0784853
-0.28240514 -0.14770493 -0.20548722 0.11857843 -0.21939121 -0.08121357 0.032554872 0.12746496
-0.247093 0.19343546 -0.2113169 -0.2424573 0.11101858 -0.18825562 0.21163842 0.14672375
-0.14031239 -0.080600806 -0.1508954 -0.044280637 -0.0079212915 -0.020770948 -0.18915306 -0.26269767
-0.20425995 0.038079787 0.020676143 -0.16295399 -0.059240095 -0.011921644 0.21207146 -0.2867717
-0.1488218 -0.029229075 -0.057604123 -0.17586845 0.1398393 -0.123542234 0.017103504 -0.19072196
0.2899834 -0.1956127 -0.047271315 0.23460187 0.15461956 -0.25555664 0.18411914 -0.17301217
-0.043444764 0.12185066 -0.00033860025 0.21808669 -0.12966937 -0.21395336 0.004330257 0.09596146
0.20694631 -0.15614806 -0.011180606 -0.20042555 -0.24142157 -0.26259208 -0.23868944 -0.20284133
0.085422225 -0.0619308 0.16639936 0.26013175 -0.21229757 0.03871982 0.13292679 -0.26725248
-0.11056283 0.24530604 -0.24880877 0.25896358 0.0043009515 0.03112206 0.22942764 -0.2630465
0.27998513 -0.29764435 0.11846953 -0.024612762 0.21938895 0.003734662 -0.2766433 0.018999647
0.18396935 -0.08185783 -0.30931133 -0.06423267 -0.003646495 0.07005092 0.06546388 -0.060530845
-0.0336037 -0.05212834 0.09532619 0.05181648 0.10857024 -0.051526863 -0.0485179 0.20138504
-0.0010052257 -0.29844993 0.08542012 0.26177636 -0.07903251 0.20420544 -0.19114482 -0.06781633
0.18274616 -0.16899876 -0.10141207 0.044213068 -0.06602914 -0.107663594 0.2566473 -0.011079498
-0.10952256 0.23711471 0.098689474 -0.19558565 0.17064463 -0.16421123 0.27878925 0.23193271
0.026603295 0.07467233 -0.155991 -0.20243908 -0.19243868 0.07096054 0.103355445 -0.015752517
-0.123158075 -0.06865561 -0.19524783 -0.18559566 0.16901204 -0.26934412 0.19350475 0.19332133
-0.07810784 -0.05141225 -0.13910186 -0.2536674 0.001243912 -0.22972825 0.038037714 -0.14193025
-0.23445047 -0.29942474 0.25069442 0.21094161 0.24395527 0.14514613 0.102036476 0.12836607
0.21277447 0.07067172 0.0011619258 0.20685059 0.14307989 -0.21483028 0.19071852 0.25108278
-0.14177576 -0.31232938 -0.0224291 -0.21953638 0.2773584 -0.048848335 -0.1171306 0.16536187
0.09410239 0.0711778 0.24113598 -0.24993742 0.12501906 -0.17721793 0.1621759 -0.121504374
00000000: 3859 973e 8546 433d 8861 cc3d 7c67 b1bd
00000010: ad67 86be e379 7e3d 3253 3cbe aeb3 1abe
00000020: 51eb 6dbe c4b2 853e d6aa 41be f2e8 b73d
00000030: 1300 633d c1c6 6c3e 3f45 173e d1bc 3cbe
00000040: d890 173e 64e0 3cbe 6233 e63c 27d6 e2bd
00000050: 80bf 81be dc08 bf3d f8e8 49be 8b35 983e
00000060: a783 083e 4548 c5bd f327 30be 9314 80be
00000070: 11ee f5bd 6f3a 55be f85f f53c fe11 913d
00000080: 6885 8a3e 6e50 6f3d ea8a 43bd 3631 04be
00000090: 95ed 16bd 6c6f 3b3e 831e 9dbe 4c19 8abe
000000a0: 7203 043e d0ee 08be f505 b4bd 74eb 39be
000000b0: 7bdb 51be 47b7 5cbe e33f 31be a0eb 84be
000000c0: a804 2dbe b825 843e d7c0 33be 2548 733e
000000d0: 2fff 75be a24b e33c ed3c 0cbd c5fd 68be
000000e0: aa61 043c 0c72 8b3e f358 fabd bcb7 893e
000000f0: 2027 f0bc 5b38 8cbd 85a4 183e 36aa 853e
00000100: d5b5 823e 997c 313e 307b 85be 31af b2bd
00000110: de64 ad3c 972e 20be 4344 093e e7bc a0bd
00000120: 6897 90be f63f 17be 3e6b 52be 3fd9 f23d
00000130: 17a8 60be 4d53 a6bd 4258 053d 2d86 023e
00000140: f305 7dbe f213 463e 7563 58be ba46 78be
00000150: b65d e33d 15c6 40be beb7 583e c03e 163e
00000160: 0dae 0fbe 0912 a5bd 5384 1abe 9d5f 35bd
00000170: 4ec8 01bc d627 aabc 57b1 41be 4f80 86be
00000180: 8529 51be 8df9 1b3d 0461 a93c 69dd 26be
00000190: bea5 72bd 0053 43bc 4329 593e bed3 92be
000001a0: be64 18be d071 efbc 4df2 6bbd dc16 34be
000001b0: 0932 0f3e b603 fdbd a61c 8c3c 9e4c 43be
000001c0: b478 943e b24e 48be 919f 41bd 793b 703e
000001d0: 9754 1e3e 52d8 82be ba89 3c3e 1a2a 31be
000001e0: 23f3 31bd d78c f93d 2886 b1b9 1e52 5f3e
000001f0: 0cc8 04be 9716 5bbe d4e4 8d3b 7187 c43d
00000200: bce9 533e 47e5 1fbe dc2e 37bc 5b3c 4dbe
00000210: 3737 77be 7872 86be 016b 74be a3b5 4fbe
00000220: d9f1 ae3d 27ab 7dbd 9864 2a3e fd2f 853e
00000230: 8964 59be ad98 1e3d f61d 083e 51d5 88be
00000240: c46e e2bd 8231 7b3e bac7 7ebe e096 843e
00000250: ffee 8c3b b1f3 fe3c 14ef 6a3e 08ae 86be
00000260: 365a 8f3e d764 98be 27a0 f23d b4a0 c9bc
00000270: 7fa7 603e 3bc1 743b 31a4 8dbe 26a5 9b3c
00000280: 7662 3c3e 14a5 a7bd 0e5e 9ebe 6b8c 83bd
00000290: 09fa 6ebb db76 8f3d ed11 863d 31ef 77bd
000002a0: 09a4 09bd 8784 55bd 613a c33d 843d 543d
000002b0: 135a de3d d50d 53bd b5ba 46bd e137 4e3e
000002c0: c7c1 83ba 6ece 98be bef0 ae3d 8d07 863e
000002d0: ccdb a1bd 3b1b 513e 78bb 43be 4ae3 8abd
000002e0: cf21 3b3e 030e 2dbe 22b1 cfbd c318 353d
000002f0: 493a 87bd bb7e dcbd 4667 833e c886 35bc
00000300: 5d4d e0bd 33ce 723e b51d ca3d 9b47 48be
00000310: 77bd 2e3e fd26 28be 77bd 8e3e c57f 6d3e
00000320: 27ef d93c ceed 983d 1bbc 1fbe 314c 4fbe
00000330: a50e 45be c253 913d 05ac d33d 6c0b 81bc
00000340: 4d3a fcbd 509b 8cbd 0cef 47be ca0c 3ebe
00000350: 7e11 2d3e 79e7 89be 1c26 463e 07f6 453e
00000360: 01f7 9fbd a795 52bd b870 0ebe b2e0 81be
00000370: c30a a33a e23d 6bbe 6fcd 1b3d 2a56 11be
00000380: c913 70be 334e 99be 055b 803e 1401 583e
00000390: 69cf 793e 30a1 143e 80f8 d03d 6572 033e
000003a0: 8de1 593e 56bc 903d c34b 983a a4d0 533e
000003b0: 8983 123e 78fc 5bbe b74b 433e ec8d 803e
000003c0: aa2d 11be a3e9 9fbe 3bbd b7bc 25ce 60be
000003d0: ec01 8e3e 3115 48bd 2be2 efbd 9f54 293e
000003e0: c1b8 c03d abc5 913d 5aec 763e 98ef 7fbe
000003f0: ff04 003e 9e78 35be 7011 263e 49d7 f8bd

encoder.gcs.2.bias f4 [128]
0.006412209 -0.030830322 0.035099767 -0.0800718 -0.003471745 -0.07562942 0.084359616 -0.111220405
0.045925952 -0.08309565 -0.0023894208 -0.03110693 -0.11415053 -0.028570397 0.011082974 -0.04298028
0.08902049 -0.11019606 0.06924639 -0.11459557 -0.03937302 -0.037440006 -0.05786686 0.036608044
0.12200651 -0.061595477 -0.068022 -0.0018638972 0.08773637 0.13112433 0.04642799 0.054054927
0.07810998 -0.054976966 0.06943875 -0.093601726 0.04452792 -0.1572203 -0.008580946 0.07650608
0.12203128 -0.04984449 -0.045747098 -0.018608786 0.07442153 0.015294114 -0.030547079 -0.06897908
0.07460914 -0.06659081 -0.039303463 0.008602505 0.08747565 0.077452645 0.10617464 -0.07124377
0.012825284 0.0012569613 0.00019714469 0.07620062 -0.09819397 -0.11985211 -0.00059108116 -0.139986
0.074015185 -0.08840788 -0.066779114 -0.025514005 0.0502336 0.09182817 0.022316163 0.07903555
0.03641183 0.11933256 -0.04378773 -0.076275446 -0.03079992 -0.012848938 -0.08571791 0.020341529
0.102257624 0.049741358 -0.084890895 0.121248625 0.022065505 -0.008749099 -0.070893206 -0.06647963
0.031679302 0.000114945884 -0.06924587 0.102037065 0.063682124 0.049898203 -0.10302943 -0.0719304
-0.004025342 -0.1340937 0.088522285 0.03112274 0.08949294 0.073125444 0.042181466 0.04952731
-0.029712312 0.10484786 -0.043874796 -0.09588891 -0.004046827 -0.13855918 -0.06192711 0.046588097
0.065434575 0.111775726 0.12955514 0.09630363 0.09050504 -0.08990759 -0.053947434 0.04359562
-0.06508299 -0.0046399534 0.114520736 -0.038677916 -0.009613747 0.042053517 0.115598924 -0.071835734
00000000: 821d d23b df8f fcbc c6c4 0f3d affc a3bd
00000010: 3786 63bb 99e3 9abd bcc4 ac3d 86c7 e3bd
00000020: da1c 3c3d 0d2e aabd d497 1cbb f6d3 febc
00000030: c1c7 e9bd 770c eabc 5d95 353c 170c 30bd
00000040: 6050 b63d 79ae e1bd 0dd1 8d3d 15b1 eabd
00000050: 9b45 21bd b15a 19bd cd05 6dbd 51f2 153d
00000060: 8dde f93d 8a4b 7cbd 1e4f 8bbd 034e f4ba
00000070: 20af b33d 7545 063e 472b 3e3d b368 5d3d
00000080: 20f8 9f3d 872f 61bd e735 8e3d 43b2 bfbd
00000090: e962 363d 5cfe 20be 1997 0cbc 38af 9c3d
000000a0: 89eb f93d bc29 4cbd 4f61 3bbd 7471 98bc
000000b0: 516a 983d 2a94 7a3c de3d fabc e744 8dbd
000000c0: adcc 983d c360 88bd abfc 20bd 85f1 0c3c
000000d0: 6f26 b33d 7e9f 9e3d 1772 d93d 41e8 91bd
000000e0: 2421 523c 9fc0 a43a a0b8 4e39 120f 9c3d
000000f0: ec19 c9bd 0675 f5bd c9f2 1aba 7d58 0fbe
00000100: 4695 973d 310f b5bd 7dc3 88bd bf02 d1bc
00000110: bfc1 4d3d 6810 bc3d 63d0 b63c 64dd a13d
00000120: 9224 153d a164 f43d c35a 33bd 4d36 9cbd
00000130: 1d50 fcbc 5a84 52bc df8c afbd 47a3 a63c
00000140: 726c d13d 98bd 4b3d 47db adbd 3351 f83d
00000150: b8c2 b43c 6258 0fbc 7530 91bd 7926 88bd
00000160: 28c2 013d 1a0f f138 c7d0 8dbd cff8 d03d
00000170: c66b 823d 0f62 4c3d 1801 d3bd 3f50 93bd
00000180: 04e7 83bb dc4f 09be 2c4b b53d 1ef5 fe3c
00000190: 1348 b73d cbc2 953d 79c6 2c3d 26dd 4a3d
000001a0: 3c67 f3bc 7aba d63d 0fb6 33bd 6861 c4bd
000001b0: 3f9b 84bb 75e2 0dbe 48a7 7dbd 29d3 3e3d
000001c0: 9002 863d acea e43d 1aaa 043e d63a c53d
000001d0: b55a b93d 7821 b8bd fcf7 5cbd 5291 323d
000001e0: 3b4a 85bd c00a 98bb d989 ea3d bc6c 1ebd
000001f0: fa82 1dbc 4f40 2c3d 21bf ec3d 9d1e 93bd

encoder.gcs.3.weight f4 [64, 128]
-0.017361714 -0.17814974 0.013781419 0.009285677 0.13359417 -0.16346434 -0.14758155 0.15269236
-0.112522796 0.027631583 0.17335463 0.17400749 0.0008665665 -0.19120812 -0.1901389 -0.21856147
-0.026854051 -0.15398104 0.16185914 -0.19697015 -0.051077943 0.08074919 -0.07869991 0.14936003
0.032425575 0.19644856 0.017772239 0.11896051 -0.2031876 -0.10574485 0.0835202 -0.09574517
0.057912774 -0.14076822 0.030811826 0.04224182 -0.13280623 -0.01583553 0.15253484 -0.1735666
0.02170247 0.10506244 0.20991191 -0.20508595 0.08450379 0.19359082 0.13610803 -0.19849701
-0.045789808 -0.040136646 -0.04504776 0.0014009752 0.0013288467 0.10188368 -0.1831559 -0.16560695
-0.01887192 -0.21628752 0.19965725 0.14135514 -0.104655445 0.14138746 -0.10859827 0.0129068745
-0.19695634 -0.007902764 0.059145473 -0.10203732 0.10755345 -0.015560599 0.10266054 0.20014475
-0.1638449 -0.16426697 0.15360232 -0.030105764 -0.14697488 0.0139179025 -0.13553879 0.19720986
0.08720567 0.09915648 0.021330012 -0.15322544 -0.17853725 -0.05676366 0.05541455 0.20632157
-0.19375804 0.1779017 -0.061967723 0.0077430503 0.049120013 -0.0056086606 0.00041035106 0.1819868
-0.13259561 0.18839608 -0.09308667 -0.07387531 -0.067240536 -0.17370856 -0.22205772 -0.19259039
-0.009298541 -0.036454216 0.19393452 -0.13684274 -0.09419231 -0.039353065 0.05531594 -0.19255435
-0.15148178 0.0024645012 -0.13029224 -0.2189825 0.16553047 -0.15728344 0.12838143 -0.07366075
0.13742295 -0.06727687 -0.117245376 0.044412017 -0.13756663 -0.10952006 0.06222445 0.028878722
-0.02884447 -0.18182577 0.19060524 -0.072365254 0.170947 0.065381914 -0.071513586 -0.18158677
-0.052581184 -0.124020755 0.06708991 -0.0563932 -0.19521542 0.1991098 -0.1283771 0.05154651
-0.106949165 0.077340335 -0.08009308 -0.16639422 0.16177318 0.11136757 0.0065156235 -0.1716327
0.016228179 -0.07190894 0.0596075 -0.05431492 -0.0989809 0.21977413 0.16994698 -0.01842105
-0.038360946 -0.19486551 -0.117354125 -0.06679741 0.15872432 -0.028819542 0.21525496 0.21988595
-0.0056474484 0.04614722 0.18308307 0.11487514 0.12069523 0.023814391 0.06592525 0.18774885
0.17672096 0.14030111 -0.17345083 0.14739892 -0.13213697 -0.1518218 0.06466978 0.07422183
0.15098235 0.13261274 0.15579428 0.08212267 0.14870122 -0.1075615 -0.16079223 0.038341634
-0.057419553 0.05531929 0.009204008 0.14094657 -0.13852412 0.02138094 -0.095287286 -0.1531299
0.08840918 0.1986451 -0.031806465 -0.12787305 0.17217751 0.14394422 -0.115095 -0.09719479
0.08614605 -0.18082759 0.08506732 0.058605097 -0.022956887 -0.11372866 -0.081903875 -0.0072487355
0.15877657 -0.016911563 -0.15958275 -0.1141486 0.022262957 0.05866514 -0.023145163 0.046928752
0.15153928 -0.06852085 -0.14794596 0.16879804 0.030442419 -0.17117298 0.04238551 0.026184525
-0.17086366 0.04011263 0.10600605 -0.1848115 0.07376379 -0.1122056 -0.012739895 0.21572301
-0.12885256 0.066556975 -0.16299218 -0.13962188 0.12873733 0.072622806 -0.17780563 0.08487425
-0.15395391 0.20501609 0.21746527 0.14794752 -0.005682981 -0.19323805 0.113200046 -0.12688138
00000000: 273a 8ebc e36c 36be 76cb 613c f422 183c
00000010: e9cc 083e 3263 27be 9e1f 17be 635b 1c3e
00000020: 5a72 e6bd a15b e23c e083 313e 052f 323e
00000030: 4b2a 633a 10cc 43be c6b3 42be 94ce 5fbe
00000040: 07fd dbbc 35ad 1dbe 67be 253e 8bb2 49be
00000050: 1b37 51bd d55f a53d 6b2d a1bd d6f1 183e
00000060: aed0 043d d029 493e 1697 913c 91a1 f33d
00000070: 6910 50be c290 d8bd a30c ab3d 0b16 c4bd
00000080: f235 6d3d 8b25 10be 1569 fc3c c205 2d3d
00000090: 5bfe 07be 83b9 81bc 1832 1c3e 71bb 31be
000000a0: 61c9 b13c fa2a d73d 26f3 563e 0d02 52be
000000b0: 5310 ad3d ac3c 463e e75f 0b3e cd42 4bbe
000000c0: 188e 3bbd 5366 24bd 0084 38bd eda0 b73a
000000d0: b22c ae3a 64a8 d03d 388d 3bbe de94 29be
000000e0: 4999 9abc 7a7a 5dbe f372 4c3e 67bf 103e
000000f0: 9855 d6bd e0c7 103e c568 debd 5b77 533c
00000100: ecae 49be 987a 01bc 8642 723d f1f8 d0bd
00000110: fc44 dc3d e2f1 7ebc b03f d23d bff2 4c3e
00000120: f5c6 27be 9a35 28be ed49 1d3e 5da0 f6bc
00000130: 9580 16be ea07 643c aeca 0abe 62f1 493e
00000140: e398 b23d 8d12 cb3d 47bc ae3c 21e7 1cbe
00000150: 78d2 36be 0381 68bd 5efa 623d f645 533e
00000160: 8268 46be dd2b 363e ded1 7dbd 6ab9 fd3b
00000170: 1132 493d dbc8 b7bb 6324 d739 bf5a 3a3e
00000180: 25c7 07be e7ea 403e 39a4 bebd f04b 97bd
00000190: 68b5 89bd a8e0 31be 1963 63be 6a36 45be
000001a0: e858 18bc 0451 15bd c596 463e 8120 0cbe
000001b0: e6e7 c0bd ae30 21bd f892 623d f82c 45be
000001c0: 0a1e 1bbe 7883 213b 546b 05be f33c 60be
000001d0: d280 293e e90e 21be 6c76 033e 73db 96bd
000001e0: 9ab8 0c3e 75c8 89bd 581e f0bd 60e9 353d
000001f0: 44de 0cbe 0e4c e0bd 11df 7e3d 1293 ec3c
00000200: 3d4b ecbc 8930 3abe 052e 433e 3c34 94bd
00000210: bb0c 2f3e f4e6 853d b775 92bd e2f1 39be
00000220: 5e5f 57bd 98fe fdbd 6f66 893d 8efc 66bd
00000230: 8de6 47be 70e3 4b3e 4975 03be 6f22 533d
00000240: 2a08 dbbd 9c64 9e3d d707 a4bd 3f63 2abe
00000250: dea7 253e ae14 e43d 0381 d53b 7cc0 2fbe
00000260: f5f0 843c ff44 93bd fe26 743d 5279 5ebd
00000270: 80b6 cabd 780c 613e 9506 2e3e bee7 96bc
00000280: 5e20 1dbd d38a 47be 5c57 f0bd 15cd 88bd
00000290: a188 223e f616 ecbc cc6b 5c3e c829 613e
000002a0: 3b0e b9bb de04 3d3d 217a 3b3e a843 eb3d
000002b0: 102f f73d 6616 c33c d103 873d 3c41 403e
000002c0: 57f6 343e 18ab 0f3e 189d 31be beef 163e
000002d0: ea4e 07be 2d77 1bbe 9771 843d 9d01 983d
000002e0: 1e9b 1a3e a2cb 073e 8988 1f3e ee2f a83d
000002f0: 2245 183e 3449 dcbd b8a6 24be 1e0c 1d3d
00000300: c430 6bbd 7b96 623d 68cc 163c 4c54 103e
00000310: 44d9 0dbe 1527 af3c fb25 c3bd 16ce 1cbe
00000320: df0f b53d 9f69 4b3e 7f47 02bd 27f1 02be
00000330: 4d4f 303e 1d66 133e edb6 ebbd 100e c7bd
00000340: 576d b03d de2a 39be c637 ae3d e60b 703d
00000350: 1510 bcbc 92ea e8bd 38bd a7bd cd86 edbb
00000360: 5396 223e 1e8a 8abc a969 23be bec6 e9bd
00000370: ce60 b63c dc4a 703d ed9a bdbc 5d38 403d
00000380: 1d2d 1b3e a954 8cbd 257f 17be 65d9 2c3e
00000390: 6162 f93c f847 2fbe 6e9c 2d3d ee80 d63c
000003a0: e2f6 2ebe 244d 243d b319 d93d 3a3f 3dbe
000003b0: 7811 973d 0dcc e5bd feba 50bc 7ee6 5c3e
000003c0: edf1 03be 064f 883d 6ce7 26be 0af9 0ebe
000003d0: b8d3 033e 44bb 943d ae12 36be 8dd2 ad3d
000003e0: 18a6 1dbe bdef 513e 37af 5e3e 8e7f 173e
000003f0: 4d38 babb 32e0 45be 6dd5 e73d 31ed 01be

encoder.gcs.3.bias f4 [64]
-0.0328909 -0.07414582 0.03902142 0.010660898 0.045295134 0.04841285 0.057221815 -0.05363562
-0.07830479 -0.0076457975 -0.017552631 0.04414054 -0.02511694 -0.030976688 0.0419212 -0.0050998074
0.013557875 -0.08414414 -0.0815694 -0.0625124 0.014402608 0.06370202 0.06593288 -0.10578334
0.014200771 0.018913196 0.007034521 0.052163664 0.024297839 0.020010486 0.01647163 -0.004618172
0.0033155705 0.0814971 -0.034430172 0.03413303 -0.02557218 -0.007719561 0.09272283 -0.004977352
0.03508435 0.04845024 0.019343693 -0.047501788 -0.054190777 0.03774751 0.041533377 -0.065953046
-0.032407474 -0.052228197 -0.068819985 0.056101386 -0.02981444 -0.0933317 -0.043497827 -0.103149004
-0.008966763 -0.06694281 0.049632598 -0.040558558 -0.012682785 0.005175571 0.06569359 -0.024155
00000000: 9cb8 06bd c4d9 97bd edd4 1f3d 0cab 2e3c
00000010: 6487 393d 8d4c 463d 6c61 6a3d 06b1 5bbd
00000020: 435e a0bd 9989 fabb 89ca 8fbc b6cc 343d
00000030: 0ac2 cdbc d3c2 fdbc 90b5 2b3d 491c a7bb
00000040: d921 5e3c c353 acbd dc0d a7bd 8006 80bd
00000050: ebf8 6b3c 3476 823d d107 873d f0a4 d8bd
00000060: 5aaa 683c d9ef 9a3c d781 e63b 91a9 553d
00000070: 430c c73c 08ed a33c 83ef 863c 0954 97bb
00000080: 0b4a 593b f4e7 a63d a706 0dbd 13cf 0b3d
00000090: c07c d1bc 5ff4 fcbb 78e5 bd3d 0e19 a3bb
000000a0: 9bb4 0f3d c273 463d aa76 9e3c 3c91 42bd
000000b0: 26f7 5dbd 229d 1a3d e71e 2a3d 6412 87bd
000000c0: b3bd 04bd 3ced 55bd 7ef1 8cbd 91ca 653d
000000d0: 6a3d f4bc b124 bfbd c72a 32bd c93f d3bd
000000e0: 54e9 12bc 5019 89bd 8d4b 4b3d bb20 26bd
000000f0: 75cb 4fbc d697 a93b 5c8a 863d b5e0 c5bc

encoder.gcs.4.weight f4 [32, 64]
-0.23366918 0.18663582 0.025986332 -0.2625775 -0.283095 -0.14195126 -0.16529429 0.15550002
0.16315491 -0.16921991 -0.06916918 -0.097253285 0.10683324 -0.25620407 0.27395812 -0.18245038
-0.1428874 -0.1879024 -0.12259008 0.21840818 -0.31426057 0.049836107 -0.21216807 0.060764793
-0.24255602 0.244633 0.030190941 -0.21578453 -0.32739553 -0.31646273 -0.050663225 0.22514471
-0.30640975 -0.11849252 0.1385179 -0.06433996 0.25211 0.12564331 -0.24929276 -0.2729448
0.15943027 0.09146946 0.18600301 0.10047897 0.08718298 -0.046923388 0.27124542 0.05730823
-0.14381906 0.25456998 0.007889056 -0.0155226365 -0.25537395 0.062339872 0.018975979 -0.06143105
-0.17111175 -0.11812397 0.22436535 -0.20507999 -0.079642385 0.2253702 0.09132489 -0.042077895
0.010156265 -0.25062385 -0.12368314 0.012716637 0.23544544 0.26926464 -0.23361382 -0.14145352
0.046336982 -0.052028857 0.0010926586 -0.25733176 -0.17722134 0.12459057 0.23020084 0.18244196
-0.19553089 0.13506694 0.27057981 -0.06904227 0.08440731 -0.05793988 0.04412015 0.22469693
-0.23032674 0.17136683 0.16374186 -0.039580103 -0.3191035 -0.07440681 -0.20837593 -0.31288937
0.28224155 -0.23674631 -0.17131872 -0.18110569 -0.2755221 -0.045747682 -0.21226177 -0.31965363
0.056479756 -0.14895461 -0.025011644 -0.2016802 -0.20479214 0.22754078 0.21680596 0.23753802
-0.24303341 -0.19815992 0.13893229 -0.3215085 0.13603416 -0.29530382 -0.17042626 0.0027196885
-0.19287384 0.22880878 -0.308033 -0.20131408 0.042433575 0.12581775 -0.22691831 -0.29229534
0.14431116 -0.17439173 -0.048918813 -0.008678013 -0.12824775 -0.067543745 -0.06030448 -0.009132357
0.10027415 -0.1888848 0.019419188 -0.19817992 -0.10190785 -0.29049838 0.25465378 0.06795242
-0.012622773 -0.0030625549 0.10493939 -0.085411854 0.17046125 0.03720697 -0.06790477 -0.099447645
-0.14156954 -0.2912639 0.04875542 0.12675157 0.025205327 -0.24854685 -0.05980348 -0.19851512
0.24616972 0.089267746 -0.2979215 -0.30489507 -0.032702323 0.018969279 -0.32676876 -0.24834134
-0.116436444 -0.039269898 0.17799617 -0.022855474 -0.02554348 0.23468995 -0.032361507 -0.087385565
-0.16879718 -0.079509616 0.24286613 -0.28094888 0.20578133 -0.19482292 0.04586095 -0.18466026
-0.3044388 -0.10178647 0.061913967 0.18326405 -0.14593628 -0.036791768 -0.3017838 0.006441231
-0.043300323 0.09056951 -0.20803775 0.08669842 -0.13223334 -0.26371548 0.13231008 0.047886148
0.08075588 -0.2786583 0.21967262 -0.25537583 -0.15953657 0.04404555 0.22554015 -0.30386463
-0.19142407 0.21798098 -0.16641778 -0.21456942 -0.023534227 0.04762076 -0.1479548 0.10908054
0.27703908 -0.20560354 0.022245642 -0.27220964 0.021887071 -0.14591278 -0.017489135 0.2010993
-0.08754778 -0.10091407 -0.022038134 0.040481582 0.24592139 -0.26345226 0.11176727 0.022510232
0.14972247 -0.14142054 0.10240239 -0.16029319 -0.15907745 0.15194464 -0.306145 -0.21104202
0.26706862 -0.089970835 0.0050762207 0.14168966 0.18496722 0.26771477 0.212974 -0.011381265
-0.10897052 0.01496928 -0.14256094 0.1134617 0.24620485 -0.2459715 -0.26032215 0.0995728
00000000: f946 6fbe 761d 3f3e 4ae1 d43c 8f70 86be
00000010: d4f1 90be ac5b 11be e842 29be 663b 1f3e
00000020: 1512 273e fc47 2dbe 92a8 8dbd bb2c c7bd
00000030: 63cb da3d 2e2d 83be 3d44 8c3e 46d4 3abe
00000040: 1351 12be 7d69 40be 8210 fbbd 65a6 5f3e
00000050: c3e6 a0be f220 4c3d 9642 59be 81e4 783d
00000060: 9b60 78be 1381 7a3e fe52 f73c 9ff6 5cbe
00000070: 63a0 a7be 6707 a2be 3e84 4fbd 568c 663e
00000080: bde1 9cbe 35ac f2bd a3d7 0d3e abc4 83bd
00000090: 9014 813e a4a8 003e 9a46 7fbe 6cbf 8bbe
000000a0: b041 233e 5754 bb3d 9377 3e3e ebc7 cd3d
000000b0: fd8c b23d bd32 40bd aee0 8a3e 09bc 6a3d
000000c0: 4e45 13be ff56 823e 1941 013c a852 7ebc
000000d0: 60c0 82be 1858 7f3d 8373 9b3c 209f 7bbd
000000e0: eb37 2fbe fbea f1bd 08c0 653e 7d00 52be
000000f0: 8c1b a3bd 72c7 663e 8b08 bb3d df59 2cbd
00000100: 7766 263c c551 80be 964d fdbd 7159 503c
00000110: 9c18 713e 0edd 893e 7638 6fbe 31d9 10be
00000120: d9cb 3d3d 361c 55bd 8a37 8f3a fdc0 83be
00000130: 8379 35be 5729 ff3d c5b9 6b3e 11d2 3a3e
00000140: 4039 48be fd4e 0a3e 7089 8a3e 0966 8dbd
00000150: bddd ac3d 5e52 6dbd 55b7 343d f416 663e
00000160: c6da 6bbe c97a 2f3e f2ab 273e bf1e 22bd
00000170: 8961 a3be 9962 98bd 8060 55be 0933 a0be
00000180: f781 903e a06d 72be 2d6e 2fbe c573 39be
00000190: 3c11 8dbe ec61 3bbd 265b 59be a4a9 a3be
000001a0: 5157 673d 8f87 18be 38e5 ccbc 4185 4ebe
000001b0: 08b5 51be 7300 693e 6202 5e3e 2b3d 733e
000001c0: c0dd 78be 6fea 4abe 4444 0e3e c39c a4be
000001d0: 8a4c 0b3e 1032 97be 3984 2ebe cd3c 323b
000001e0: b880 45be d94c 6a3e 80b6 9dbe 4725 4ebe
000001f0: d4ce 2d3d 5ed6 003e 465d 68be bca7 95be
00000200: 4ec6 133e bf93 32be 185f 48bd 3a2e 0ebc
00000210: 6153 03be 6054 8abd d501 77bd e29f 15bc
00000220: 895c cd3d 046b 41be fd14 9f3c adef 4abe
00000230: 10b5 d0bd 34bc 94be fb61 823e a32a 8b3d
00000240: bfcf 4ebc 25b5 48bb 77ea d63d 69ec aebd
00000250: 658d 2e3e 5666 183d a811 8bbd 35ab cbbd
00000260: 9bf7 10be 8b20 95be c3b3 473d 2acb 013e
00000270: 677b ce3c 1183 7ebe 7ef4 74bd 8c47 4bbe
00000280: ea13 7c3e 02d2 b63d 2b89 98be 351b 9cbe
00000290: dff2 05bd 7665 9b3c 3c4e a7be 314d 7ebe
000002a0: 3b76 eebd 79d9 20bd a144 363e 673b bbbc
000002b0: 8f40 d1bc 9052 703e 808d 04bd 34f7 b2bd
000002c0: 2bd9 2cbe f0d5 a2bd e6b1 783e 88d8 8fbe
000002d0: 57b8 523e a97f 47be b1d8 3b3d 9417 3dbe
000002e0: 67df 9bbe 6d75 d0bd 8099 7d3d 92a9 3b3e
000002f0: 5270 15be f7b2 16bd 6883 9abe f610 d33b
00000300: ae5b 31bd 827c b93d d907 55be f18e b13d
00000310: 2d68 07be b705 87be 4b7c 073e 4424 443d
00000320: 5763 a53d 4dac 8ebe dcf1 603e 9fc0 82be
00000330: 8e5d 23be 1b69 343d fff3 663e 2594 9bbe
00000340: ac04 44be 6836 5f3e 6c69 2abe 16b8 5bbe
00000350: daca c0bc fc0d 433d 7781 17be 9e65 df3d
00000360: 11d8 8d3e bc89 52be 7e3c b63c 105f 8bbe
00000370: 844c b33c 296a 15be 6045 8fbc faec 4d3e
00000380: 404c b3bd 09ac cebd 5189 b4bc 04d0 253d
00000390: d1d2 7b3e 37e3 86be 3de6 e43d 6167 b83c
000003a0: d950 193e 8cd0 10be 58b8 d13d e623 24be
000003b0: 33e5 22be 6097 1b3e 0abf 9cbe 661b 58be
000003c0: 38bd 883e a142 b8bd 6d56 a63b 1817 113e
000003d0: 0c68 3d3e e911 893e db15 5a3e 7c78 3abc
000003e0: f02b dfbd b641 753c 7ffb 11be 9c5e e83d
000003f0: 201d 7c3e f4df 7bbe f248 85be d3ec cb3d

encoder.gcs.4.bias f4 [32]
0.0007305098 0.12862834 0.00012766094 -4.238089e-06 -0.19309656 0.15310617 -0.17021488 -0.16044863
-0.010444059 0.00020674201 -0.06314784 0.00073311623 0.0010818732 0.16784883 0.00076055364 0.17596856
-0.052106664 -0.09267823 -0.00010159007 0.26781535 0.068682075 -0.14707422 -0.20759943 -1.4746817e-05
-0.22239201 0.0004958293 -0.0006211957 -0.116544224 -0.00080359494 -0.0352858 -0.16379894 -0.088907406
00000000: af7f 3f3a 26b7 033e b9dc 0539 e834 8eb6
00000010: 1bbb 45be ddc7 1c3e cf4c 2ebe a54c 24be
00000020: 8f1d 2bbc e3c8 5839 a853 81bd 992e 403a
00000030: a4cd 8d3a 90e0 2b3e e45f 473a 1a31 343e
00000040: cc6d 55bd 15ce bdbd c10c d5b8 181f 893e
00000050: 30a9 8c3d a09a 16be f294 54be 1969 77b7
00000060: bbba 63be 8bfa 013a bdd7 22ba bdae eebd
00000070: 58a8 52ba d887 10bd e9ba 27be 1615 b6bd

encoder.gcs.5.weight f4 [16, 32]
0.25830886 -0.0675569 0.26065546 -0.11337725 -0.09609806 0.067463115 -0.1982721 0.3503573
0.24210304 -0.20655878 -0.055738445 -0.14552967 -0.15385719 -0.040312894 -0.34581703 0.3408445
-0.13385673 0.32854825 0.30781925 0.1350228 0.18794067 0.27408472 0.2508949 0.20811716
0.30716503 -0.06359183 0.07099397 0.3527455 0.34281972 -0.3851345 0.35654587 0.07107908
0.21953805 -0.20339034 0.11966131 0.38600639 -0.13732414 0.019698584 -0.28665304 -0.41514668
-0.16462214 -0.33367255 -0.12081412 -0.09610864 0.062886454 -0.3951197 0.05901368 -0.20905584
0.08400209 -0.21716666 -0.41583374 0.0087556895 0.12875314 -0.23119937 0.39226234 -0.36891514
-0.20964321 -0.07593773 0.25811636 -0.42845425 0.18032205 0.31190372 0.14200465 0.15347597
0.24107535 0.20690715 0.38469678 0.42919588 -0.41987908 -0.24256994 -0.23459943 -0.34405497
-0.34630907 -0.057061445 0.35363278 -0.103360094 0.10318464 -0.43034682 -0.037072707 -0.42534646
0.3231919 0.22507255 -0.39466628 0.0379316 -0.13340372 -0.1457488 0.059949536 0.09477614
-0.3728358 -0.12162072 -0.07275408 0.09166464 0.11853054 -0.33105287 0.017340725 0.22417308
0.32009944 -0.16887252 -0.29382733 -0.36328536 -0.19909304 -0.41036907 0.1419201 -0.14919314
-0.33424908 -0.10110893 0.41466123 0.060201798 -0.32990998 -0.33053446 0.13575394 -0.069948934
-0.23312002 0.27730238 0.3206768 -0.17844817 0.08727041 -0.20421408 -0.018453274 -0.02083622
0.08690701 0.24985112 -0.34894928 -0.2810166 0.41858163 0.13265963 0.25111234 -0.42617166
0.20200375 -0.20738019 0.1574646 0.12374733 -0.3859632 0.24947363 0.19919324 -0.25748864
0.13809136 -0.27831453 0.053620048 0.21790347 -0.3707986 0.3409656 -0.20150077 -0.30961755
0.24671991 0.20390978 -0.3399574 0.07451243 -0.15839058 0.27957284 -0.32926634 0.086725675
-0.028451744 0.021573598 0.15031631 -0.10426085 -0.26989076 -0.42681572 -0.19143215 -0.22412765
-0.41144994 -0.34746838 -0.17639023 0.21610975 -0.06889064 0.06622942 0.19715485 -0.4023498
-0.31786296 0.3676693 -0.36411017 -0.31084836 0.13849269 0.30501556 -0.062162653 -0.12072508
0.16189417 0.42125338 0.23504588 0.11048673 0.29054797 0.38855717 -0.31106144 0.41908503
-0.13732749 -0.2989951 -0.35774818 0.24503677 -0.21047832 0.3581427 0.35564816 0.2756956
0.37409204 0.22868237 -0.086335845 0.05297703 0.14665642 -0.10662036 -0.081191994 -0.34850907
0.02197344 0.05185865 0.11985065 0.2676113 -0.10779769 -0.09030742 -0.056406036 -0.3513621
0.40925923 0.055529803 0.3397935 -0.37656352 -0.0516611 0.18771954 -0.14370953 0.30702055
0.28237298 -0.0575462 0.42740855 -0.27315995 -0.4086196 -0.28408638 -0.2592105 0.324001
0.02964554 -0.40546015 -0.40319422 0.39708734 -0.07094885 -0.42120054 0.2524867 -0.21226925
-0.018982833 0.37892812 0.21593203 -0.35261378 -0.25020677 0.054658677 -0.42581204 -0.38505918
0.38839796 0.16159442 0.3823148 0.05549016 0.0119897835 -0.051061753 -0.1686568 -0.11515212
-0.30223382 -0.25131276 -0.07001996 -0.29925606 -0.2861139 -0.13948528 0.03877547 -0.11677942
00000000: 0f41 843e 465b 8abd a274 853e 5532 e8bd
00000010: 0fcf c4bd 1a2a 8a3d d707 4bbe 0862 b33e
00000020: dce9 773e 2584 53be ff4d 64bd bb05 15be
00000030: bd8c 1dbe 221f 25bd ee0e b1be 2c83 ae3e
00000040: bd11 09be 7a37 a83e 7c9a 9d3e 6b43 0a3e
00000050: 8573 403e d554 8c3e 4c75 803e aa1c 553e
00000060: bc44 9d3e 6f3c 82bd 4965 913d 0f9b b43e
00000070: 1186 af3e 5930 c5be 2e8d b63e e991 913d
00000080: 95ce 603e 8f45 50be fd10 f53d a1a2 c53e
00000090: b39e 0cbe ed5e a13c 30c4 92be 1b8e d4be
000000a0: b592 28be 21d7 aabe 656d f7bd 9bd4 c4bd
000000b0: 9dca 803d 214d cabe 54b8 713d bc12 56be
000000c0: 4a09 ac3d f060 5ebe 29e8 d4be 0674 0f3c
000000d0: ddd7 033e 87bf 6cbe 9cd6 c83e 72e2 bcbe
000000e0: b6ac 56be 3e85 9bbd d427 843e 5b5e dbbe
000000f0: 58a6 383e d8b1 9f3e ab69 113e ce28 1d3e
00000100: 75dc 763e 78df 533e faf6 c43e 90bf db3e
00000110: 64fa d6be 4164 78be d53a 70be f927 b0be
00000120: 6c4f b1be 43b9 69bd 5b0f b53e 75ae d3bd
00000130: 7852 d33d 6b56 dcbe 8dd9 17bd 03c7 d9be
00000140: 6979 a53e 6b79 663e b311 cabe 2a5e 1b3d
00000150: fc9a 08be 2c3f 15be a58d 753d fe19 c23d
00000160: 55e4 bebe 4914 f9bd 1700 95bd acba bb3d
00000170: 24c0 f23d c37f a9be 230e 8e3c a18d 653e
00000180: 13e4 a33e ebec 2cbe 8970 96be 8a00 babe
00000190: 0cdf 4bbe e51b d2be 8153 113e 16c6 18be
000001a0: b222 abbe 3312 cfbd 7a4e d43e 2996 763d
000001b0: f6e9 a8be d03b a9be 1503 0b3e 6341 8fbd
000001c0: 04b7 6ebe 94fa 8d3e c02f a43e 1ebb 36be
000001d0: d4ba b23d 7f1d 51be 522b 97bc b8b0 aabc
000001e0: 4dfc b13d f9d8 7f3e 7ba9 b2be 68e1 8fbe
000001f0: 5550 d63e edd7 073e cc91 803e 2c33 dabe
00000200: 12da 4e3e 795b 54be 663e 213e 3d6f fd3d
00000210: f89c c5be 0476 7f3e 50f9 4b3e 8dd5 83be
00000220: d267 0d3e 3e7f 8ebe b2a0 5b3d 1622 5f3e
00000230: 50d9 bdbe 0b93 ae3e 3856 4ebe 3186 9ebe
00000240: 25a4 7c3e bacd 503e e50e aebe f999 983d
00000250: 2431 22be 2c24 8f3e 9995 a8be 3b9d b13d
00000260: a213 e9bc 1dbb b03c 85ec 193e b686 d5bd
00000270: 1f2f 8abe 9787 dabe ca06 44be b881 65be
00000280: 91a9 d2be 60e7 b1be a49f 34be e04b 5d3e
00000290: 8916 8dbd 4aa3 873d f6e2 493e cb00 cebe
000002a0: efbe a2be 273f bc3e a66c babe 8427 9fbe
000002b0: 07d1 0d3e 002b 9c3e 449e 7ebd b63e f7bd
000002c0: 96c7 253e 86ae d73e deaf 703e de46 e23d
000002d0: b4c2 943e f7f0 c63e 7243 9fbe 5092 d63e
000002e0: 949f 0cbe e315 99be c52a b7be ebea 7a3e
000002f0: a187 57be 7b5e b73e 8417 b63e f927 8d3e
00000300: fe88 bf3e b62b 6a3e d9d0 b0bd 71fe 583d
00000310: 1a2d 163e c65b dabd fd47 a6bd c86f b2be
00000320: a501 b43c bc69 543d 4274 f53d 5904 893e
00000330: 09c5 dcbd 19f3 b8bd 040a 67bd bce5 b3be
00000340: 6d8a d13e 3873 633d 6af9 ad3e efcc c0be
00000350: 979a 53bd 8d39 403e 9728 13be cc31 9d3e
00000360: 3193 903e 90b5 6bbd 4bd5 da3e 9fdb 8bbe
00000370: 9736 d1be c573 91be 3db7 84be 76e3 a53e
00000380: 34db f23c 7998 cfbe 796f cebe 084f cb3e
00000390: a14d 91bd 99a7 d7be f045 813e 1c5d 59be
000003a0: e381 9bbc de02 c23e 491d 5d3e cb89 b4be
000003b0: 1a1b 80be c7e1 5f3d 0904 dabe 7a26 c5be
000003c0: 19dc c63e 0279 253e c4be c33e a649 633d
000003d0: cc70 443c 2126 51bd 5eb4 2cbe e0d4 ebbd
000003e0: 64be 9abe 11ac 80be a066 8fbd 1738 99be
000003f0: 857d 92be 3bd5 0ebe 07d3 1e3d 0c2a efbd

encoder.gcs.5.bias f4 [16]
0.17240442 -0.13462171 -0.10003984 -0.0355519 -0.06262408 -0.120524324 -0.058469374 -0.17278756
0.1545059 0.15608953 -0.132098 0.03335784 -0.14105485 0.07765044 -0.06172195 0.16812009
00000000: c98a 303e 46da 09be b0e1 ccbd de9e 11bd
00000010: 0e41 80bd 75d5 f6bd 957d 6fbd 39ef 30be
00000020: cb36 1e3e efd5 1f3e b344 07be 3ba2 083d
00000030: af70 10be 3207 9f3d 28d0 7cbd ac27 2c3e
