pretrained/model-circuits_4_qubits-6.pt (torch, 290044 bytes, 50 tensors)

encoder.gcs.0.weight f4 [32, 8]
0.539984 0.17386772 0.15780948 0.18237697 0.004483941 0.38033745 -0.55996335 0.20041718
0.26244724 -1.427737 0.3102747 0.28057042 0.04638202 -0.6093217 0.17093512 0.07490281
0.48744044 -0.27277258 1.0632478 0.5639772 -0.23927829 -0.03352787 -0.28347158 -0.16961202
-0.6086564 0.24800819 0.6438961 0.79068714 -0.24098721 0.4646969 0.41349313 0.62730604
0.89674085 -1.1258249 -1.5323966 -2.5124032 1.0265789 -0.16123906 0.08107741 0.052371927
1.0521235 -0.590649 0.7345863 -0.15058291 -0.31336543 0.43163913 0.19975235 0.50896084
0.25088966 0.16611077 -1.412751 -1.8343179 0.77637243 0.7733195 0.88930875 0.97557706
-0.19762275 -0.5570606 0.5889306 0.22637723 -0.22018129 0.44621974 0.46864036 0.61338174
-2.3507144 -0.13222843 -0.82847404 0.59324163 0.04332803 0.4073461 0.37300396 0.36483264
0.9303387 -0.36104268 0.2346869 -1.080166 0.51034063 -0.16090266 -0.2455221 0.5669417
-1.1069748 -0.3175432 -0.3704182 -0.55572635 0.6951971 -0.13777672 -0.524621 0.2865246
0.63617074 0.89841795 0.43772614 -2.8412366 0.122653686 0.44355708 -0.08350173 0.34587616
0.13242047 0.3992232 -0.4405951 -0.44541273 0.7804891 0.43359524 0.4266545 0.38100508
-0.6573525 -0.9078382 1.1856376 -0.35192215 0.8560006 0.574367 0.6882286 0.73553723
0.90248156 -0.32010087 -0.30128217 0.9632662 0.40312195 0.098272696 -0.21678734 -0.1504191
-0.9575867 0.19006419 1.0203122 -1.2569392 0.46517184 -0.4324704 -0.3275405 0.2593293
0.48795304 0.87476873 -1.131372 0.33743712 0.8108717 0.53967226 0.8100675 0.8374862
0.46821123 0.49838892 -0.41420698 -1.6848363 -0.3130499 -0.34024784 -0.2701477 0.018453058
0.41871804 0.018719638 0.23617825 0.022325125 0.5499094 0.6392703 -0.05934688 0.91993994
-0.32507074 -0.38470864 -0.14144163 -0.47162768 -0.2559613 0.6423545 0.6514115 0.008926351
-2.0376563 0.444382 0.46624616 0.7304958 -0.2709786 0.38504362 -0.1172658 -0.21449515
-0.88915145 -0.5096761 -0.93885475 0.61561316 0.76018393 0.7575312 0.7006826 0.75839365
0.9280834 -2.0700002 -4.301545 0.8746631 0.22170697 0.026795676 0.17773153 0.5818683
-2.0681095 1.2926909 -2.3296158 -2.5350199 0.085257 0.10765192 0.19980937 0.15563987
-1.0550083 0.38368803 0.6491744 -1.7859074 0.8641204 0.7588145 0.63640875 0.16063423
0.5480108 -2.6117542 0.7725689 -1.7361714 0.47591412 0.4008972 0.59271 0.35391974
0.27980855 0.5084458 0.086468935 0.46309558 -0.8275899 0.5155643 0.56913507 0.5047161
0.87439704 -4.4275293 -1.0674815 0.9196013 -0.79938406 0.61236554 0.059136074 0.17500693
0.33291447 -1.0045835 0.07107672 1.0571377 0.79385126 0.5122137 0.46373594 -0.10343804
1.3046645 0.07032314 -0.39945287 0.01413798 -0.10128347 0.78229266 0.7640299 -0.02404036
-0.83869946 -1.6029928 0.7890672 -1.131135 -1.128893 0.14465864 -0.034343004 -0.105912246
0.12562104 0.78916246 0.87855947 -0.23721457 -0.016338842 0.24333365 0.2607316 -0.375245
00000000: 643c 0a3f 610a 323e cf98 213e 07c1 3a3e
00000010: 06ee 923b 97bb c23e c259 0fbf 293a 4d3e
00000020: 7c5f 863e 16c0 b6bf 53dc 9e3e eda6 8f3e
00000030: 13fb 3d3d 82fc 1bbf 9e09 2f3e a566 993d
00000040: cb91 f93e d9a8 8bbe 8118 883f cf60 103f
00000050: 5e05 75be 8554 09bd 3023 91be c6ae 2dbe
00000060: e8d0 1bbf dcf5 7d3e 60d6 243f 796a 4a3f
00000070: 5ac5 76be c1ec ed3e 5fb5 d33e 2197 203f
00000080: cf90 653f 081b 90bf 9225 c4bf 37cb 20c0
00000090: f066 833f da1b 25be ea0b a63d f283 563d
000000a0: fcab 863f c634 17bf d90d 3c3f 6832 1abe
000000b0: 6f71 a0be ceff dc3e e18b 4c3e 424b 023f
000000c0: 9c74 803e f118 2a3e 06d5 b4bf eeca eabf
000000d0: 58c0 463f 44f8 453f bda9 633f 6bbf 793f
000000e0: 9e5d 4abe 869b 0ebf 28c4 163f 6fcf 673e
000000f0: 3477 61be ea76 e43e a1f1 ef3e 9606 1d3f
00000100: 1b72 16c0 e466 07be e016 54bf afde 173f
00000110: bb78 313d ab8f d03e 60fa be3e 58cb ba3e
00000120: ad2a 6e3f 96da b8be c351 703e e142 8abf
00000130: afa5 023f abc3 24be 256a 7bbe 1723 113f
00000140: 5ab1 8dbf 0695 a2be 74a7 bdbe 1544 0ebf
00000150: 70f8 313f 5715 0dbe 904d 06bf 5ab3 923e
00000160: 16dc 223f b8fe 653f a41d e03e d2d6 35c0
00000170: db31 fb3d ea19 e33e f402 abbd ae16 b13e
00000180: 3b99 073e fc66 cc3e ae95 e1be 230d e4be
00000190: 22ce 473f 3200 de3e 7572 da3e 1913 c33e
000001a0: 4148 28bf 1668 68bf f9c2 973f 242f b4be
000001b0: db22 5b3f b709 133f c02f 303f 2b4c 3c3f
000001c0: 0809 673f 43e4 a3be a841 9abe 9d98 763f
000001d0: 0066 ce3e 3243 c93d 80fd 5dbe 7707 1abe
000001e0: 6724 75bf 30a0 423e 9799 823f 62e3 a0bf
000001f0: 012b ee3e c36c ddbe 63b3 a7be cfc6 843e
00000200: fbd4 f93e d8f0 5f3f ccd0 90bf 8fc4 ac3e
00000210: 4a95 4f3f f627 0a3f 9560 4f3f 7f65 563f
00000220: 62b9 ef3e d52c ff3e f012 d4be b7a8 d7bf
00000230: 1448 a0be f734 aebe cd50 8abe de2a 973c
00000240: 3662 d63e ed59 993c b6d8 713e 2ee3 b63c
00000250: ddc6 0c3f 38a7 233f b715 73bd 2f81 6b3f
00000260: ac6f a6be 88f8 c4be 13d6 10be 2f79 f1be
00000270: 5c0d 83be 5871 243f e7c2 263f d43f 123c
00000280: f668 02c0 0a86 e33e d1b7 ee3e c601 3b3f
00000290: b5bd 8abe 7024 c53e 0d29 f0bd 9ea4 5bbe
000002a0: 6e9f 63bf 227a 02bf c958 70bf d398 1d3f
000002b0: 6a9b 423f 91ed 413f ef5f 333f 1626 423f
000002c0: e096 6d3f e27a 04c0 42a6 89c0 ece9 5f3f
000002d0: 2707 633e 9b82 db3c 41ff 353e 52f5 143f
000002e0: e85b 04c0 e576 a53f 6d18 15c0 c43d 22c0
000002f0: 399b ae3d 9c78 dc3d d49a 4c3e 0f60 1f3e
00000300: 830a 87bf c272 c43e 4b30 263f 9d98 e4bf
00000310: ff36 5d3f ab41 423f afeb 223f 4d7d 243e
00000320: 704a 0c3f fb26 27c0 13c7 453f dd3a debf
00000330: 04ab f33e 6642 cd3e d8bb 173f f834 b53e
00000340: 1143 8f3e 8129 023f a016 b13d dd1a ed3e
00000350: efdc 53bf 06fc 033f d6b2 113f 1335 013f
00000360: 7cd8 5f3f 52ae 8dc0 3ca3 88bf fe6a 6b3f
00000370: 6fa4 4cbf fdc3 1c3f ab38 723d 0435 333e
00000380: c473 aa3e 3196 80bf ac90 913d 4a50 873f
00000390: d639 4b3f 7020 033f cc6e ed3e 53d7 d3bd
000003a0: 3fff a63f 9405 903d 1685 ccbe fca2 673c
000003b0: b56d cfbd 5544 483f 7797 433f 4af0 c4bc
000003c0: 02b5 56bf de2e cdbf 4f00 4a3f 08c9 90bf
000003d0: 917f 90bf 6521 143e 40ab 0cbd 85e8 d8bd
000003e0: cda2 003e 8d06 4a3f 46e9 603f 60e8 72be
000003f0: 09d9 85bc 752c 793e 9d7e 853e 1d20 c0be

encoder.gcs.0.bias f4 [32]
0.18704115 0.095934935 -0.14941375 -0.13173981 0.1895373 0.20816141 -0.17265265 0.26356673
0.047840573 -0.1833851 0.07709967 -0.23594049 0.25816992 -0.25187412 0.03916111 0.039059546
0.045436714 0.1765148 -0.19645597 -0.17151013 -0.27469957 -0.049031522 -0.16242227 0.05456252
-0.07025614 0.022619791 0.16938086 -0.008469216 -0.07517488 -0.12854543 -0.31587014 0.23356695
00000000: b787 3f3e 8979 c43d ebff 18be cde6 06be
00000010: 1116 423e 4428 553e dbcb 30be 38f2 863e
00000020: 7af4 433d 4ec9 3bbe 6fe6 9d3d 629a 71be
00000030: d92e 843e a5f5 80be 6667 203d e7fc 1f3d
00000040: d91b 3a3d 4cc0 343e c12b 49be 5aa0 2fbe
00000050: 6ca5 8cbe 47d5 48bd 0652 26be f37c 5f3d
00000060: 73e2 8fbd 244d b93c 2d72 2d3e 77c2 0abc
00000070: 4af5 99bd 6aa1 03be bbb9 a1be 2d2c 6f3e

encoder.gcs.1.weight f4 [64, 32]
-0.02131733 0.069948964 0.047280848 -1.5541693 0.29763412 0.46132502 -0.12434858 -0.23099095
-0.8361016 0.51035064 -0.39958155 -0.1959665 -0.05526712 -0.36167252 0.196908 -0.5212082
-0.12036309 -0.17680468 0.010873214 0.4423555 -0.45130238 -0.68471575 0.008452705 -1.5610924
-1.3977257 -0.016459592 0.16193081 -0.4037573 -0.25031087 0.80711293 0.22000536 -0.023920394
0.11991202 -0.5217104 -0.60192674 -0.038981445 -0.15684071 -0.36330533 -0.22403751 0.012974292
-0.054248724 -0.23400688 0.26203558 -0.050487094 0.46066403 -1.1370698 -0.059040125 -0.20313436
-0.093589604 -0.23417416 -0.13396695 -0.0126107 -0.24586122 -0.56670415 -1.0556569 0.28690886
0.047323227 -1.9072204 0.059566535 -4.1734242 -1.2373406 -0.31359613 0.021609122 0.23220088
-0.15486805 -0.15002705 0.47403407 0.33412433 0.3196366 0.14582655 0.19112088 0.01615682
-0.47436213 -0.41212928 0.5343307 -0.1372859 0.20595373 0.30455437 -0.28925762 -0.1642954
0.16942905 -0.12494459 -0.2818498 0.10989653 -0.18434563 -0.17429891 0.076624095 -0.19738562
0.07063237 0.47610903 0.1495538 -0.4165217 0.2183529 -1.0203332 0.6478636 -0.13256285
-0.33565187 0.31504637 0.18993016 0.07777798 -0.15495743 -0.175681 0.053016182 0.3213335
0.09907133 -0.23695783 0.5219717 -0.0663956 0.3399374 0.27131703 0.39446756 0.27401558
-0.20990688 0.29584372 -0.020497054 -0.18076722 -0.2513052 -0.2705171 -0.26237112 -0.15105948
0.11707492 -0.17912962 -0.06708854 0.2735456 0.10839924 -0.42083204 0.14064768 0.122054406
-0.37944764 0.2859813 -0.398374 -0.20734155 -0.51242155 0.40478703 -0.15907736 0.41258353
-0.035450347 -0.28702608 -0.0067042876 -0.27067262 0.07218941 -0.05830962 -0.18876542 -0.28972238
-0.062278967 0.04728281 -0.029851135 -0.2907527 0.06972372 -0.012283719 -0.17484783 0.059089553
-0.2876953 0.27035552 -0.4040274 0.32184786 -0.019869218 0.36624023 -0.19755389 0.39571473
-0.16269583 -0.54064065 0.011523184 0.10200544 0.27569568 -0.08880011 0.29095826 0.2702032
-0.11864099 -0.41599664 0.31335554 -0.13841139 0.16573672 -0.31234625 0.26394442 0.2151556
-0.08725135 0.1912029 -0.29869735 -0.12232477 -0.03545631 -0.11497153 -0.07984263 -0.31250513
0.32990953 0.316685 0.31782582 0.5149412 -0.38614047 -0.056807026 0.21766174 -0.37094775
0.062239297 -0.190888 0.034046136 0.09791224 0.36077392 -0.21418816 -0.58878237 0.3668842
0.117707744 0.46154934 0.09396903 -0.2625521 0.29168338 -0.5190416 0.0568402 0.25717705
0.32571593 -0.29313117 -0.22586001 0.25782758 -0.44492513 -0.5091184 -0.16043605 -0.3799069
-0.35535413 -0.2556984 -0.24546023 -0.5472544 0.16043063 -0.346061 -0.35474384 0.11222988
-0.19404683 0.27418733 0.26130372 -0.0534248 -0.7547423 -0.300309 -0.9141967 0.14878967
-0.30989325 -0.88531137 0.1590057 -1.0449315 -0.33872458 -0.6177677 0.3341697 -0.66111135
-0.00803937 -0.45065665 -0.021988533 -0.022977816 0.3071944 0.55383784 -0.051530838 -1.1536962
-1.0306344 -1.1559334 -0.106710024 0.38198337 0.47421625 -0.5869912 -0.34399587 -0.08582867
00000000: aea1 aebc 6741 8f3d 90a9 413d 05ef c6bf
00000010: 8063 983e cb32 ec3e 78aa febd e488 6cbe
00000020: c10a 56bf 57a6 023f f495 ccbe 71ab 48be
00000030: c75f 62bd 242d b9be 40a2 493e e76d 05bf
00000040: ec80 f6bd 490c 35be 9125 323c 6c7c e23e
00000050: 1b11 e7be 8849 2fbf 377d 0a3c e0d1 c7bf
00000060: ade8 b2bf 44d6 86bc 31d1 253e 47b9 cebe
00000070: bf28 80be f49e 4e3f 1649 613e b4f4 c3bc
00000080: 6f94 f53d d08e 05bf df17 1abf 02ab 1fbd
00000090: da9a 20be 2803 babe 176a 65be 2092 543c
000000a0: e933 5ebd 809f 6fbe 8729 863e 8ecb 4ebd
000000b0: 28dc eb3e 818b 91bf 0fd4 71bd 7402 50be
000000c0: e8ab bfbd 5acb 6fbe a22e 09be 1c9d 4ebc
000000d0: 0bc3 7bbe 8613 11bf c41f 87bf b8e5 923e
000000e0: 00d6 413d cc1f f4bf 0afc 733d b18c 85c0
000000f0: 2d61 9ebf ac8f a0be 9d05 b13c 11c6 6d3e
00000100: bb95 1ebe b1a0 19be 98b4 f23e 5812 ab3e
00000110: 69a7 a33e 8e53 153e 31b5 433e 4f5b 843c
00000120: 98df f2be 9c02 d3be e6c9 083f ad94 0cbe
00000130: 89e5 523e 8dee 9b3e 9319 94be 0e3d 28be
00000140: cf7e 2d3e f3e2 ffbd 9e4e 90be 6f11 e13d
00000150: 1ac5 3cbe 6a7b 32be 18ed 9c3d 751f 4abe
00000160: b4a7 903d 90c4 f33e a224 193e 5542 d5be
00000170: e797 5f3e 479a 82bf 64da 253f 8ebe 07be
00000180: 90da abbe c24d a13e 0d7d 423e 104a 9f3d
00000190: 29ad 1ebe b8e5 33be 7f27 593d d385 a43e
000001a0: e9e5 ca3d 13a5 72be f09f 053f 6bfa 87bd
000001b0: 460c ae3e 11ea 8a3e a7f7 c93e c54b 8c3e
000001c0: d4f1 56be d478 973e 70e9 a7bc 0b1b 39be
000001d0: 13ab 80be 3881 8abe 8255 86be 56af 1abe
000001e0: fac4 ef3d c16d 37be b765 89bd 2b0e 8c3e
000001f0: 6c00 de3d 4c77 d7be f205 103e a9f7 f93d
00000200: f646 c2be 246c 923e adf7 cbbe 5851 54be
00000210: 0f2e 03bf 3f40 cf3e 2de5 22be 263e d33e
00000220: 6234 11bd 15f5 92be a4af dbbb 9a95 8abe
00000230: 0bd8 933d 11d6 6ebd b94b 41be 7e56 94be
00000240: 3b18 7fbd 9fab 413d 5e8a f4bc 8add 94be
00000250: 4fcb 8e3d a741 49bc 4f0b 33be e307 723d
00000260: cc4c 93be 0a6c 8a3e aedc cebe 3ec9 a43e
00000270: c5c4 a2bc d783 bb3e 914b 4abe 1f9b ca3e
00000280: bc99 26be 6d67 0abf bdcb 3c3c 3ae8 d03d
00000290: fc27 8d3e d5dc b5bd 7bf8 943e 1358 8a3e
000002a0: 0cfa f2bd 83fd d4be 2370 a03e b7bb 0dbe
000002b0: e3b6 293e d9eb 9fbe b923 873e c051 5c3e
000002c0: d6b0 b2bd b1ca 433e dcee 98be 6985 fabd
000002d0: a33a 11bd 3276 ebbd 8884 a3bd ac00 a0be
000002e0: e7e9 a83e 8924 a23e 11ba a23e 30d3 033f
000002f0: 34b4 c5be 7cae 68bd b8e2 5e3e ddec bdbe
00000300: a2ee 7e3d 2578 43be f673 0b3d 3686 c83d
00000310: 5cb7 b83e 2454 5bbe 71ba 16bf 3fd8 bb3e
00000320: c210 f13d 3250 ec3e d672 c03d 3b6d 86be
00000330: 8657 953e e9df 04bf 45d1 683d b6ac 833e
00000340: 3dc4 a63e 4a15 96be d947 67be fa01 843e
00000350: 3acd e3be 9555 02bf 5949 24be 2883 c2be
00000360: faf0 b5be e7ea 82be ed59 7bbe dd18 0cbf
00000370: ed47 243e e82e b1be fca0 b5be c8d8 e53d
00000380: 36b4 46be 4862 8c3e 9ac9 853e f7d3 5abd
00000390: cb36 41bf 1ac2 99be cc08 6abf 525c 183e
000003a0: 54aa 9ebe c4a3 62bf 64d2 223e 51c0 85bf
000003b0: 4f6d adbe 0626 1ebf 4a18 ab3e 983e 29bf
000003c0: 90b7 03bc 78bc e6be 4c21 b4bc f93b bcbc
000003d0: 9648 9d3e 51c8 0d3f 0012 53bd 51ac 93bf
000003e0: d4eb 83bf a0f5 93bf c98a dabd 5393 c33e
000003f0: 79cc f23e 0e45 16bf 3a20 b0be f1c6 afbd

encoder.gcs.1.bias f4 [64]
0.01192768 -0.06788267 -0.0759643 -0.14465225 -0.16921985 -0.021656325 -0.13130052 -0.0034575744
-0.05926695 -0.21245308 -0.111039154 0.06298117 0.04792779 -0.10618398 -0.13954797 -0.1542797
-0.1238615 0.033631835 0.048363905 -0.040639777 -0.05654515 -0.049124908 -0.06962887 -0.06619534
-0.20403458 0.0819326 -0.080974355 -0.04251012 -0.11523304 -0.1773306 -0.010456658 -0.039235886
0.03484088 -0.102873474 -0.14918269 -0.04582643 0.023386456 0.002288458 -0.05076946 -0.049898632
-0.07854237 -0.09211832 0.07633211 -0.19651301 -0.10143147 -0.18320782 -0.13946381 -0.0071208435
0.029567493 -0.1320671 0.06965568 -0.12197778 -0.114364475 -0.24617793 0.0059360527 -0.104098015
-0.20159641 -0.011649394 0.13300525 -0.119436614 0.027064173 -0.09503928 -0.033882458 -0.08819232
00000000: 516c 433c 1206 8bbd 2c93 9bbd b81f 14be
00000010: f847 2dbe 9b68 b1bc a573 06be 7998 62bb
00000020: e7c1 72bd 4d8d 59be 7f68 e3bd 46fc 803d
00000030: ee4f 443d fd76 d9bd aae5 0ebe 7ffb 1dbe
00000040: 19ab fdbd 89c1 093d 3b19 463d e575 26bd
00000050: e39b 67bd 3337 49bd 9599 8ebd 6c91 87bd
00000060: 71ee 50be 47cc a73d e2d5 a5bd 171f 2ebd
00000070: 4dff ebbd 2796 35be 6752 2bbc cfb5 20bd
00000080: 50b5 0e3d 54af d2bd 59c3 18be 7fb4 3bbd
00000090: f494 bf3c f4f9 153b a3f3 4fbd 8262 4cbd
000000a0: d2da a0bd 88a8 bcbd 0254 9c3d b53a 49be
000000b0: 4dbb cfbd d59a 3bbe 9acf 0ebe f755 e9bb
000000c0: 8737 f23c 993c 07be a3a7 8e3d 7ccf f9bd
000000d0: ec37 eabd 1116 7cbe 3883 c23b 5731 d5bd
000000e0: 4a6f 4ebe 1add 3ebc 8732 083e 2f9b f4bd
000000f0: afb5 dd3c f4a3 c2bd 55c8 0abd 2d9e b4bd

encoder.gcs.2.weight f4 [128, 64]
-0.114997596 0.099739164 0.24077761 0.21264873 0.16888116 -0.27496946 -0.35818237 -0.044067025
0.06318941 -0.23093495 0.196027 -0.061346073 -0.2482475 0.12573536 0.17186989 0.12737596
-0.14060119 -0.031239592 -0.27408358 0.025863195 0.122671224 -0.047676932 -0.18868496 0.4527578
-0.30174223 -0.23519234 0.1516352 -0.05431711 -0.007725039 0.17480811 -0.024920087 -0.07427262
0.22304948 0.13678913 0.16955386 -0.099666394 -0.3384572 0.043336406 -0.22101574 -0.08350677
-0.34179005 0.19905473 -0.29018795 0.1542746 -0.01773625 0.23893388 0.0719856 -0.19183578
0.04799111 -0.06565752 -0.05095781 -0.21163185 -0.27848458 0.07536219 -0.25935137 0.38854954
0.07756835 -0.25760883 -0.2598212 -0.24262214 -0.2054648 -0.2573657 0.08616677 0.13336949
0.22409636 0.026410706 -0.087103754 -0.1546381 -0.06649199 0.12246298 -0.32165673 -0.32995924
0.09708484 -0.11378526 -0.12417588 -0.21748671 -0.22989763 -0.20289809 -0.2030618 -0.22595684
-0.17724675 0.20346633 -0.20581685 0.22090375 -0.282721 -0.009856959 0.0056718546 -0.1523713
-0.035812285 0.23146628 -0.18178003 0.30851266 -0.0694349 -0.10635599 0.11317076 0.20258535
0.22779964 0.21530892 -0.27415845 -0.05211795 0.0032504222 -0.17625226 0.11616847 -0.09174211
-0.29444584 -0.16785687 -0.22333777 0.0749135 -0.17143784 -0.096224286 0.06542189 0.1306212
-0.2697184 0.22385694 -0.2434285 -0.20357516 0.0837287 -0.19790642 0.17245902 0.16571696
-0.12058292 -0.09441279 -0.17852998 0.0023972723 -0.02841463 -0.023239784 -0.16028328 -0.2604597
-0.39556655 -0.026842857 0.2636028 -0.073635824 -0.011520096 0.060822517 0.28363037 -0.40291995
-0.33389452 -0.012187015 -0.46803963 0.11215752 0.034823347 -0.27804342 -0.3885701 0.04634209
0.2772069 -0.27007765 -0.24521202 0.20598465 0.015500281 -0.25082135 0.31773698 -0.02629136
-0.009713891 0.07096887 -0.16644193 0.3032834 -0.14279748 -0.095141396 -0.2524127 -0.36678687
0.14266138 0.056546714 0.055031456 -0.42443237 -0.35207972 -0.15996031 -0.22547927 -0.22767678
-0.19608606 -0.4522977 0.3294277 0.33489597 -0.5752874 0.56044 -0.004447853 -0.13061507
-0.22900346 0.25403905 -0.26049235 0.13382155 -0.056606043 0.045665115 0.12114366 -0.2879275
0.29612353 -0.12310052 0.04617275 -0.07807418 0.018931676 -0.05630051 -0.19112615 0.46241304
0.4002092 -0.23744813 -0.024780633 0.1338608 0.051709343 0.07482248 0.19791058 -2.3410106
-0.08781447 -0.113735355 0.12657228 0.05205958 0.14539546 0.026842915 -0.17368285 0.20600161
0.026363416 -0.308132 -0.22530328 0.25372458 -0.04916396 -0.4121169 -0.38051638 0.0019019061
0.21797185 -0.14994521 -0.04309904 0.12658796 -0.029408598 0.08624778 0.005078832 -0.09920423
-0.07036289 0.19541538 0.015754024 -2.5459163 0.29875773 -0.04836282 0.28210768 0.34366518
0.011200471 0.06297691 -0.15885492 -0.38672787 -0.23617849 -0.08168935 0.1690481 0.27371246
-0.08294124 -0.093389764 -0.080290236 -0.21067932 0.19040169 -0.1189395 0.17355718 0.20728868
-0.20229864 -0.10686783 -0.05905389 -1.0809606 0.118851796 -0.21799725 -0.04515607 -0.77593994
00000000: dc83 ebbd 0c44 cc3d 688e 763e 97c0 593e
00000010: 2fef 2c3e ccc8 8cbe ae63 b7be a07f 34bd
00000020: 7369 813d 367a 6cbe 4dbb 483e 0546 7bbd
00000030: 9834 7ebe c5c0 003e a9fe 2f3e d86e 023e
00000040: c2f9 0fbe 2cea ffbc af54 8cbe 0ddf d33c
00000050: 0d3b fb3d e348 43bd a136 41be dfcf e73e
00000060: f57d 9abe 43d6 70be 4246 1b3e 9e7b 5ebd
00000070: 5322 fdbb e600 333e 3625 ccbc 3e1c 98bd
00000080: 1567 643e 7312 0c3e 879f 2d3e e51d ccbd
00000090: 434a adbe 8481 313d f351 62be 9905 abbd
000000a0: 1bff aebe 01d5 4b3e 8493 94be 29fa 1d3e
000000b0: 9d4b 91bc 15ab 743e 306d 933d 9970 44be
000000c0: 5392 443d 7377 86bd 23b9 50bd 05b6 58be
000000d0: 8895 8ebe 7e57 9a3d b4c9 84be f7ef c63e
000000e0: 28dc 9e3d 4ee5 83be 4907 85be f071 78be
000000f0: 5d65 52be 70c5 83be 3478 b03d 0392 083e
00000100: 8479 653e 445b d83c 7463 b2bd 7359 1ebe
00000110: f42c 88bd dfcd fa3d 31b0 a4be 6bf0 a8be
00000120: 6bd4 c63d 3f08 e9bd ec4f febd d6b4 5ebe
00000130: 496a 6bbe 84c4 4fbe 6fef 4fbe 3b61 67be
00000140: 2c80 35be 7a59 503e a7c1 52be 9834 623e
00000150: cfc0 90be 157f 21bc f7da b93b 3907 1cbe
00000160: e7af 12bd 7f05 6d3e 8b24 3abe 5ff5 9d3e
00000170: e333 8ebd 2bd1 d9bd 12c6 e73d 8972 4f3e
00000180: 4f44 693e f179 5c3e 7f5e 8cbe a279 55bd
00000190: 0905 553b 797b 34be bce9 ed3d 4ae3 bbbd
000001a0: 9bc1 96be ace2 2bbe a8b2 64be 406c 993d
000001b0: 678d 2fbe 3d11 c5bd e9fb 853d 90c1 053e
000001c0: 8818 8abe c13a 653e 5245 79be 0276 50be
000001d0: f479 ab3d fba7 4abe 1999 303e b5b1 293e
000001e0: 2ef4 f6bd 7e5b c1bd 90d0 36be 8e1b 1d3b
000001f0: ccc5 e8bc 5c61 bebc 4d21 24be f95a 85be
00000200: b387 cabe 8de5 dbbc f2f6 863e 61ce 96bd
00000210: c9be 3cbc 0821 793d 0038 913e 864b cebe
00000220: 39f4 aabe 0cac 47bc e4a2 efbe d8b2 e53d
00000230: eda2 0e3d b55b 8ebe a9f2 c6be 34d1 3d3d
00000240: 10ee 8d3e 9e47 8abe dc18 7bbe a4ed 523e
00000250: e4f4 7d3c a86b 80be 6cae a23e fa60 d7bc
00000260: 0327 1fbc 2058 913d c16f 2abe f647 9b3e
00000270: 8139 12be 7ed9 c2bd 3d3c 81be 7dcb bbbe
00000280: d315 123e 879d 673d aa68 613d 334f d9be
00000290: cb43 b4be a3cc 23be 0ae4 66be 1a24 69be
000002a0: c9ca 48be 9093 e7be bfaa a83e 7c77 ab3e
000002b0: 0946 13bf ff78 0f3f 4cbf 91bb f5bf 05be
000002c0: e27f 6abe 6811 823e 415f 85be 8408 093e
000002d0: bddb 67bd 580b 3b3d 2b1a f83d 3c6b 93be
000002e0: 819d 973e 201c fcbd a31f 3d3d 5be5 9fbd
000002f0: 9a16 9b3c 5d9b 66bd 93b6 43be 67c1 ec3e
00000300: 38e8 cc3e 9a25 73be c100 cbbc ce12 093e
00000310: 2dcd 533d 873c 993d 12a9 4a3e 1ed3 15c0
00000320: 13d8 b3bd 15ee e8bd 2a9c 013e 6d3c 553d
00000330: 8ce2 143e ace5 db3c ebd9 31be 16f2 523e
00000340: 17f8 d73c 7ac3 9dbe e7b5 66be 30e8 813e
00000350: 2660 49bd fc00 d3be 0bd3 c2be 6149 f93a
00000360: 0334 5f3e 3d8b 19be 9e88 30bd 46a0 013e
00000370: 4dea f0bc ada2 b03d 556c a63b 962b cbbd
00000380: 6b1a 90bd f81a 483e 950e 813c 4bf0 22c0
00000390: c6f6 983e 1818 46bd 6b70 903e e2f4 af3e
000003a0: 2e82 373c 0afa 803d ddaa 22be 3201 c6be
000003b0: c6d8 71be bf4c a7bd f21a 2d3e 0a24 8c3e
000003c0: 19dd a9bd 2243 bfbd 356f a4bd 52bc 57be
000003d0: a9f8 423e 8d96 f3bd f9b8 313e 7c43 543e
000003e0: 6027 4fbe 85dd dabd 7ee2 71bd eb5c 8abf
000003f0: 9268 f33d ac3a 5fbe 92f5 38bd 00a4 46bf

encoder.gcs.2.bias f4 [128]
-0.0062228856 0.00042680086 -0.023423366 -0.105531506 -0.10016447 -0.07301904 0.02483388 0.006983664
-0.14298417 -0.06849926 0.05537139 0.0867244 -0.042379174 -0.01123571 -0.12726802 -0.020140633
-0.0358695 -0.01889248 -0.17615454 -0.027476473 -0.31006464 -0.011311092 -0.18694589 -0.09604629
-0.009915052 0.07997901 0.052877765 -0.0006631353 0.073935285 -0.17142634 0.06513123 -0.040978167
-0.04300914 -0.26339683 -0.020751433 -0.13285354 -0.054502647 -0.13594577 -0.03753382 -0.13146222
-0.0074972645 -0.18177913 -0.09817072 -0.03420704 -0.10520519 -0.012635413 -0.0024606274 -0.057263292
0.071966425 -0.11559992 0.038527127 -0.20410563 -0.03305573 -0.08938657 -0.042487994 0.0018667367
0.0059571066 -0.1650788 -0.07354278 -0.09596376 0.05176985 0.15778914 -0.0077381595 -0.0018874463
0.051642124 -0.114200585 0.066928364 -0.12690392 0.041479874 -0.26501945 -0.04807333 0.052985467
-0.081243925 -0.0050587803 -0.19826458 -0.06446274 0.0013652396 -0.01161564 0.021366809 -0.13416706
0.019829493 -0.110263504 -0.061048757 -0.06533964 0.024672316 0.061611433 0.027163079 -0.19985065
-0.0025175617 -0.01743312 -4.2228014e-05 -0.002977242 -0.1452532 -0.33491325 -0.0023180894 -0.071442924
0.029904593 -0.023713171 -0.10991941 -0.019403163 -0.0023328257 0.14325908 -0.078740306 0.0087913545
0.11015988 -0.009776856 -0.113795854 -0.112492196 -0.10515645 -0.070578024 -0.20473702 -0.13905872
-0.015247609 -0.050688103 0.00095637963 0.058451485 -0.03119877 -0.121941455 0.0070914626 -0.1288974
-0.054061566 0.036188375 -0.078813255 0.1496799 -0.0016974574 -0.06952422 -0.086588316 -0.1168972
00000000: 59e9 cbbb 3ec4 df39 5ce2 bfbc e720 d8bd
00000010: 0823 cdbd 028b 95bd 6c70 cb3c 38d7 e43b
00000020: 716a 12be 5749 8cbd 1ccd 623d 909c b13d
00000030: c995 2dbd fc15 38bc 8c52 02be f8fd a4bc
00000040: e6eb 12bd 67c4 9abc db61 34be 5716 e1bc
00000050: cbc0 9ebe 2952 39bc be6e 3fbe ebb3 c4bd
00000060: be72 22bc 09cc a33d 5b96 583d 42d6 2dba
00000070: 626b 973d 638a 2fbe 8663 853d b9d8 27bd
00000080: 5a2a 30bd f3db 86be e9fe a9bc c20a 08be
00000090: 2b3e 5fbd 5e35 0bbe 10bd 19bd 089e 06be
000000a0: 9dab f5bb 4f24 3abe bb0d c9bd ae1c 0cbd
000000b0: d275 d7bd c304 4fbc 7a42 21bb ea8c 6abd
000000c0: 2263 933d a7bf ecbd 9fce 1d3d 1101 51be
000000d0: 7265 07bd 4e10 b7bd e407 2ebd 4aad f43a
000000e0: d533 c33b 6b0a 29be 999d 96bd a688 c4bd
000000f0: 9f0c 543d 7a93 213e 6390 fdbb 3064 f7ba
00000100: b186 533d ffe1 e9bd bd11 893d 1af3 01be
00000110: cde6 293d a1b0 87be 8ae8 44bd 4a07 593d
00000120: 3763 a6bd 20c4 a5bb df05 4bbe 0b05 84bd
00000130: d7f1 b23a 864f 3ebc 7209 af3c 1763 09be
00000140: 7671 a23c d5d1 e1bd 430e 7abd cad0 85bd
00000150: 991d ca3c 455c 7c3d 1b85 de3c a6a5 4cbe
00000160: adfd 24bb e7cf 8ebc fc1d 31b8 d51d 43bb
00000170: 41bd 14be c079 abbe 16eb 17bb ab50 92bd
00000180: 7afa f43c 2042 c2bc 6d1d e1bd 62f3 9ebc
00000190: 52e2 18bb 82b2 123e 9942 a1bd 9d09 103c
000001a0: 819b e13d 1b2f 20bc cd0d e9bd 4f62 e6bd
000001b0: 445c d7bd 368b 90bd 95a6 51be 6965 0ebe
000001c0: 1bd1 79bc 549e 4fbd 8db5 7a3a d36a 6f3d
000001d0: 9094 ffbc 71bc f9bd 805f e83b aefd 03be
000001e0: a96f 5dbd 433a 143d d868 a1bd b045 193e
000001f0: 387d deba b762 8ebd 3755 b1bd cd67 efbd

encoder.gcs.3.weight f4 [64, 128]
-0.027451806 -0.031916626 0.059230544 0.048228737 -0.06941865 0.06682361 -0.07357357 -0.63261074
0.04819142 0.23158179 0.15064181 -0.15752204 -0.02644413 -0.12359313 -0.8494574 -0.025816955
0.11907088 0.13909528 0.33582917 0.12693846 -0.013324367 -0.40899312 0.12353042 0.1344075
-0.24316537 -0.06061154 0.27739185 -0.03809368 -0.4164404 0.14212467 0.1856635 -0.28348863
-0.23790455 -0.45764843 -0.71412766 0.024843134 0.20110857 -0.17409821 -0.18979205 0.19259553
-0.28590554 0.093146615 0.32142475 -0.13592987 0.08744683 -0.09471739 -0.271951 -0.1852615
-0.24158719 0.06714721 0.13758698 0.022011217 0.02337087 0.0669059 0.30428827 0.19485089
0.032310296 0.13996795 -0.12737104 0.40718544 -0.32706234 -0.11156517 0.2036949 -0.03436697
0.030043157 -0.24826507 -0.29510066 -0.020474344 -0.45430145 -0.03969419 0.30307692 -0.08703768
-0.29742974 0.1388493 0.11750085 -0.24175604 0.025638688 0.05139213 -0.23825857 -0.20812283
0.12084583 -0.08358729 -0.007590925 0.10995327 -0.00050898583 0.026093781 -0.20591792 -0.40066898
-0.049237426 -0.48786643 0.08845739 0.14574808 0.0054075723 -0.09271993 -0.04179939 0.33356303
0.023472756 0.03069963 0.08177287 -0.19173084 0.39048034 -0.028479835 0.20934455 0.16101052
-0.121225454 -0.47869664 -0.24322964 -0.09875209 -0.38980886 0.0950349 -0.24100463 0.04548509
0.17441899 0.24723215 0.05585088 -0.15725309 -0.4988248 -0.041630726 0.0591573 0.21651883
-0.16736363 0.109650455 -0.21878557 -0.00758406 0.15295166 0.2886001 -0.023654077 0.10497447
-0.03126837 0.012708127 -0.42296195 -0.12085482 -0.15814939 -0.69086367 -0.24046592 -1.2023429
-1.2094223 -0.08458668 0.34388745 -0.31387556 -0.6721139 -0.0799791 0.11176786 -0.16104451
-0.28624737 -0.5557848 0.04495466 -0.6143312 -0.20439263 -0.6966652 0.020074988 -0.15634497
0.24481414 -0.047500044 -0.064318344 0.11829962 -0.13245024 -0.2236264 0.14053562 0.14885439
-0.44779307 -0.28741688 0.700991 -0.63150626 0.16299659 0.0077333176 -0.16567513 -0.8503869
-0.61712027 -0.1478754 0.07917133 -0.071639016 -0.34398368 0.6596445 0.16505061 0.13642538
0.04257245 0.035622083 -0.029082276 -0.26556432 0.25381482 0.120835096 0.32493958 -0.47323322
0.048150998 0.2018559 0.029916834 0.103060156 -0.20590587 0.25054833 0.48953906 -0.0073666945
-0.033572845 -0.283317 -0.15502152 -0.657894 0.083622016 -0.22519839 0.41271222 0.40930733
-0.06291566 -0.0042483304 0.1385635 0.48482642 0.13101198 -0.5815501 -0.12534711 -0.39771116
0.18218371 0.39395508 -0.23098806 0.17298323 -0.08388574 -0.27607387 0.10181252 0.02638084
0.22469676 -0.045383256 0.10906895 0.12094311 -0.06545539 0.13933277 -0.074956335 0.026704218
-0.08349021 -0.026149858 0.11334255 -0.1657105 -0.40076634 0.06445328 0.03939322 -0.11143097
0.22643077 0.20150301 -0.10764731 -0.6898445 0.27011436 0.052548762 -0.14413214 -0.048100926
-0.013211492 -0.3966927 0.02140062 0.09696586 -0.09159541 -0.3661256 0.0150809 0.19680218
0.22561471 -0.12082082 -0.07118202 -0.06357122 0.0047944784 0.023058435 0.12472803 -0.11897399
00000000: 9ce2 e0bc 02bb 02bd ba9b 723d 7f8b 453d
00000010: 5d2b 8ebd d1da 883d bdad 96bd c7f2 21bf
00000020: 5e64 453d c723 6d3e d941 1a3e 754d 21be
00000030: 5ca1 d8bc 651e fdbd 0a76 59bf 147e d3bc
00000040: 6fdb f33d fe6e 0e3e cdf1 ab3e 28fc 013e
00000050: 724e 5abc 8c67 d1be 84fd fc3d 1fa2 093e
00000060: 5800 79be ce43 78bd 4e06 8e3e 1e08 1cbd
00000070: ad37 d5be 2189 113e 931e 3e3e 6c25 91be
00000080: 409d 73be e550 eabe 12d1 36bf d483 cb3c
00000090: 68ef 4d3e cd46 32be d958 42be c337 453e
000000a0: 3662 92be a7c3 be3d c991 a43e 3331 0bbe
000000b0: 5317 b33d 31fb c1bd 293d 8bbe 31b5 3dbe
000000c0: a262 77be 7a84 893d 9ae3 0c3e de50 b43c
000000d0: 4474 bf3c f605 893d accb 9b3e fe86 473e
000000e0: cd57 043d c253 0f3e 8e6d 02be 9c7a d03e
000000f0: b774 a7be 487c e4bd 6595 503e 61c4 0cbd
00000100: 111d f63c 3339 7ebe 6f17 97be d0b9 a7bc
00000110: 339a e8be 6096 22bd e62c 9b3e d040 b2bd
00000120: b648 98be 832e 0e3e 49a4 f03d e58e 77be
00000130: 3a08 d23c 8e80 523d 0efa 73be 271e 55be
00000140: 057e f73d d02f abbd 4bbd f8bb 2e2f e13d
00000150: 766d 05ba a0c2 d53c 26dc 52be 7c24 cdbe
00000160: 2fad 49bd a1c9 f9be 2629 b53d fc3e 153e
00000170: 0132 b13b f2e3 bdbd d635 2bbd c6c8 aa3e
00000180: f049 c03c ca7d fb3c 8978 a73d 1755 44be
00000190: 0aed c73e 8b4e e9bc 6b5e 563e f1df 243e
000001a0: 0d45 f8bd ba17 f5be 3111 79be 893e cabd
000001b0: 0795 c7be a8a1 c23d ebc9 76be 934e 3a3d
000001c0: e49a 323e 6d2a 7d3e e4c3 643d f406 21be
000001d0: f765 ffbe fb84 2abd ed4e 723d 1db7 5d3e
000001e0: 5f61 2bbe 6b90 e03d 5309 60be b583 f8bb
000001f0: 5c9f 1c3e 64c3 933e 32c6 c1bc dbfc d63d
00000200: 4313 00bd bf35 503c 788e d8be bb82 f7bd
00000210: eaf1 21be 71dc 30bf b33c 76be 5fe6 99bf
00000220: 5ace 9abf c83b adbd 0412 b03e 4cb4 a0be
00000230: a80f 2cbf 15cc a3bd 8ce6 e43d dae8 24be
00000240: 048f 92be ea47 0ebf 6122 383d cf44 1dbf
00000250: 4d4c 51be a758 32bf 4d74 a43c e518 20be
00000260: 8fb0 7a3e 688f 42bd 56b9 83bd 1247 f23d
00000270: 09a1 07be 52fe 64be 92e8 0f3e 496d 183e
00000280: 2245 e5be 4e28 93be 2574 333f 65aa 21bf
00000290: 94e8 263e c567 fd3b bea6 29be f5b2 59bf
000002a0: 98fb 1dbf a66c 17be 9424 a23d 7ab7 92bd
000002b0: a11e b0be 76de 283f 0703 293e 18b3 0b3e
000002c0: 7360 2e3d 76e8 113d f43d eebc 0cf8 87be
000002d0: 04f4 813e 6478 f73d 7b5e a63e a04b f2be
000002e0: fb39 453d 50b3 4e3e 2614 f53c 3411 d33d
000002f0: fdd8 52be df47 803e dda4 fa3e 5064 f1bb
00000300: ae83 09bd ed0e 91be f6bd 1ebe be6b 28bf
00000310: 0542 ab3d 689a 66be 044f d33e bb90 d13e
00000320: edd9 80bd 9435 8bbb 97e3 0d3e 2b3b f83e
00000330: 0128 063e 78e0 14bf fe5a 00be cca0 cbbe
00000340: 5e8e 3a3e 7bb4 c93e 2288 6cbe 8422 313e
00000350: 49cc abbd 8e59 8dbe 1583 d03d a21c d83c
00000360: e816 663e cbe3 39bd 8b5f df3d 05b1 f73d
00000370: 7a0d 86bd 40ad 0e3e b582 99bd cec2 da3c
00000380: eafc aabd 3a38 d6bc 2420 e83d 03b0 29be
00000390: 3f31 cdbe 1500 843d c95a 213d ec35 e4bd
000003a0: 78dd 673e ce56 4e3e 3176 dcbd a699 30bf
000003b0: 6e4c 8a3e 5f3d 573d 6097 13be 7a05 45bd
000003c0: 0475 58bc 4e1b cbbe 5a50 af3c 0996 c63d
000003d0: 6096 bbbd d174 bbbe e115 773c 8386 493e
000003e0: 8b07 673e e870 f7bd e1c7 91bd a131 82bd
000003f0: 001b 9d3b 0be5 bc3c 6971 ff3d a3a8 f3bd

encoder.gcs.3.bias f4 [64]
0.12984303 -0.0368507 -0.12575233 0.0575793 -0.036430422 -0.07276565 -0.10669237 -0.09875755
-0.003533661 -0.060499627 -0.04647939 0.0061433534 0.04864971 -0.14869471 0.0037703938 0.006395263
-0.012511434 0.08890776 0.1632548 0.034793727 -0.014591149 0.049312647 -0.1066943 -0.004222961
-0.10281578 -0.054907754 -0.010822068 0.14924848 -0.012697465 -0.044694275 -0.06612585 -0.104594834
0.051705547 -0.10892349 -0.038700134 -0.05959218 -0.019662755 0.027861828 0.03582157 -0.13273619
-0.09109281 0.060854267 0.20379142 0.020700118 -0.05876834 -0.11828115 0.21647778 -0.026065016
0.05485866 -0.17491356 -0.014142975 0.06974916 0.025008379 -0.00064746843 0.17952234 -0.22995706
0.09132791 0.038913954 -0.032052074 -0.029626664 -0.0109493695 -0.032017857 -0.10592826 0.019270731
00000000: 92f5 043e c2f0 16bd 38c5 00be 46d8 6b3d
00000010: 1138 15bd 2806 95bd 8781 dabd 6641 cabd
00000020: fe94 67bb 75ce 77bd 2c61 3ebd 2f4e c93b
00000030: eb44 473d 6d43 18be b618 773b 5b8f d13b
00000040: c2fc 4cbc 4615 b63d 442c 273e de83 0e3d
00000050: b70f 6fbc 0ffc 493d 8b82 dabd c460 8abb
00000060: 1491 d2bd f4e6 60bd 0b4f 31bc 98d4 183e
00000070: 0709 50bc 5811 37bd fd6c 87bd d135 d6bd
00000080: 32c9 533d 4713 dfbd 0884 1ebd ee16 74bd
00000090: c913 a1bc 7d3e e43c a3b9 123d ffeb 07be
000000a0: de8e babd 5342 793d b3ae 503e 4b93 a93c
000000b0: 12b7 70bd 633d f2bd 5aac 5d3e 4d86 d5bc
000000c0: 79b3 603d 8a1c 33be f0b7 67bc a6d8 8e3d
000000d0: 5fde cc3c dfba 29ba b4d4 373e dd79 6bbe
000000e0: 210a bb3d 3d64 1f3d 0949 03bd 9eb3 f2bc
000000f0: fc64 33bc 2825 03bd eaf0 d8bd a7dd 9d3c

encoder.gcs.4.weight f4 [32, 64]
0.07631195 0.3294523 0.06370777 0.044116035 0.1426537 -0.032428727 0.29339916 -0.10592985
0.08655348 0.064191535 0.04286525 -0.08420796 -0.34308344 0.24665532 0.0699925 -0.19242807
-0.31531623 -0.1784475 -0.34215128 0.08046858 -0.034919403 -0.27806133 -0.23329973 -0.17351682
-0.1535549 -0.23496974 0.13415666 -0.20704867 0.0878521 -0.024987519 0.17219041 -0.23349741
-0.23074538 0.20931348 0.02549919 -0.23734693 -0.22054909 -0.18004438 -0.1335846 0.19849817
0.17106594 -0.18388614 -0.15605654 -0.11274383 0.098925054 -0.24742067 0.24410956 -0.20062593
-0.15368418 -0.2304508 -0.028599543 0.27638808 -0.3481652 0.058131788 -0.24486619 0.08609312
-0.26776847 0.184665 0.042900916 -0.2821383 -0.28623816 -0.3659979 -0.082276896 0.12371585
-0.33411416 -0.037938878 0.08405919 -0.07450516 0.3625337 0.061702106 -0.1191643 -0.25698295
-0.10515562 0.1466922 0.21828635 0.07518201 0.037184708 -0.125258 0.06141682 0.036367334
-0.29327706 0.29510713 -0.17761229 0.008246132 -0.30900183 0.058507495 -0.00033219598 -0.029948937
0.11487332 -0.3341288 -0.21183327 -0.21232437 -0.012511401 0.05813344 -0.41891524 -0.26105726
0.0053375172 -0.298082 -0.13879864 -0.09045283 0.24215035 0.2820542 -0.2479983 -0.1959252
0.3145903 -0.06288131 0.02442142 -0.22025038 -0.13520493 0.18852527 0.2137435 -0.367884
-0.18277153 0.1660416 0.11740864 -0.015481224 0.08353467 -0.060604006 -0.10063552 -0.02929865
-0.21183077 0.082731314 0.15095964 -0.039278336 -0.28485575 -0.34426895 -0.27298656 -1.3602531
0.21430828 -0.15668625 -0.067951754 -0.23765844 -0.14620188 -0.012505078 -0.15827113 -0.27187273
-0.0066290796 -0.149887 0.03174986 -0.21901366 -0.27660567 0.24855681 0.21560246 0.1326714
-0.31597847 -0.2105813 0.013790666 -0.34611955 0.050801225 -0.35081944 -0.12993886 0.07217718
-0.1781148 0.10447427 -0.30533916 -0.30684772 0.14247893 0.07980251 -0.19803366 -0.26956022
0.11086664 -0.14212134 -0.02742736 0.022618432 -0.0043534655 -0.10068901 -0.04149569 -0.045152687
0.10625652 -0.23640572 -0.063719966 -0.21799047 -0.11258079 -0.2604899 0.18863238 0.07914089
-0.038585637 -0.068387985 0.118226506 -0.087113634 0.14428803 -0.012369184 -0.13243207 -0.15940934
-0.16038755 -0.33443892 0.08889029 0.11408632 0.091519296 -0.30407774 -0.025099086 -0.24449646
0.38701925 0.30567926 0.12814462 -0.22666389 -0.29593548 0.1120217 0.13347721 -0.026733618
-0.27223328 0.17950954 0.17553152 0.19358544 0.020295449 0.35239765 0.09212766 -0.15494081
-0.26885188 0.023727357 0.24269852 0.11715284 0.41806996 -0.18282829 0.008572409 -0.23627974
-0.050710667 0.077806994 0.32298622 0.016493158 -0.16531193 0.18278295 -0.41131952 0.19606285
0.006282141 0.15454368 0.18604194 0.017997278 -0.020857362 -0.18051887 0.26972985 0.07554065
-0.042222224 -0.09542317 0.31058943 -0.16931519 0.015323175 0.25936183 0.27655444 -0.37699032
-0.12543237 -0.020587474 -0.28880265 -0.075390674 0.026453929 0.29864398 -0.07351925 -0.19128409
0.17812225 -0.32665953 -0.037757445 -0.12955101 0.109667525 -0.15474074 0.022643745 0.23054948
00000000: 7149 9c3d f9ad a83e 3879 823d 04b3 343d
00000010: d013 123e fcd3 04bd 6a38 963e c0f1 d8bd
00000020: f342 b13d da76 833d 7993 2f3d 3975 acbd
00000030: a2a8 afbe 3693 7c3e 3a58 8f3d dd0b 45be
00000040: 2171 a1be f1ba 36be 742e afbe b6cc a43d
00000050: a607 0fbd 0e5e 8ebe 20e6 6ebe 65ae 31be
00000060: 7f3d 1dbe e89b 70be 5d60 093e 9104 54be
00000070: cdeb b33d a0b2 ccbc af52 303e f219 6fbe
00000080: 8448 6cbe 4656 563e ade3 d03c 130b 73be
00000090: 9fd7 61be 8e5d 38be 67ca 08be 1b43 4b3e
000000a0: e92b 2f3e a64c 3cbe 49cd 1fbe 3de6 e6bd
000000b0: 3899 ca3d d85b 7dbe dbf7 793e e270 4dbe
000000c0: 635f 1dbe 4bfb 6bbe 9749 eabc bd82 8d3e
000000d0: b642 b2be 991b 6e3d 34be 7abe 9751 b03d
000000e0: f318 89be d218 3d3e dfb8 2f3d 6e74 90be
000000f0: cf8d 92be 1464 bbbe ca80 a8bd bc5e fd3d
00000100: 0311 abbe cc65 1bbd 3927 ac3d 2996 98bd
00000110: 049e b93e 59bb 7c3d 6a0c f4bd 4593 83be
00000120: d45b d7bd 7b36 163e 7586 5f3e 07f9 993d
00000130: fe4e 183d a243 00be 3490 7b3d eaf5 143d
00000140: 6928 96be 4818 973e ffdf 35be c91a 073c
00000150: 7d35 9ebe 8ea5 6f3d 972a aeb9 7957 f5bc
00000160: b442 eb3d ee12 abbe d2ea 58be 8f6b 59be
00000170: 9ffc 4cbc 541d 6e3d 0f7c d6be 4ca9 85be
00000180: 57e6 ae3b 349e 98be 3b21 0ebe 553f b9bd
00000190: 43f6 773e 6869 903e 44f3 7dbe 9ea0 48be
000001a0: fb11 a13e ebc7 80bd 6e0f c83c 5189 61be
000001b0: 2973 0abe c50c 413e 93df 5a3e 4b5b bcbe
000001c0: 7628 3bbe cf06 2a3e f173 f03d f6a4 7dbc
000001d0: 3a14 ab3d e83b 78bd ff19 cebd b903 f0bc
000001e0: 2aea 58be 096f a93d 2a95 1a3e 52e2 20bd
000001f0: 9dd8 91be 0544 b0be e5c4 8bbe c61c aebf
00000200: a173 5b3e 5c72 20be 4a2a 8bbd bc5c 73be
00000210: f2b5 15be 19e2 4cbc d411 22be e732 8bbe
00000220: c038 d9bb fa7b 19be 240c 023d 1e45 60be
00000230: 429f 8dbe ad85 7e3e e4c6 5c3e 03db 073e
00000240: eec7 a1be a0a2 57be 3ff2 613c 9536 b1be
00000250: f214 503d 9b9e b3be b10e 05be a1d1 933d
00000260: ba63 36be 9bf6 d53d 6a55 9cbe 251b 9dbe
00000270: ffe5 113e 806f a33d 56c9 4abe cc03 8abe
00000280: 0d0e e33d 4288 11be 58af e0bc 4a4a b93c
00000290: 84a7 8ebb 0a36 cebd 62f7 29bd 06f2 38bd
000002a0: 059d d93d 5714 72be 9d7f 82bd e538 5fbe
000002b0: c290 e6bd ef5e 85be d928 413e 9e14 a23d
000002c0: f90b 1ebd 000f 8cbd bd20 f23d a268 b2bd
000002d0: 3ec0 133e 1ea8 4abc 469c 07be 343c 23be
000002e0: a23c 24be 943b abbe 1d0c b63d 17a6 e93d
000002f0: 786e bb3d 14b0 9bbe 999c cdbc 485d 7abe
00000300: 6327 c63e fe81 9c3e 5838 033e 941a 68be
00000310: db84 97be a26b e53d 40ae 083e 7600 dbbc
00000320: 2962 8bbe 59d1 373e 89be 333e 433b 463e
00000330: a442 a63c 776d b43e 6dad bc3d cea8 1ebe
00000340: f4a6 89be e05f c23c f685 783e d4ed ef3d
00000350: 440d d63e 5737 3bbe 4a73 0c3c 51f3 71be
00000360: fdb5 4fbd 4659 9f3d 735e a53e a91c 873c
00000370: 8847 29be 742b 3b3e 7998 d2be b3c4 483e
00000380: 6bda cd3b b340 1e3e c781 3e3e 076f 933c
00000390: 0fdd aabc f0d9 38be 081a 8a3e 0eb5 9a3d
000003a0: 36f1 2cbd 396d c3bd 9405 9f3e f660 2dbe
000003b0: 0e0e 7b3c 13cb 843e 8b98 8d3e e004 c1be
000003c0: 5871 00be 10a7 a8bc f1dd 93be 6d66 9abd
000003d0: e9b5 d83c dde7 983e 4391 96bd fadf 43be
000003e0: ae65 363e eb3f a7be 8da7 1abd 05a9 04be
000003f0: 5e99 e03d 5b74 1ebe 607f b93c 2a15 6c3e

encoder.gcs.4.bias f4 [32]
0.27204895 -0.15698893 -0.084793836 -0.035359904 -0.18625653 0.0509137 0.09057125 -0.003705521
0.08702512 0.02005166 -0.12793359 -0.06848061 0.24146827 -0.19877909 -0.20361848 -0.0967933
0.1701089 -0.072998926 0.051804017 0.0059154346 0.08565604 0.12866051 0.18934487 -0.099147044
0.13699898 -0.0027693543 -0.025279105 -0.2164784 0.2672533 0.19769317 -0.10745305 0.17591462
00000000: 004a 8b3e b5c1 20be 64a8 adbd 8cd5 10bd
00000010: 08ba 3ebe e28a 503d 6b7d b93d 54d8 72bb
00000020: 3a3a b23d 6143 a43c 0601 03be 903f 8cbd
00000030: 7543 773e bf8c 4bbe 5d81 50be 913b c6bd
00000040: 0731 2e3e 7680 95bd 7330 543d 43d6 c13b
00000050: 6f6c af3d 95bf 033e 9fe3 413e 9b0d cbbd
00000060: 7649 0c3e 0e7e 35bb 2016 cfbc 84ac 5dbe
00000070: 6dd5 883e 1470 4a3e 5810 dcbd f622 343e

encoder.gcs.5.weight f4 [16, 32]
-0.17829646 0.2893265 -0.3857604 0.110512495 -0.41392606 0.10883503 -0.14778048 -0.072836354
-0.057670962 -0.36817783 0.0013174235 0.21190724 0.36251163 -0.26266396 -0.20659862 -0.114545904
-0.08795183 0.026817484 -0.38409305 -0.075447045 0.39836732 0.23290952 0.13953736 0.20910685
-0.045832064 -0.37299812 -0.30210578 -0.20002674 -0.18569344 -0.18048641 -0.34885302 0.11574848
0.25830886 -0.0675569 0.26065546 -0.11337725 -0.09609806 0.067463115 -0.1982721 0.3503573
0.24210304 -0.20655878 -0.055738445 -0.14552967 -0.15385719 -0.040312894 -0.34581703 0.3408445
-0.13385673 0.32854825 0.30781925 0.1350228 0.18794067 0.27408472 0.2508949 0.20811716
0.30716503 -0.06359183 0.07099397 0.3527455 0.34281972 -0.3851345 0.35654587 0.07107908
0.21953805 -0.20339034 0.11966131 0.38600639 -0.13732414 0.019698584 -0.28665304 -0.41514668
-0.16462214 -0.33367255 -0.12081412 -0.09610864 0.062886454 -0.3951197 0.05901368 -0.20905584
0.08400209 -0.21716666 -0.41583374 0.0087556895 0.12875314 -0.23119937 0.39226234 -0.36891514
-0.20964321 -0.07593773 0.25811636 -0.42845425 0.18032205 0.31190372 0.14200465 0.15347597
0.24107535 0.20690715 0.38469678 0.42919588 -0.41987908 -0.24256994 -0.23459943 -0.34405497
-0.34630907 -0.057061445 0.35363278 -0.103360094 0.10318464 -0.43034682 -0.037072707 -0.42534646
0.3231919 0.22507255 -0.39466628 0.0379316 -0.13340372 -0.1457488 0.059949536 0.09477614
-0.3728358 -0.12162072 -0.07275408 0.09166464 0.11853054 -0.33105287 0.017340725 0.22417308
0.32009944 -0.16887252 -0.29382733 -0.36328536 -0.19909304 -0.41036907 0.1419201 -0.14919314
-0.33424908 -0.10110893 0.41466123 0.060201798 -0.32990998 -0.33053446 0.13575394 -0.069948934
-0.23312002 0.27730238 0.3206768 -0.17844817 0.08727041 -0.20421408 -0.018453274 -0.02083622
0.08690701 0.24985112 -0.34894928 -0.2810166 0.41858163 0.13265963 0.25111234 -0.42617166
0.20200375 -0.20738019 0.1574646 0.12374733 -0.3859632 0.24947363 0.19919324 -0.25748864
0.13809136 -0.27831453 0.053620048 0.21790347 -0.3707986 0.3409656 -0.20150077 -0.30961755
0.24671991 0.20390978 -0.3399574 0.07451243 -0.15839058 0.27957284 -0.32926634 0.086725675
-0.028451744 0.021573598 0.15031631 -0.10426085 -0.26989076 -0.42681572 -0.19143215 -0.22412765
-0.41144994 -0.34746838 -0.17639023 0.21610975 -0.06889064 0.06622942 0.19715485 -0.4023498
-0.31786296 0.3676693 -0.36411017 -0.31084836 0.13849269 0.30501556 -0.062162653 -0.12072508
0.16189417 0.42125338 0.23504588 0.11048673 0.29054797 0.38855717 -0.31106144 0.41908503
-0.13732749 -0.2989951 -0.35774818 0.24503677 -0.21047832 0.3581427 0.35564816 0.2756956
0.37409204 0.22868237 -0.086335845 0.05297703 0.14665642 -0.10662036 -0.081191994 -0.34850907
0.02197344 0.05185865 0.11985065 0.2676113 -0.10779769 -0.09030742 -0.056406036 -0.3513621
0.40925923 0.055529803 0.3397935 -0.37656352 -0.0516611 0.18771954 -0.14370953 0.30702055
0.28237298 -0.0575462 0.42740855 -0.27315995 -0.4086196 -0.28408638 -0.2592105 0.324001
00000000: 5993 36be 9a22 943e 6382 c5be 6054 e23d
00000010: 1eee d3be e6e4 de3d c453 17be 3a2b 95bd
00000020: 6338 6cbd ce81 bcbe 66ad ac3a 36fe 583e
00000030: 209b b93e e47b 86be 978e 53be 0b97 eabd
00000040: 1720 b4bd 57b0 db3c d8a7 c4be fb83 9abd
00000050: cdf6 cb3e d57f 6e3e e2e2 0e3e 1b20 563e
00000060: 67ba 3bbd 9cf9 bebe 9cad 9abe cfd3 4cbe
00000070: 6c26 3ebe 6ed1 38be dd9c b2be 8a0d ed3d
00000080: 0f41 843e 465b 8abd a274 853e 5532 e8bd
00000090: 0fcf c4bd 1a2a 8a3d d707 4bbe 0862 b33e
000000a0: dce9 773e 2584 53be ff4d 64bd bb05 15be
000000b0: bd8c 1dbe 221f 25bd ee0e b1be 2c83 ae3e
000000c0: bd11 09be 7a37 a83e 7c9a 9d3e 6b43 0a3e
000000d0: 8573 403e d554 8c3e 4c75 803e aa1c 553e
000000e0: bc44 9d3e 6f3c 82bd 4965 913d 0f9b b43e
000000f0: 1186 af3e 5930 c5be 2e8d b63e e991 913d
00000100: 95ce 603e 8f45 50be fd10 f53d a1a2 c53e
00000110: b39e 0cbe ed5e a13c 30c4 92be 1b8e d4be
00000120: b592 28be 21d7 aabe 656d f7bd 9bd4 c4bd
00000130: 9dca 803d 214d cabe 54b8 713d bc12 56be
00000140: 4a09 ac3d f060 5ebe 29e8 d4be 0674 0f3c
00000150: ddd7 033e 87bf 6cbe 9cd6 c83e 72e2 bcbe
00000160: b6ac 56be 3e85 9bbd d427 843e 5b5e dbbe
00000170: 58a6 383e d8b1 9f3e ab69 113e ce28 1d3e
00000180: 75dc 763e 78df 533e faf6 c43e 90bf db3e
00000190: 64fa d6be 4164 78be d53a 70be f927 b0be
000001a0: 6c4f b1be 43b9 69bd 5b0f b53e 75ae d3bd
000001b0: 7852 d33d 6b56 dcbe 8dd9 17bd 03c7 d9be
000001c0: 6979 a53e 6b79 663e b311 cabe 2a5e 1b3d
000001d0: fc9a 08be 2c3f 15be a58d 753d fe19 c23d
000001e0: 55e4 bebe 4914 f9bd 1700 95bd acba bb3d
000001f0: 24c0 f23d c37f a9be 230e 8e3c a18d 653e
00000200: 13e4 a33e ebec 2cbe 8970 96be 8a00 babe
00000210: 0cdf 4bbe e51b d2be 8153 113e 16c6 18be
00000220: b222 abbe 3312 cfbd 7a4e d43e 2996 763d
00000230: f6e9 a8be d03b a9be 1503 0b3e 6341 8fbd
00000240: 04b7 6ebe 94fa 8d3e c02f a43e 1ebb 36be
00000250: d4ba b23d 7f1d 51be 522b 97bc b8b0 aabc
00000260: 4dfc b13d f9d8 7f3e 7ba9 b2be 68e1 8fbe
00000270: 5550 d63e edd7 073e cc91 803e 2c33 dabe
00000280: 12da 4e3e 795b 54be 663e 213e 3d6f fd3d
00000290: f89c c5be 0476 7f3e 50f9 4b3e 8dd5 83be
000002a0: d267 0d3e 3e7f 8ebe b2a0 5b3d 1622 5f3e
000002b0: 50d9 bdbe 0b93 ae3e 3856 4ebe 3186 9ebe
000002c0: 25a4 7c3e bacd 503e e50e aebe f999 983d
000002d0: 2431 22be 2c24 8f3e 9995 a8be 3b9d b13d
000002e0: a213 e9bc 1dbb b03c 85ec 193e b686 d5bd
000002f0: 1f2f 8abe 9787 dabe ca06 44be b881 65be
00000300: 91a9 d2be 60e7 b1be a49f 34be e04b 5d3e
00000310: 8916 8dbd 4aa3 873d f6e2 493e cb00 cebe
00000320: efbe a2be 273f bc3e a66c babe 8427 9fbe
00000330: 07d1 0d3e 002b 9c3e 449e 7ebd b63e f7bd
00000340: 96c7 253e 86ae d73e deaf 703e de46 e23d
00000350: b4c2 943e f7f0 c63e 7243 9fbe 5092 d63e
00000360: 949f 0cbe e315 99be c52a b7be ebea 7a3e
00000370: a187 57be 7b5e b73e 8417 b63e f927 8d3e
00000380: fe88 bf3e b62b 6a3e d9d0 b0bd 71fe 583d
00000390: 1a2d 163e c65b dabd fd47 a6bd c86f b2be
000003a0: a501 b43c bc69 543d 4274 f53d 5904 893e
000003b0: 09c5 dcbd 19f3 b8bd 040a 67bd bce5 b3be
000003c0: 6d8a d13e 3873 633d 6af9 ad3e efcc c0be
000003d0: 979a 53bd 8d39 403e 9728 13be cc31 9d3e
000003e0: 3193 903e 90b5 6bbd 4bd5 da3e 9fdb 8bbe
000003f0: 9736 d1be c573 91be 3db7 84be 76e3 a53e

encoder.gcs.5.bias f4 [16]
0.061968192 -0.023891868 -0.037081134 -0.038713694 -0.0056408076 -0.0074468 -0.105085365 0.1496377
-0.1155624 -0.15249588 0.1517129 -0.04887365 -0.05329275 -0.11329399 -0.088625066 -0.15253332
00000000: 5cd2 7d3d e1b8 c3bc 63e2 17bd 4092 1ebd
00000010: 86d6 b8bb 4904 f4bb ff36 d7bd a03a 193e
00000020: fbab ecbd e127 1cbe a05a 1b3e bd2f 48bd
00000030: 8049 5abd ae06 e8bd 0f81 b5bd b231 1cbe
